saved_models/my_model.pt (torch, 233035 bytes, 13 tensors)

base.base.0.weight f4 [32, 17, 3, 3]
00000000: 86ad ec3c 8f90 22be 9914 18be 95c8 c63c
00000010: 25fb 5bbe 1e35 8e3d 57e9 2bbe 5625 1cbe
00000020: 6895 33bd 2863 e43c 044b d0be 81cf db3b
00000030: 3d2f 8ebe 8a0d 18bf ed04 85be e7b8 5b3e
00000040: 2166 d13d 5393 3d3e 3edb 53be 5719 19bf
00000050: e383 25be e3b4 b3bd 6fd7 17bf a5d6 11be
00000060: 6b0d 213e ee18 123d fe4a 8ebd c410 efbd
00000070: 69d4 3a3d ee9c 373c 53a4 45be 6f0b 203e
00000080: 1372 1abf f422 3abc 790a c73c 3c94 9e3c
00000090: b510 ad3e 0c73 f63e b67f 8d3e ee61 25bd
000000a0: 7cc6 d93e b927 a53e e936 16be 91f0 8b3e
000000b0: d07d 423e c753 193e 80f9 303e 0b4e c43e
000000c0: b31e 6bbe c62d 293e 6a88 1c3e f928 7fbe
000000d0: bbc7 123e 4ef6 013e 6de2 73bd c1fa 06be
000000e0: c59f bebc 4dd9 3b3c b309 8bbd 995d 6f3e
000000f0: 6b0d 2dbe b0b8 a2bd 27f5 973c eee7 57be
00000100: 8f6d 443c a719 903e 6ab6 acbe 6aea 3fbe
00000110: 71ba a63d 26c9 8f3d de79 27be 81fa dcbd
00000120: b511 6a3c 713c 0a3b 5207 d33e 95c5 68be
00000130: 68d8 35be 332d 44be 5c4c 7dbd 309c c6bd
00000140: 999c 70be cc40 6a3e a7af 0e3d 2012 3f3e
00000150: 71e1 06be d92d 96be 3fff ccbc 6607 c2be
00000160: e902 83be 8f50 4e3d 60c3 dcbd 5fe9 903d
00000170: 68da b4bc 7b4f 0e3e 9606 39be ab60 55bd
00000180: 88a4 eebd dbb5 07bc 04d0 d9bd 26c7 053e
00000190: b0d4 053e 071f 673e 979c 3ebb 2ecd e3bd
000001a0: afdc 153e e7cd b9bb ffe8 97bd a9dd e53d
000001b0: 6930 19bc d2fc 423e b307 d93e 04c4 4d3d
000001c0: cf8b 123e c416 85bd d8e2 253d f7b3 653d
000001d0: cf7e e8bd 3c51 e23d 575a 2ebc 3d11 35be
000001e0: 7ccc 5f3e e72e 4dbc f17f 76be b45f 36be
000001f0: 7366 0cbe 391b 22be 5bed 723d 3185 c0bb
00000200: dd94 f1bd 2ac6 3c3d 1b37 acbd 2ab3 8b3e
00000210: e1b3 30be 3d90 3cbd 965a d73c 37ea 7ebc
00000220: 77b8 633d 2ff1 53bd 6245 0abd 3f91 ce3d
00000230: 7f15 123c 04aa 2fbc beed e8bc 5d34 8e3d
00000240: 40d9 c63d 409b 133d bd20 063e fe9f ea3c
00000250: 18d8 293e f8f9 e4bd edfc 04be 0ab0 cfbc
00000260: 67bc 89bb a1ee 88be 9893 75bd c702 1c3b
00000270: 1995 673d 7579 5f3d 8b84 e13a c6e6 cc3a
00000280: 0b9d 8dbb 134a 573d 1ae4 bbbe 939b 80be
00000290: 9f14 b3bd c158 d43d b865 873c 43df a9bd
000002a0: 4a49 983d 0de0 3c3d b881 6cbe 3580 cbbe
000002b0: df17 f3be c71e 39be 50cc 2d3c d0b0 073e
000002c0: af35 73be 5589 47be ef05 d5bd 3d62 ddbd
000002d0: 5d10 1a3c 2f29 32bc 9ae1 d6be fb68 9a3e
000002e0: 52dd 51be fcd9 24be 0c0d 663d 38ba ffbd
000002f0: cacc 21bc 384e df3d d8d7 f93e af76 213e
00000300: 97f3 0abf 1688 01be 22e9 41be d425 35be
00000310: 0fe2 b5bc 328e 593d 57d4 eb3b 7e1e 94bc
00000320: 09d5 513e 7153 80be 8967 21bd dbde 3fbd
00000330: 830b 6cbe 2658 e23c f324 24bd f341 853e
00000340: 9063 243e 5759 b93c fe77 afbe 8666 15be
00000350: eec5 b0bc ab66 443e c64a ce3b a7bb 66be
00000360: aafa 40be 090a bcbd cd48 323e f89a ef3c
00000370: 9105 fb3d ae7e b4bc 2e9a 90bd bc1a d5bd
00000380: ffe4 5bbe 1bac fa3d d0ce 293e 4e0f 98be
00000390: a6bc d53d 3818 e13d de39 13be 7303 8dbe
000003a0: c63c 503e 40dd ba3d e25d 0c3e d443 663e
000003b0: 7791 843e 62d3 68be 7270 343e 5cc4 3bbd
000003c0: 81d2 a8bd 5564 763d 39ff e13d 5d6f f13d
000003d0: dc3f 67bd e994 4cbc 9d77 a23d ba3d b5bd
000003e0: 510a 56bd aa16 89bc 379d ba3c 1765 3f3e
000003f0: 3890 f5bc bf31 8cbe 283e 5fbb 15ca 973d
0.028891336 -0.15875457 -0.14851607 0.024265567 -0.21482523 0.06943725 -0.16788231 -0.15248618
-0.043843657 0.027879313 -0.40682232 0.006708086 -0.27770415 -0.5939566 -0.2598032 0.21457253
0.10224558 0.18513231 -0.20689103 -0.5980429 -0.16163592 -0.08774736 -0.593131 -0.14242037
0.15727775 0.035668306 -0.069478974 -0.1167312 0.045612726 0.011206849 -0.19300966 0.15629362
-0.60330313 -0.011360873 0.024296986 0.019357793 0.3380181 0.4813465 0.27636498 -0.040376596
0.42534244 0.32256868 -0.14669384 0.27331975 0.18993306 0.14973365 0.17282677 0.38340792
-0.2296093 0.16521367 0.15286413 -0.24917974 0.14334004 0.12691614 -0.05954211 -0.13181593
-0.023269543 0.011465383 -0.06788959 0.23375548 -0.1689965 -0.079453826 0.018549515 -0.21084568
0.011989011 0.2814457 -0.3373292 -0.18741766 0.081410296 0.07020788 -0.16355082 -0.10789967
0.014286448 0.0021093155 0.41216522 -0.22731622 -0.17758334 -0.19157867 -0.0618404 -0.09697759
-0.23497237 0.2287628 0.034835484 0.18659258 -0.13171937 -0.29331854 -0.025024055 -0.3789627
-0.25588158 0.050369795 -0.10779452 0.07075762 -0.0220768 0.13897507 -0.18068919 -0.052094143
-0.116524756 -0.008283104 -0.10635379 0.1306425 0.13069415 0.2257043 -0.0029085034 -0.11123119
0.14634965 -0.0056702974 -0.07417487 0.11223919 -0.009349921 0.19041756 0.42388687 0.050235763
0.14311145 -0.06498483 0.04049954 0.05607983 -0.11352312 0.110506505 -0.010641656 -0.17682357
0.21855348 -0.012523389 -0.24072243 -0.17809945 -0.13710956 -0.15830697 0.05930839 -0.0058752527
-0.117959715 0.04608742 -0.08408948 0.2728513 -0.17256118 -0.046035994 0.026288312 -0.015558771
0.05559584 -0.051743682 -0.033757575 0.10086297 0.008916258 -0.010721687 -0.028433677 0.06943581
0.09709406 0.03603673 0.13098426 0.028640743 0.1658634 -0.1118049 -0.12987109 -0.025352497
-0.0042033675 -0.2674456 -0.05995521 0.0023805366 0.056538675 0.05455919 0.0017205639 0.0015632741
-0.0043216995 0.052560877 -0.36697465 -0.25118694 -0.087441675 0.10368491 0.016527995 -0.08294537
0.07435854 0.04611211 -0.23096359 -0.39746252 -0.4747915 -0.18078147 0.010607794 0.13251042
-0.23750947 -0.19485982 -0.10401522 -0.10809753 0.009403315 -0.010874077 -0.41968995 0.3015822
-0.20494583 -0.1609878 0.056164786 -0.1248669 -0.009875486 0.10903591 0.48797488 0.1576793
-0.5427794 -0.12649569 -0.1893659 -0.17690212 -0.02220252 0.053114124 0.0071969437 -0.018080946
0.20491423 -0.2506366 -0.03940538 -0.04684339 -0.23051266 0.027629923 -0.0400743 0.26026878
0.16053605 0.022625608 -0.34271234 -0.14589891 -0.021578755 0.1917979 0.006295535 -0.22532521
-0.18845621 -0.091816016 0.17410584 0.0292487 0.12256921 -0.022033062 -0.070606574 -0.1040549
-0.21474074 0.12239858 0.16582799 -0.29699177 0.104363725 0.109909475 -0.14377543 -0.27541694
0.20335683 0.09124231 0.13707688 0.22486812 0.2589223 -0.22736886 0.1762102 -0.04584156
-0.082432754 0.060154278 0.11035008 0.11788819 -0.056457385 -0.012486675 0.07932971 -0.08849664
-0.052255932 -0.01673444 0.022780044 0.18690906 -0.029975995 -0.27381703 -0.0034064148 0.07411591

base.base.0.bias f4 [32]
00000000: 74ad 1fbc c9d8 04be fe80 9dbc 2c0f 9d3c
00000010: 4615 8a3d 3ed2 06be 552d 24bb d391 21be
00000020: 570a cbbd 01b3 923b 3923 5d3d 23c4 0fbd
00000030: f326 55bc ad86 b9bd 311a 15bd d652 86bd
00000040: 4bc0 003a bab2 d53a def8 21bd e0da 00bb
00000050: ff96 2cbd 7cc7 bcbd 9fd1 67bd faa1 95bd
00000060: 78c9 e83e 8975 d8bd 894a 25be 00a7 4fbd
00000070: 568d bdbd cf2b 0abd 7f1e 573d 036c 96bd
-0.009745944 -0.12973322 -0.019226547 0.019172274 0.06742339 -0.13166139 -0.0025051434 -0.15778284
-0.099140815 0.0044769053 0.05398867 -0.03509916 -0.0130097745 -0.090588905 -0.03640193 -0.065587685
0.00049114664 0.0016303875 -0.03954398 -0.001966171 -0.04213619 -0.09217736 -0.056596395 -0.07306285
0.45466208 -0.10569293 -0.16141714 -0.050696373 -0.09255473 -0.033733185 0.052519318 -0.0734482

base.base.2.weight f4 [32, 32, 3, 3]
00000000: b2ef dd3c c86b eabd 24be 4abd 19b2 3abe
00000010: f8dd 8e3e 295f cabc d3d8 ccbd 4a2c 783c
00000020: fffb e9bc d81c 85ba 1242 23bd d2d6 bfbc
00000030: c521 503e d25f a7bd df78 5b3c 0f82 b8ba
00000040: 4bc5 2cbe d43e 0a3e c7bd 40be 3b58 f6bd
00000050: 411a 913c 64f0 03be 3faa 013e ad55 72bc
00000060: 8513 29be b294 26be dd86 6fbe 98bc 843d
00000070: c6fb 6dbe fccd d83b d68d 203e 1600 293d
00000080: e7de d1bc 7432 b1bd 431a 1f3e f6ea c6bd
00000090: a2bf 84bd 9d54 893c 6724 e33b 1adf ee3d
000000a0: c0be dd3d c225 85bd c7c9 2dbc ea6b 36bd
000000b0: b7c7 1dbe 9f76 fabd 8ad0 06bd f6ff 65bd
000000c0: 4519 6d3d 128a 123d 0689 51be 81ad 0e3e
000000d0: 1b3e 0a3e 5ae4 15bd c8cc bdbd 4dbe 433c
000000e0: 94cd 68be 4dd7 b6bd c031 b53b baae 443e
000000f0: 3dce 253d 6f88 7abe 4649 27bd 3ad7 f83c
00000100: 7a2b 0cbe 0e1a 0a3e e6c3 0bbe b85a 193c
00000110: 095f b73c b99f 09be 8f5c 14be 5c02 6b3c
00000120: abeb c33d b31e 983d 0b3c dc3d e107 c0be
00000130: 3cc3 203d d6cc 223d 8141 c8bd 82b8 283d
00000140: e0f9 96bc 0f6f 9cbb 0519 b83d 41bc 8c3d
00000150: f959 6abd 88a1 6e3c 1e93 cf3c 1f9d 4abe
00000160: 732e f93d 2f94 a33d 5fed 9fbd df48 083e
00000170: 2ec7 8cbe f035 d0bd 75be 86be 3335 f63b
00000180: 43b7 cdbd 13f9 acbd 2371 a8bd a851 2b3d
00000190: 5e3b 9b3c 6e29 153e fb05 a03c 02fc b13d
000001a0: e4df 323e b1bd 7dbe 2e19 933d ff81 22bd
000001b0: 2038 22bd 69a1 e2bd c136 2dbb ac20 363e
000001c0: 3d16 40bd 4892 583d 682b 283e a6bc 49bd
000001d0: dc38 ed3d 696e 0bbe 088b a13e bb13 6fbd
000001e0: b0a7 cabd c6b4 143e 2984 563d d467 4a3e
000001f0: 53dd 8bbd d22d 923d 2a53 383d c697 38bb
00000200: 1416 903d 6d9a 35be 7ada f43b 0cd9 b23b
00000210: 369c 9f3d c5f8 d5ba 9f5e 04be d008 c6bd
00000220: e1ff 5bbe dcba 6fbd 3a21 153d 628e f43c
00000230: 1103 35bd b806 613d 2036 653d 6d1c 70bc
00000240: 221a b43c b621 6a39 a110 763c 494d 4cbe
00000250: 2ae4 3dbe 6fe5 a73e d0ac 293e 5e41 81bc
00000260: 1333 cc3d bd3f 113b 0370 9ebd cd9d 0ebe
00000270: 8f0e 4bbe 997e 1abd 9ada 5dbe ec25 223e
00000280: 40f2 9dbd de3b 603c 9b83 07be 75f9 a4bd
00000290: 7b6b bdbd 538c c53d ee31 3fbe baeb b1bd
000002a0: a0b2 fe3d 57a0 b9bd d6df 89be 1255 ab3d
000002b0: 358d 49bc 5d66 143d 23e5 84bd c253 163e
000002c0: 299b 993d 2cad 6fbd 7bcd cb3c f26d 863e
000002d0: bd91 d9bb a9b5 d33d 589e 13be b8a2 8abe
000002e0: 210b d33c 56e7 15be 2cf9 0f3e 5a3a e9bd
000002f0: e358 bb3c 2359 05bd 600b bb3d 5131 1cbd
00000300: 8cdf 123e f36e 20be 7dc0 e93a 2e8c 11bd
00000310: 4570 013e 4f00 d53d 838c 69be c2be c8bd
00000320: 16be a0bd 1477 18bd bcaa 99ba 43d5 94bd
00000330: b69d 493d 1b60 69bd d410 0b3d f1ab a5bd
00000340: a020 ae3d 6212 c53d 0fb1 d2bd bf88 3f3e
00000350: 26da 0dbe 2949 25bd 213f 093c 8547 123e
00000360: 9cea 823d cf26 f5bd 2ada 72be c559 0cbc
00000370: 73c7 583e 9e75 15bc a618 c63d a690 de3d
00000380: 2158 debd f623 eebc b722 38bd c52d 0bbd
00000390: b32e e9bb 082a d6bc 2f4c 95ba e45f 5b3d
000003a0: ec64 e0bc 9e06 d83d 659c 2bbe 172b 0ebe
000003b0: 90e1 753d 76a0 d7bd b85e 12be c8ed 54bc
000003c0: 3449 f23c 2995 99bd 0d47 1ebd 34db 2fbc
000003d0: 8cbf 40bd d4d6 06bd 1659 a6bb 05d1 6fbc
000003e0: 841b 84bd efaf c03d 7d9d 903d 4813 61bd
000003f0: 5ec6 6ebd df0e 0f3e 5098 7b3d 35ec a5be
0.027091835 -0.11446339 -0.04949774 -0.18232001 0.27903724 -0.024703579 -0.100022934 0.015147278
-0.028562544 -0.0010155691 -0.03985793 -0.023417864 0.20325382 -0.08172573 0.013395517 -0.0014076846
-0.16872136 0.1350053 -0.18822394 -0.120285474 0.017712714 -0.1288467 0.126626 -0.0147909345
-0.16511352 -0.1626766 -0.2339129 0.06481284 -0.23240575 0.006616352 0.15679106 0.041259848
-0.025618983 -0.08652201 0.15537362 -0.09712784 -0.064818636 0.01676398 0.0069318297 0.11663647
0.10827398 -0.06501342 -0.0106071895 -0.04453651 -0.15408216 -0.122296564 -0.032913722 -0.056152306
0.057885427 0.035776205 -0.20462427 0.13933374 0.13500254 -0.036594726 -0.092675745 0.011947227
-0.22734672 -0.08927784 0.0055296123 0.19207278 0.040479887 -0.24466108 -0.040841363 0.030376066
-0.1368846 0.13486502 -0.13648948 0.009360008 0.022384183 -0.13439836 -0.14488433 0.014343824
0.095664345 0.074277304 0.1075364 -0.3750601 0.03924869 0.039746128 -0.09778119 0.041191585
-0.018429697 -0.0047739814 0.08989147 0.06871844 -0.05721471 0.014564879 0.025338706 -0.197865
0.121670626 0.07987248 -0.07808947 0.13309048 -0.27495712 -0.10166538 -0.26317182 0.007513666
-0.1004472 -0.08445945 -0.08224704 0.04182592 0.018949207 0.14566585 0.019534102 0.08690645
0.1746822 -0.24779393 0.07182537 -0.039674755 -0.039604306 -0.11065943 -0.002643034 0.17785901
-0.046896208 0.05287388 0.16422808 -0.049252175 0.11583111 -0.13616337 0.31551385 -0.058368426
-0.09895265 0.14522085 0.05237213 0.1976617 -0.068293236 0.07137646 0.045001186 -0.0028166636
0.07035461 -0.1773469 0.0074723335 0.005458003 0.07793467 -0.001632475 -0.1292672 -0.096696496
-0.21484329 -0.058527812 0.03640864 0.02985305 -0.044192377 0.054938048 0.05595982 -0.014655215
0.021985117 0.00022328537 0.015018613 -0.19951357 -0.18544069 0.3279223 0.16569829 -0.01577824
0.09970679 0.0022163235 -0.07736208 -0.13927384 -0.19829772 -0.03771839 -0.21665421 0.15834779
-0.07712221 0.013686148 -0.13233797 -0.08055393 -0.09249016 0.09645905 -0.1867139 -0.086875394
0.12436414 -0.090637855 -0.26928586 0.08365835 -0.012301733 0.036230434 -0.06489017 0.14680389
0.075002976 -0.05851476 0.024878254 0.26255757 -0.006639688 0.10337383 -0.14415872 -0.2707727
0.025762143 -0.14639029 0.14059895 -0.11388083 0.022869533 -0.03255571 0.09133029 -0.03813297
0.14343089 -0.15667324 0.0017833855 -0.035534076 0.12640484 0.104004495 -0.22807507 -0.09802009
-0.07848756 -0.037222937 -0.0011723856 -0.07267239 0.04922267 -0.05697642 0.033951595 -0.08089436
0.085023165 0.09622647 -0.102876775 0.18704508 -0.13852748 -0.040352974 0.0083768675 0.14285095
0.063924044 -0.11970293 -0.23716035 -0.008566325 0.21169834 -0.00912228 0.0967267 0.10867433
-0.10856653 -0.029069882 -0.04495498 -0.033979196 -0.0071161627 -0.026143089 -0.0011390502 0.053558245
-0.027391873 0.10548137 -0.16758879 -0.13883625 0.060029566 -0.10528652 -0.14293945 -0.012996145
0.029575922 -0.07499153 -0.038641978 -0.010733414 -0.047057673 -0.03291972 -0.005076538 -0.0146372365
-0.06450561 0.09408557 0.070612885 -0.05495003 -0.058294646 0.13970517 0.061424553 -0.32406774

base.base.2.bias f4 [32]
00000000: 7fff c4bd 05fd db3c 9055 903c ea0b 90bd
00000010: 9fe3 4a3c 5032 d73c a64e 333d d53f 9dbd
00000020: 3f4f 7dbd 1de4 19bd 5b04 26bd f074 873d
00000030: 6f08 82bd f800 993d 60ea 823d fac9 84bd
00000040: 1f1e c4bb d240 d03d 405e 073e 6ebc 013e
00000050: 5531 73bd 2ac7 bdbc 0a13 f93c 1a37 1bbd
00000060: a6ad 2e3e d233 e63d 6cd8 0b3e 1d11 953c
00000070: 2086 a4bb c066 b4ba 2109 08bc 8025 48bc
-0.096190445 0.026854048 0.017618924 -0.070335224 0.012383371 0.026269108 0.043776177 -0.076781906
-0.061843153 -0.03757106 -0.040531497 0.06614101 -0.06349265 0.07470888 0.0639236 -0.064838365
-0.005985036 0.101686135 0.13219547 0.12669536 -0.05937322 -0.023166258 0.030404586 -0.037894346
0.17058429 0.11240353 0.13656777 0.018196637 -0.0050208718 -0.0013763532 -0.008302958 -0.012215972

base.base.4.weight f4 [32, 32, 3, 3]
00000000: 7048 74be 0756 32bc 5fad 03bc 3427 f9bc
00000010: 0b38 023e 6cd0 e43d 71f8 05be 666f 403e
00000020: 4e57 053e 3e31 e6b9 59a1 bd3d d5ac 89bd
00000030: fccd ce3c e365 bdbc 2f34 e63d cd97 3c3e
00000040: e297 883e fb3f 10be 273a 733c 2508 83bd
00000050: dfe1 263e 95fb 973d 25c4 7abd b872 1dbd
00000060: 2921 64be ecb2 27be d2fb 60bd 2805 2c3e
00000070: c783 82bd ba0c f73d 9921 5fbc 1a0b 72bc
00000080: 9936 b1bc 4db0 93be 2923 16bd fdd6 ab3c
00000090: ee25 57be bce6 983d 9aa0 d7bc 4e35 a13d
000000a0: faa9 5abe 5156 14bc ed0a 8dbd c696 01bd
000000b0: b98f e23d 0492 e13d 3904 ed3b d8f1 28be
000000c0: 5cf0 0abe 1c3c b3bc b8c0 b0bc b4d8 c4bc
000000d0: 7dac c6bb 9d25 613d c68c 49be 9518 dcbd
000000e0: a3a4 a43d 3c34 60bc cb87 d0bd 0aff bd3d
000000f0: ab04 893b 20f1 38bd 8476 863c 0588 f3bd
00000100: 3541 873c 7769 43bd 8892 14be 637b 72bd
00000110: f8ca a83e 3f46 a2bc 8f8b 7cbd 570d d9bd
00000120: 106e dd3d 35c2 e3bc 77c0 2dbd 9529 183d
00000130: c54f fb3d 06f6 05be 93f6 983d 1c5f 493e
00000140: 16b4 033e ae67 eabd 7330 25be a5a4 cb3d
00000150: c9fe 0fbe 563c 7abd 7b63 ab3d b89a c3bd
00000160: 1eb4 f93c f87d 1f3c 9048 81be 08c5 c0bc
00000170: 9e6f ddbd ed1a e9bd 7cfa 0b3c 2929 653c
00000180: 2d68 f93d 563e d3bc ced7 263d 0ed7 0bbe
00000190: adc3 09bd ae98 683e 4337 17be c7fe 2e3e
000001a0: 44fd 6c3d f56d a6bd 9a76 a53c 58c1 913c
000001b0: ff99 a0bd 3a8c e23d 56dd 38be 2edc 653c
000001c0: 6067 b4bd a0e9 6f3c 744f 363e a4bc a73d
000001d0: 26d4 083b 0d1c e5bd ed64 c1bb cadb d53d
000001e0: 94d9 27be b273 b0bd 2525 ea3d 4879 b93d
000001f0: bd96 00bb 25c8 a3bd 68f3 e2bc 791c ffbd
00000200: b45c cd3d 6b6b 943d 5334 06be f273 68ba
00000210: ea71 783c f640 debc 8ed5 9dbc bf0c 83bc
00000220: c30b 1c3d bddc c4bd 3fd5 ed3c e4d9 9dbd
00000230: 8ee9 6abe ceaa 15be 76c7 b9bc 808d 713e
00000240: 79ed e3bd 8c27 3e3d 4ec1 b33d c049 02be
00000250: b2e9 613d 2c37 32be eaf9 5f3d 98be dbbc
00000260: 25b9 733d db3b dabd a220 d2bd 11f1 cf3d
00000270: d629 c8bd 1f04 60bc f178 e7bd 3af3 bbbd
00000280: d0c3 fbbc 1a03 d63b 2dcc 643e 6c3b 063e
00000290: 0f46 21be 5ffe f4bd 9fe3 0dbe 8769 2abd
000002a0: e250 eb3d 3102 32be 6c9b 693d aae9 02be
000002b0: 4be6 2fbe 4ee1 27be 6ffa a7bd 2eb3 b13c
000002c0: 8e83 b3bd 093f ab3c 4a3c 03be 4119 54be
000002d0: a060 d93d c943 0fbe 2859 ddbd fe50 67be
000002e0: 0acf a1bd 2bc7 133d b2d2 1bbe a771 51be
000002f0: 8363 9a3d f46d 05bd 0c91 62bd aa4b db3d
00000300: 51e6 2bbe d8ad d03d 2621 d53d a3ed fa3c
00000310: f2f1 153c 659b 063e bfe4 ef3d 2930 82bd
00000320: 59a8 47be 68bc 883d c318 62be 46cb 10be
00000330: 2cb4 ff3c 298b 5cbd 1f38 2bbb 772a 053e
00000340: 66b8 1ebe 04ec 33bd a038 453d 7e14 c7bd
00000350: 8686 7c3d d419 883a f42e 913c 0668 b83b
00000360: 1764 07be d4e1 38bd 96a9 ddbc 0fb4 a2bd
00000370: 0d88 dfbd 5e5a bebd 0527 d03d 559d ff3d
00000380: 6341 d1bd bf7e dfbd 8aca 92b9 e08b 1a3d
00000390: dcd9 5bbe 636f 78bc d03f 60be d122 b6bd
000003a0: 6b61 adbc 655f 4b3c 00a5 8abd 3439 433d
000003b0: cf88 c0bd 1138 133e 6a70 183e 9872 6c3d
000003c0: c91c 1fbc eb69 dcbc f5fd 00be 123c 013d
000003d0: 400a 163d a520 0d3b f94b 78bd c766 edbd
000003e0: 7199 9c3d ab80 393d b04c 07bd a306 fcbc
000003f0: ce54 95bd db92 06be 2ebd 97bd 6ce8 dabd
-0.23855758 -0.010884768 -0.00803694 -0.030414201 0.12716691 0.11172566 -0.13083054 0.18792495
0.13021585 -0.00043905707 0.0925929 -0.06722418 0.025244705 -0.023119872 0.11240422 0.18417282
0.26678377 -0.14086907 0.014845408 -0.06398038 0.162971 0.07421032 -0.061222214 -0.038439482
-0.22278275 -0.16376847 -0.054927655 0.16798842 -0.06372791 0.12062974 -0.01361885 -0.014773155
-0.02163248 -0.28845444 -0.036654625 0.020976538 -0.21010563 0.07465884 -0.026321698 0.07871495
-0.21353903 -0.009053783 -0.068868496 -0.03163793 0.11062569 0.110141784 0.0072331694 -0.16498506
-0.13568252 -0.021879248 -0.02157627 -0.024029113 -0.0060630427 0.05496751 -0.19682607 -0.10746876
0.080392145 -0.013684329 -0.101821505 0.092771605 0.0041814647 -0.04515183 0.016413935 -0.11891178
0.016510585 -0.047708 -0.14509022 -0.059199702 0.32967353 -0.019808887 -0.06165653 -0.105982475
0.108120084 -0.027802566 -0.042419877 0.03714903 0.12271074 -0.13082132 0.07468905 0.19665188
0.12861666 -0.114455566 -0.16131763 0.09943513 -0.14062037 -0.061092697 0.08368584 -0.09550995
0.030481394 0.009734623 -0.25250673 -0.023531452 -0.10812305 -0.11382089 0.008543607 0.013986864
0.12178073 -0.02578656 0.04073315 -0.13656256 -0.033633877 0.22714493 -0.14767174 0.17089377
0.05785872 -0.081264414 0.020198155 0.017792389 -0.078418724 0.11061902 -0.18053183 0.014029546
-0.0880878 0.014643103 0.17803746 0.08190277 0.0020878403 -0.11186991 -0.005901924 0.10442312
-0.16391593 -0.08615817 0.11432866 0.09056336 -0.0019621097 -0.07997159 -0.027703956 -0.124566026
0.10027447 0.07247051 -0.13105898 -0.0008867375 0.015163878 -0.027130585 -0.01926687 -0.015997289
0.038097154 -0.09612415 0.029032348 -0.07707575 -0.22940657 -0.14615938 -0.022678118 0.23589134
-0.11129279 0.046424434 0.08777104 -0.12723446 0.05515451 -0.17403859 0.054681696 -0.02682428
0.05950274 -0.10655948 -0.102601305 0.10153402 -0.097736046 -0.013672858 -0.113023646 -0.09177251
-0.03073302 0.0065311315 0.22343512 0.13108605 -0.15749381 -0.1196258 -0.13856362 -0.041604545
0.114900365 -0.17383648 0.057032987 -0.12784448 -0.17177694 -0.1639454 -0.08202063 0.021691885
-0.087653264 0.020904081 -0.12815967 -0.20712759 0.10614133 -0.13990702 -0.10808021 -0.2258949
-0.07900818 0.036078613 -0.15217093 -0.20453511 0.075385116 -0.032575563 -0.05531411 0.10707791
-0.16787077 0.10189408 0.10406713 0.030630892 0.009151923 0.13145216 0.11713552 -0.06356842
-0.19497813 0.06676561 -0.22079758 -0.14140043 0.031213842 -0.05384365 -0.002612598 0.1300448
-0.1550003 -0.043926254 0.048149705 -0.097207054 0.06165173 0.0010383674 0.017722584 0.005627635
-0.13221775 -0.04513724 -0.027058404 -0.079445 -0.109146215 -0.0929458 0.101636924 0.124811806
-0.1021755 -0.10912847 -0.00027998193 0.03773105 -0.21469826 -0.015163275 -0.21899343 -0.088933595
-0.021164617 0.012412881 -0.067697525 0.047661975 -0.09401094 0.14376856 0.14886633 0.057726473
-0.009711453 -0.026905974 -0.12596877 0.03155143 0.03663087 0.002153435 -0.06061933 -0.11591869
0.07646454 0.045288723 -0.03303212 -0.030764883 -0.07291566 -0.13141958 -0.0740913 -0.10688862

base.base.4.bias f4 [32]
00000000: 4b80 1cbd ce87 d9bd e3c6 d3bd 4800 27bd
00000010: b7ae 90bc 7680 47bd 47ae 5dbe 5493 e2bd
00000020: 8006 95bc e209 f9bd 8622 dfbd 2787 58bb
00000030: e4c2 c13c 2a2c 01be de40 37be 8fb3 14be
00000040: aa9e 9ebc f698 9bbd 8d38 c7bd 1a80 debd
00000050: 0a1b 01bd 358c d7bd 87ce 98bd e507 87bd
00000060: 92c6 1bbe e6ae 69bd 64fa 47bd 0cf7 dfbd
00000070: 12be 19bd f284 e4bc eea3 72bd 8796 97bd
-0.038208287 -0.10621606 -0.10340669 -0.040771753 -0.017661436 -0.048706494 -0.21648513 -0.11063257
-0.018191576 -0.12160088 -0.10895257 -0.0033039541 0.023652501 -0.12614504 -0.17895839 -0.14521621
-0.019362766 -0.07597534 -0.09727583 -0.10864277 -0.031519927 -0.10524789 -0.07461267 -0.06593303
-0.15212467 -0.05705156 -0.048822775 -0.10935792 -0.03753478 -0.027895425 -0.059238367 -0.07401758

base.fc1.weight f4 [128, 128]
00000000: b7d0 7fbe 19c9 55be 6e6b 72bd 5df9 983c
00000010: 6ff6 01bc a628 a23c 5e07 b73d 557b 153e
00000020: cbf7 d53d da6f 9bbd ce4d e03d d41e 1abe
00000030: d737 363c 2c52 883d 2236 503d c238 55bd
00000040: 587c 94bd 59a5 153d 8ae2 85be cda1 f43d
00000050: 7e46 bdbe 5310 e43c e147 3cbc 7adb b2bb
00000060: 7db5 95bd 8deb a03d 427f 9cbd f7b6 4ebe
00000070: d157 83bd e97d 52be 3a4b 1b3e d9b5 0fbe
00000080: ed6b f1bd 10aa ffbc 1e14 4abe aa9d 53bd
00000090: de0e 44be 07c7 713c a21f 42be f3df 08be
000000a0: fe8f 28bd 1fd8 bc3c 1dac 1a3e 16e5 693d
000000b0: 9f5d c33e 959a 843d 28c8 d1bd 5298 023d
000000c0: 4168 b5bd cc23 2e3d 6ec5 9e3c c6ab 5abe
000000d0: 6a1b 933c 0a5b 5a3e a508 38be 6dfa 5e3e
000000e0: 0665 8abd 4bb8 8fbd 2935 50be 22bf 763b
000000f0: 107e 8a3a c585 183b 2200 1b3c f98e ba3c
00000100: ffdb 28be 7881 79be ef14 0abe 0835 f73c
00000110: 7263 72bd 9b2b 56be f95f 41bd 0c0a a63d
00000120: 7761 a5bd 4e82 4cbd b451 3b3c caed b33c
00000130: b598 7bbd 2672 fdbd a369 b23e be4c f43d
00000140: e67c ea3c e1af a23d 6824 39bd 6539 fa3a
00000150: 5bee 863d bee3 803c 8825 10bd 4a8b a6bb
00000160: cc3d 1c3d 72f1 9f3d f95a b9be d7c6 adbd
00000170: 4742 1d3e 314d a8bd 8b63 8fbe 886a debd
00000180: 199e 16be 9376 743e 31bc 0fbe f834 adbd
00000190: 20e4 b43c 601d 79bb 6237 54be 33fe 32bd
000001a0: 27dc 543d 0a92 a1be 2ed4 56be 9f3a 043d
000001b0: 74d3 1ebe b261 29bd 7203 5abd 536e b2bd
000001c0: 0b41 7bbe 56df 4b3d 0845 5fbd cdc9 a2bd
000001d0: c109 4cbe 401f ad3d 9041 80bd a48f c2bd
000001e0: e69b 023e bf1e aa3e c685 72bd b701 273c
000001f0: 8969 50bd a1f9 9fbe e18e f9bd 58d2 b13d
00000200: cb67 a93d bd7c 523d 5cde 89bd d945 f53c
00000210: f4fe c63c e4e6 033e 0264 5bbe 144e a13c
00000220: 6b59 8abc 98bd fc3d 49a2 013e 6c79 45bd
00000230: 5a66 3bbe 3cf7 d53d 0c0e d33d 8e9e 32bd
00000240: be15 1a3e b966 0c3c dfd8 2c3d 3e81 883d
00000250: 1703 dfbc fc83 603d 6290 fa3d c22c d8bd
00000260: b900 8e3e 6681 39be 9aff 4cbe 015a 0fbe
00000270: 4907 4bbd 2594 fa3c 60cf 733c ec75 0f3e
00000280: b5fb c33c cde7 fdbd 5479 95bd efa3 fbbd
00000290: 8ce3 87b9 1971 0d3e 01f6 173e e509 38bd
000002a0: fb2a 893d 7d27 0ebd 96fa b93e f8d6 8e3d
000002b0: ee70 29be 5815 f63d 1782 22bd b4a0 63bb
000002c0: 0914 fd3c 9919 49bd 3f2b 21be 1e95 7d3c
000002d0: d6f9 3bbc d566 bf3d 7d23 573d a370 29bd
000002e0: 5752 903b 0924 4c38 e6a0 86be df21 ac3d
000002f0: c85b 313d 38a4 0b3e f7b4 263c 1f86 03bd
00000300: 1e0c ddbb 65dd ac3c 79b3 cd3c 3af4 cb3d
00000310: 6578 fe3d 0d44 88be 06b1 053e e575 b13c
00000320: 7c50 373e a57f bf3c 7900 593d fc29 b43c
00000330: 234f 21be 624d 483e e9be 6ebc a8ca 0e3d
00000340: dc33 d93d 3bf1 e53d a863 eabc 4d87 e0bd
00000350: 51b7 263e 4714 73bd 5d71 6c3d 9d9a 56ba
00000360: badd 593e dce8 a7be 3e56 10bd c897 f03d
00000370: f36e ed3d 95a3 5dbe 6cb5 3dbe e1c6 063e
00000380: 79f9 063e 89be 9a3d 76ec 443e 81fa 6b3c
00000390: d562 21be 2a39 253d 5d53 ca3d ee48 35be
000003a0: b8c2 62bd da24 573b 54e5 d4bd b88e f3bd
000003b0: 9c9e b4bd 701f 3bbe aba0 e93d 0d31 773b
000003c0: 63d7 90bc 1972 373e e863 e43b a011 823d
000003d0: b660 73bd ea4b 56be cb97 fc3c c56d 353e
000003e0: bdad d6be 80e4 373e 2f86 5c3e b8f0 c63d
000003f0: 6baf b2bc a572 2e3c e4f0 a8bd 652f ea3e
-0.24981962 -0.20877494 -0.059184484 0.018673593 -0.0079322895 0.019794773 0.08936952 0.14597829
0.104476534 -0.07589693 0.1095234 -0.15050822 0.011121712 0.06656298 0.050832875 -0.05205608
-0.07250279 0.03653464 -0.26149398 0.119449235 -0.36967844 0.027839815 -0.011491747 -0.0054582926
-0.07310007 0.07857428 -0.0764146 -0.20186983 -0.06413234 -0.20555843 0.15165415 -0.14034213
-0.11788163 -0.031209022 -0.19734237 -0.051664032 -0.19146296 0.0147569245 -0.1895738 -0.1336668
-0.041152947 0.023052273 0.15104719 0.05710324 0.38157365 0.06474797 -0.10243255 0.031883545
-0.088577755 0.042514607 0.019381251 -0.21354589 0.017957408 0.21323791 -0.17972048 0.21775217
-0.0675755 -0.07017573 -0.20332779 0.0037650545 0.0010566134 0.0023273092 0.009460481 0.022773253
-0.16490172 -0.24365795 -0.13484548 0.030176654 -0.05917687 -0.20915072 -0.047210667 0.08107385
-0.080752306 -0.049928956 0.011433054 0.021963973 -0.06142493 -0.12375288 0.3484622 0.119287
0.02862401 0.079437025 -0.045200735 0.0019090591 0.065884314 0.015733596 -0.035192043 -0.0050825225
0.03814487 0.07809724 -0.3620222 -0.08485191 0.15357314 -0.08217848 -0.28005633 -0.10860163
-0.14708747 0.23873357 -0.14036633 -0.084573686 0.022081435 -0.0038011894 -0.20724252 -0.043699455
0.051967766 -0.3155673 -0.20979378 0.032282468 -0.1551035 -0.041352935 -0.053225942 -0.08712449
-0.2453653 0.049773537 -0.054509193 -0.07948647 -0.19925596 0.08453226 -0.06262505 -0.095000535
0.12754783 0.33226582 -0.059209608 0.01019328 -0.050881896 -0.3124514 -0.12185455 0.08682698
0.0827175 0.05138849 -0.06731865 0.029940533 0.024291493 0.12881047 -0.21424869 0.01969055
-0.016888341 0.1234085 0.12659563 -0.0482115 -0.18300763 0.10447547 0.103054136 -0.04360824
0.15047356 0.008569413 0.042199012 0.06665276 -0.027223153 0.05481337 0.1223457 -0.10555412
0.27734926 -0.18115768 -0.2001938 -0.13999178 -0.049567495 0.030588219 0.014880985 0.14009827
0.023923734 -0.12397728 -0.07298532 -0.12287127 -0.00025918742 0.13812675 0.14839937 -0.04493131
0.06697651 -0.034705628 0.36323994 0.06974596 -0.16546986 0.1201579 -0.039674845 -0.0034733238
0.030893343 -0.049096677 -0.15739153 0.015477447 -0.01147314 0.093457855 0.05252408 -0.041367184
0.004404347 4.867095e-05 -0.2629463 0.08404898 0.04330042 0.13636863 0.010174981 -0.03211033
-0.0067458292 0.021101663 0.025109993 0.09958692 0.12425307 -0.2661442 0.1305581 0.021662662
0.17901796 0.023376295 0.052978966 0.021992676 -0.15752845 0.19560769 -0.014571884 0.034861237
0.106055945 0.11227652 -0.028611973 -0.109633066 0.16280867 -0.05934551 0.0577253 -0.00081864913
0.21275988 -0.32794845 -0.035238497 0.117477 0.115934275 -0.21644433 -0.18526238 0.13161804
0.13181104 0.07555873 0.19230828 0.0144029865 -0.15760358 0.04033772 0.098791815 -0.17703602
-0.05536148 0.0032828362 -0.10395303 -0.11892456 -0.08819315 -0.18273711 0.11407598 0.0037718446
-0.01768083 0.17914619 0.0069699176 0.06351018 -0.059418403 -0.20927396 0.0308341 0.17717655
-0.41929427 0.1795826 0.21535562 0.09713882 -0.021812161 0.010647451 -0.08249071 0.45739284

base.fc1.bias f4 [128]
00000000: e28e dabd 31cf cd3d b49e 36bd a30f d1bd
00000010: b1f0 d63d de17 cabc 54f3 5fbd a1cd 2abd
00000020: 492b 26bd 493d 023e b402 f73d 8c4a 48bd
00000030: f05f e83b 158c c33d 0d74 913d c501 0f3d
00000040: 055c da3d 62df 04bd 5d03 1f3e 6294 153e
00000050: 7c82 97bb 53b0 913d bcd2 8bbd 4488 b0bd
00000060: a4a6 0abd 52c6 7fbc d086 7b3d 07f8 0bbd
00000070: ee2c fbbc 9dee 30bd 27d4 c33d 8d09 55bd
00000080: 55e3 863d 8aaf b8bd 42c5 493e 414b 21bd
00000090: 50c9 23be f236 acbd aa1e e43d 5981 1dbd
000000a0: 21b1 0ebc b801 6bbd 04ff ffbb 2349 70bd
000000b0: b8c7 113e cdc1 b53c 3604 5e3b c816 a4bd
000000c0: 31e5 cc3a 0dd3 803c 51fd 67bb 8269 a7bc
000000d0: 9b01 05be 47f4 01bd 08c0 643d c36a 59be
000000e0: 89cf d5bc f063 92bc 579d e7bd 3a3d 5abd
000000f0: d616 083c 87d3 873d 34b8 263e 0a8a 1ebe
00000100: bea6 043c ddb8 0cbe 9e82 cd3d b4a3 833d
00000110: a211 80bc 508b 22be a0e1 a0bd 242f c73d
00000120: 0efe 483e 5035 51bd 8dca 0abe 6f7f 0fbd
00000130: 1067 dfbd a748 08bb e9e2 f9bd f2f8 9b3d
00000140: c75f 31be 1ec1 c0bd 1192 9b3d cf20 ffbc
00000150: 3e2d e9bb 0237 75bd d00c 483e 6c23 833d
00000160: 2552 193d cf9e 1d3e 44bd 1c3d 38bd 0e3e
00000170: 4150 583d fb8e e63d 0f41 7bbd 5028 7dbd
00000180: f557 d4bd e923 ecbd de37 35bd f8e8 1a3d
00000190: a0d2 65bc 02e7 e0bc 8173 b93d 3cb3 08be
000001a0: 5d73 f83c 6f9f 1dbd 3a9d 1b3e 5b91 c2bc
000001b0: c4d7 a0bd dd64 a5bd 7266 17be c412 20be
000001c0: 83d0 243d b55c 00be 849e fbbd 32c0 f6bd
000001d0: 30a0 593c b95d f9bd 9479 903d c583 4dbe
000001e0: b220 dbbd 9e1a 08be 7cf9 9ebb 666d 3fbd
000001f0: fa7a c2bd fc29 6b3d f6c5 7c3d 66b9 1b3e
-0.10671784 0.10049284 -0.044584945 -0.102080606 0.10495127 -0.024669584 -0.054675415 -0.04170001
-0.040568624 0.12718691 0.120610625 -0.04889922 0.0070915148 0.09548203 0.07102213 0.034913797
0.106620826 -0.032439597 0.15528627 0.14607385 -0.0046237092 0.07113709 -0.06827304 -0.086197406
-0.033850327 -0.015611248 0.061407864 -0.034172084 -0.030661073 -0.04319631 0.09561949 -0.05201106
0.06586329 -0.090178564 0.19704154 -0.03937841 -0.15994763 -0.084089175 0.11138661 -0.038453434
-0.008709223 -0.057374686 -0.0078123827 -0.0586635 0.14236343 0.022187138 0.0033877022 -0.08012158
0.0015632269 0.015725637 -0.003539879 -0.020436052 -0.12988894 -0.0317271 0.055847198 -0.21232133
-0.026099937 -0.01786992 -0.11309307 -0.053281046 0.008306226 0.066321425 0.16281205 -0.15482345
0.008096395 -0.13742395 0.10034679 0.06427708 -0.015633408 -0.15873456 -0.078555346 0.09725788
0.19628164 -0.051076233 -0.1355383 -0.03503364 -0.109083295 -0.0020795257 -0.12201483 0.07615842
-0.17321692 -0.09411834 0.07596219 -0.031143574 -0.007115989 -0.059866913 0.19536138 0.064032406
0.037431855 0.15392612 0.038266435 0.13939369 0.05281091 0.1125774 -0.06134134 -0.061806023
-0.10368339 -0.11530287 -0.044242732 0.037819833 -0.014027268 -0.027453903 0.09055234 -0.13349622
0.030328447 -0.038482126 0.15196696 -0.023750952 -0.07853654 -0.08075879 -0.14785174 -0.15632159
0.040237915 -0.12535365 -0.12286094 -0.12048377 0.013282821 -0.12176079 0.07054439 -0.20069797
-0.106995955 -0.13291404 -0.004851518 -0.04673519 -0.09496112 0.057413086 0.061712228 0.15207443

base.value_head.weight f4 [1, 128]
00000000: 5748 0e3d 49eb 64bd 7ff7 8bbc 7c87 1d3e
00000010: a6ea 6ebe 7a7c fd3c 8f2e e13b dbc9 253c
00000020: 72e3 8bbc 304e 82be 9684 febc 9152 ed3c
00000030: b5f5 a0bc 30cc 6dbc 978a c2bd 453f c3bd
00000040: bfa3 25be b2ad 07bb 9bf9 86bd 52e8 8dbd
00000050: 4ac9 a2bd 6faa 25bd 2b09 893d 71a4 573d
00000060: df68 eb3b 9160 dcbb 74c2 2ebe e7fd a8bc
00000070: 820d c13c c0cb 813c b9a4 e2bb 018c ab3c
00000080: c844 05bc 28e6 8d3d daad 73be 217d 7c3b
00000090: af44 4a3e 18bc 453d 296b 77be 988f 2a3c
000000a0: 2b29 61bb 0e0b 163b a505 1e3c 2a78 a93c
000000b0: 48da 80be 71bc 4bbc 8412 e6bc b48b 463d
000000c0: e2ef 13be 4522 d6bc 1dfc 31b9 506e 003d
000000d0: 612d 373e 8fb2 8bbd 0313 b9bd 8263 303e
000000e0: a113 ce39 f429 093c 0c89 dd3d ae08 9f3b
000000f0: 1d22 5f3a 5ae9 36bc cb25 2fbd 1a38 413d
00000100: 2b19 be3b 387c dc3c a02e 73bd efff afbd
00000110: 0493 023c 224c 323e f2c8 bf3c 546d 7bbc
00000120: 3b75 86bd ca6a 183c 387c 1c3e efe1 b7bb
00000130: e99c a23d dd44 993b f8e5 1d3d 3688 b0bd
00000140: 1cd3 fc3d 8183 883c d554 a9bb 838f 443c
00000150: c918 943c 28b5 173e 8a93 04be 7df5 9ebc
00000160: 35b1 95bd c3f9 0ebe 78aa 893b 23d4 14bd
00000170: 2330 87bd 9532 babe c8a2 3d3d 57ec 4eba
00000180: 2f08 da3c 8dec cd3d 230a 133c 910d a5bc
00000190: 12d1 813b 42eb c83b de5c 5dbd 01fc 3c3c
000001a0: 2512 07bd f7e0 873d c004 90bd c139 8e3c
000001b0: 4a30 2b3d 4f5f a63d 0378 203e 09af 653e
000001c0: 1124 11bd 0af9 003e 282f bf3d 6c25 733d
000001d0: d5b1 61bc 4e6c 763d 5f86 13be 325d d43d
000001e0: 30d8 da3d 671a 173e 3b01 11bc 32bc 3a3c
000001f0: e6df 943d 5c3a 8a3b ade3 f8bd 52b3 f6bd
0.034736957 -0.055888448 -0.017085789 0.15383714 -0.23331699 0.030943144 0.0068720053 0.010118927
-0.017076228 -0.25450277 -0.031069081 0.028970035 -0.019648412 -0.014514014 -0.0949909 -0.09533552
-0.16175745 -0.0020702896 -0.06590577 -0.06929077 -0.07948549 -0.04044574 0.06691202 0.052647058
0.0071841325 -0.006725379 -0.17066365 -0.020628883 0.023566011 0.015844226 -0.006916609 0.020940783
-0.0081340745 0.069286644 -0.23796788 0.003852673 0.19752763 0.048275083 -0.24161972 0.010410212
-0.0034356813 0.0022894773 0.0096449 0.020687182 -0.25166535 -0.012435065 -0.028085 0.048473075
-0.14446977 -0.026139388 -0.00016973955 0.031355202 0.17888404 -0.06821167 -0.09036829 0.17225459
0.00039306007 0.008371819 0.10817155 0.0048533296 0.0008511858 -0.011164034 -0.04276065 0.047172643
0.00580134 0.0269147 -0.059370637 -0.08593737 0.007969622 0.17411855 0.023411248 -0.01534589
-0.06565329 0.009302804 0.1528176 -0.00561165 0.079400845 0.0046773986 0.038549393 -0.0861973
0.123449534 0.016664268 -0.0051675835 0.0119971065 0.018078225 0.148152 -0.12946907 -0.019404167
-0.0730919 -0.13962464 0.0042012297 -0.03633512 -0.06600978 -0.36366716 0.04629782 -0.0007893494
0.02661523 0.10054884 0.008974585 -0.02014807 0.0039616907 0.0061315605 -0.054043643 0.011534692
-0.03297629 0.066347055 -0.07032156 0.017361524 0.0417941 0.081236474 0.15670781 0.22430052
-0.035434786 0.12595001 0.09335166 0.05936186 -0.013775309 0.06016188 -0.14406727 0.10369338
0.10685766 0.14756165 -0.008850391 0.011397408 0.07269268 0.0042183828 -0.12152801 -0.120459214

base.policy_head.weight f4 [128, 128]
00000000: 6319 31be 3ad7 22bd aebe c2bd 4e2c b5bb
00000010: b3a1 97bc 70f4 f5bd 8086 2d3e 5c07 20bd
00000020: ab00 7cbd 40eb 56be 7eb4 90bc 8fd6 f53c
00000030: f99c 3bbe 8a0b 93be 0eac 603e 6224 feba
00000040: db2f d43d 5762 3fbe abdb e53c 97a0 963e
00000050: 2023 f43d 7426 54bd 3a87 4c3e 098d e63d
00000060: 7fd7 06be bccf c6bd 8442 f73d ec60 233e
00000070: 4d64 313d e944 343e 94ce 483e d0fc 833d
00000080: 8571 bfbb 8ac6 143c 21f7 593d 1129 43bd
00000090: 5017 873d b10c 783e 1353 f8ba b873 263e
000000a0: 7aed afbe f514 2cbe d24f 1bbd 8ef7 c5bb
000000b0: 5663 1cbd 09c5 dd3d e24a 54bd 8017 20be
000000c0: 68f0 1c3e 060a 0d3e ce41 2a3e 9029 c9bd
000000d0: 34e8 d53d da4b a93d 14ac 68be 33d1 c1bb
000000e0: c95b 043e df78 74bd d547 8cbe e83c be3a
000000f0: 61b8 1cbe e1c3 473d cb4b 39bc 46af 58bb
00000100: e0fb f63d 567b 0cbd e710 773c d06a 2cbe
00000110: 3d48 33bc e509 a9bd 25f7 c2bc 31d3 14be
00000120: 3441 4e38 132a 7b3d f987 56be 2d82 9fbd
00000130: 8433 0c3e 4ca0 aabd bab1 aa3c 3591 0c3e
00000140: cbe1 1b3e 423f 92bd 9ead 8dbc e438 30be
00000150: cf3b a9bc 61f6 06be 7a04 bebd 7afe f73d
00000160: b479 0c3d 7170 9a3d 3ab5 5dbe 4f2f 9b3d
00000170: 493f 07be f182 133e 29c8 6cbd 6b4e 06bd
00000180: 0234 1d3d 5087 3a3c 26bc 87be 2c1f 6c3d
00000190: 978e 97bc fde7 c1bd a66d bf3d 6142 9dbd
000001a0: 9476 843d 1ce6 be3d 380c 98be 292e b53d
000001b0: 266e 1abc e36f 903e 36de 003d 528f a7be
000001c0: ab50 fe3d 41e7 363d 2a61 97be 649e bfbd
000001d0: f11d 90bd f290 3c3e 491e f43d 47b7 af3d
000001e0: 22f7 b13d 6026 d9bd 46d5 023e 36ff 1fbe
000001f0: 110c d93c be9b 803c fd26 74be 5f0f ffbb
00000200: aab2 103e bd20 b23d 0706 933d 6af6 af3d
00000210: 133b 17bd a922 27be 5551 b53d 7a96 8bbd
00000220: c0c6 5a3d d6fa 3ebe 2c4c 193e f983 adbd
00000230: 4395 63bd 567a 8a3c f13f 9bbb 0846 e53c
00000240: 402a e8bd 2008 c5bd 50c7 a03d efa9 aebd
00000250: f27f 0cbb 0ffd 2abe 59fe f73c b0c2 303c
00000260: 0a73 b43d 0380 b43d 049b 0ebe 8169 1f3e
00000270: 205b 963c 1534 ed3d d65f 4abd ce65 873d
00000280: 686a 03be 9468 d0bc facf 8b3e 39d4 00be
00000290: 66da a1bd e922 e1bc 01df 3fbe b56a 2b3b
000002a0: aacf f73d a130 3cbe 6fd1 2dbe 46cf 8ebe
000002b0: 58f6 c53d 799d 783d 56be d7bc e48f c9bd
000002c0: c377 c93c acb9 26be 93e7 663c 1ab4 833b
000002d0: f5ac 263d e113 45be 51e6 65be 896b 533d
000002e0: b2f9 833c 18b1 ccbd dfbf 383e b61d ca3d
000002f0: cbbc 0dbe db4f 9a3e c43c b23d e71f e3bd
00000300: c05d a13a bd0b 993d d5cf c2bd 7e9a 1ebe
00000310: d452 6fbe 51fc 333e 2b27 b6bd 8f2a afbd
00000320: ca8c 873b 0ea3 a23c d4ec 0ebe 8800 43be
00000330: 2fa0 16be 044c f2bd 6d75 673d e73b 19be
00000340: 295d 393c f8f1 483e bce3 ea3d 7cba 96bd
00000350: 0af6 2dbe 366c a6bd 12a4 eebd 1a15 6d3d
00000360: 5646 65be 4c88 eb3d 88e2 43bd 26ef f33d
00000370: 0983 773d ba65 9e3c 0fbc 1cbd b5ef 28be
00000380: 5cf3 05be 7296 bbbb 2b35 6cbe f271 243e
00000390: a79e 043f 2414 1abe 6e5f 593e bc03 cbbc
000003a0: 6660 a63d 8530 603d b649 f93d 6435 cd3e
000003b0: 0f76 a1bd 2b5d b53d 8600 67bd fc60 e23d
000003c0: a433 93bc fdb4 8c3e b3c3 a0bd 6f75 b7bd
000003d0: bbdd cdbd fe9f 12be efec 703d b833 16be
000003e0: 2e71 a9bd 5eb2 903c 76b1 183e 89dc d3bd
000003f0: 0255 eebb 4049 ad3d c7dd 143d 7e70 82bd
-0.1729484 -0.039756037 -0.095090255 -0.005528963 -0.018509721 -0.120095134 0.16945839 -0.03906952
-0.061524075 -0.20988178 -0.01766419 0.030009536 -0.18321599 -0.2871974 0.21940634 -0.0019389505
0.1036069 -0.18689857 0.028058847 0.29419395 0.11920762 -0.051794484 0.1997346 0.11257369
-0.13168143 -0.09707591 0.12073234 0.15954942 0.043308545 0.17604412 0.19610053 0.064447045
-0.00584239 0.0090805385 0.053214196 -0.047646586 0.065962434 0.24223591 -0.0018945656 0.1625508
-0.34360868 -0.1680487 -0.03791792 -0.0060414737 -0.03818067 0.10828597 -0.051829226 -0.15633965
0.15326083 0.13773355 0.16626665 -0.098223805 0.1044468 0.08266421 -0.22721893 -0.005914831
0.12925638 -0.059685584 -0.27398553 0.0014514001 -0.1530471 0.04877079 -0.011309574 -0.0033063455
0.1205976 -0.03429731 0.015079713 -0.1683762 -0.010942516 -0.0825384 -0.023799488 -0.14533688
4.9174952e-05 0.061319422 -0.20950307 -0.07788501 0.13691527 -0.083313555 0.0208367 0.13727267
0.15222852 -0.07140972 -0.017294701 -0.17209202 -0.020658402 -0.13179924 -0.092781976 0.121090844
0.034295753 0.07540978 -0.21651164 0.07577383 -0.13207735 0.14405419 -0.057808075 -0.03278963
0.038379677 0.0113848 -0.26510733 0.057646915 -0.01850061 -0.094680764 0.09347086 -0.076786764
0.064679295 0.09321234 -0.29696822 0.08846695 -0.0094256755 0.28210363 0.031461917 -0.32726532
0.1241773 0.044654135 -0.29566318 -0.093563825 -0.07036961 0.18414667 0.11919839 0.08579879
0.08689715 -0.106030226 0.1277667 -0.15624699 0.026495012 0.015699264 -0.23842998 -0.007783815
0.14130655 0.086976506 0.07178884 0.08591922 -0.036921572 -0.16321816 0.088534035 -0.068158105
0.0534122 -0.18650374 0.14970464 -0.084724374 -0.05556227 0.016904037 -0.004737847 0.027987495
-0.113361835 -0.0962069 0.07850516 -0.08528506 -0.0021438566 -0.16698097 0.03027265 0.010788605
0.088110045 0.08813479 -0.13926321 0.1556759 0.018353999 0.115821995 -0.049407803 0.066112146
-0.1283356 -0.025440492 0.2730711 -0.12580957 -0.07902984 -0.027482467 -0.18737413 0.0026156132
0.12100156 -0.18377925 -0.16974424 -0.27892512 0.09666127 0.060697053 -0.026335876 -0.09841898
0.02459324 -0.16281766 0.0140932975 0.0040192725 0.04069229 -0.19245864 -0.2245114 0.051616225
0.016110275 -0.099947155 0.18041943 0.09868948 -0.1384155 0.3013905 0.087029964 -0.11090069
0.0012311265 0.07472942 -0.09512297 -0.15488622 -0.2337144 0.1757672 -0.088941894 -0.08553039
0.0041366564 0.019853141 -0.1395753 -0.19043171 -0.14709543 -0.11830905 0.05650847 -0.14964257
0.011313715 0.19623554 0.11469218 -0.07359788 -0.16988388 -0.08126108 -0.11652388 0.057881452
-0.22390112 0.11500606 -0.04782346 0.11910848 0.0604277 0.019335616 -0.038265284 -0.16497691
-0.13081115 -0.0057247216 -0.23067157 0.16059092 0.51804584 -0.15046746 0.2122781 -0.024782054
0.08123855 0.05473377 0.12172262 0.40079796 -0.07883846 0.08855661 -0.056396984 0.110536546
-0.01796896 0.27481833 -0.07849827 -0.089579456 -0.10052057 -0.14318845 0.058819707 -0.14668167
-0.082735404 0.017663177 0.14911446 -0.10344798 -0.0072733173 0.08461237 0.036344316 -0.063691124

base.policy_head.bias f4 [128]
00000000: 4f5a d03c 1bb4 d03c 4e46 e2bc 8eda 833c
00000010: 39e6 d0bc 6118 b63a 0eae c0bc 33d6 413c
00000020: 5a17 e0bc ea21 d7bc aa04 83bc ea92 c6bc
00000030: 4ff4 943c 95c9 b53c a0f0 e43b 242c e53b
00000040: 1822 153d 2735 babc 7cb2 043d 0301 333c
00000050: e6f7 cfbb b34d 0abb f2b1 b23c 3ee4 833c
00000060: 5f94 50bc e1b0 abbc f258 b23b e66b db3c
00000070: 9da6 3dbc 5aaf 1a3d 8c50 b43c f2b3 7bbc
00000080: 8544 dd3c 75a8 20bd 2536 8b3c 2dce d63c
00000090: 19c6 003d 1997 883c 1eb2 073d e555 533d
000000a0: bfd5 02bc c781 8b38 319a 13bd 898d 25bd
000000b0: 7d38 6abb 010c f13b 008f 5b39 3660 633a
000000c0: 815d 28bb 2292 54bb 30f6 89bc 47e6 c03c
000000d0: a9a6 46bb bc41 e73a b5cb 563b 3e54 c43c
000000e0: 77f8 ac3c 54a7 1cbc ff53 1cbd 6db9 0c3b
000000f0: 3cae 4a3d b5ea 41bc a09f e8bc 11ab ac3c
00000100: 3361 613c 7ce3 03bc 3b71 f03c 852f 403b
00000110: 454d 35bd d771 053c 1567 0abd fbeb 17bb
00000120: 5445 133c 6ba9 c63c b94e 07bc 9670 b9bc
00000130: b145 48bd be3c 9abc 7965 803c f27b 06bc
00000140: 0fee 34bc 0ad2 f53c 185f 983c 5ac4 e63c
00000150: 62e4 563c 73b9 4abc d613 b3bc 7761 0ebc
00000160: 5390 05bd 3bae b53b 1236 f4bc 139b 473b
00000170: 2bed 5bbb 35da b1bc 34ff 69bc c94c 81bc
00000180: 0d1b 10bc d073 fb3c 4f19 2f3c 6c19 cebc
00000190: 2efa 923c 6ed4 403a 07a6 9cbc ebb7 15bd
000001a0: a860 623d a451 163d e34a 8fbb a442 d9bc
000001b0: 95bf 08bd f7e4 573c 1409 013d df01 803d
000001c0: b323 043c d9ea 46bc dd68 8abc 09bd 1c3d
000001d0: df9a 853a a8e8 08bc b063 ac3c aaed ca3c
000001e0: 61f3 a1b9 067d adbc c83e 20bc 7614 1e3d
000001f0: 3778 92bc ffc7 713d ffa9 6cbb ff0a bc3c
0.025433687 0.025476506 -0.027621415 0.016095426 -0.025500404 0.0013892764 -0.023520496 0.011830854
-0.027354885 -0.026261289 -0.015993435 -0.024239976 0.018182902 0.022190848 0.0069866925 0.0069937874
0.036409467 -0.022730423 0.03239678 0.010925534 -0.0063466905 -0.0021103441 0.021813367 0.016100045
-0.012730687 -0.020958366 0.005442732 0.026784848 -0.011575368 0.037764885 0.022011064 -0.0153627265
0.027010212 -0.039223153 0.016993592 0.02622136 0.03143892 0.016673611 0.03312885 0.051595587
-0.007985531 6.6522094e-05 -0.03603572 -0.04041818 -0.0035739236 0.0073561673 0.00020938739 0.00086736993
-0.0025690498 -0.0032435735 -0.016841024 0.023547305 -0.003031174 0.0017643492 0.0032775227 0.023965951
0.021114571 -0.0095613785 -0.038166042 0.0021472827 0.04948257 -0.011835744 -0.028396428 0.021077665
0.013756084 -0.008049842 0.029350867 0.00293252 -0.044263143 0.008144817 -0.033789713 -0.0023181427
0.008988697 0.024250707 -0.008258515 -0.022636693 -0.048894588 -0.018827792 0.015673386 -0.008208262
-0.011043086 0.030007381 0.018600032 0.0281698 0.013115974 -0.012373316 -0.021860044 -0.00869023
-0.03260834 0.0055444515 -0.029810939 0.0030457422 -0.0033558111 -0.021710495 -0.014282037 -0.015783684
-0.008795512 0.030694872 0.010687186 -0.025158606 0.01794156 0.0007355873 -0.019122137 -0.03655235
0.05526796 0.036698952 -0.004372941 -0.026521035 -0.033385832 0.013177148 0.0315028 0.06250357
0.008065152 -0.012140953 -0.016895706 0.038266215 0.001019325 -0.008356251 0.021043628 0.02477153
-0.00030889644 -0.02117778 -0.009780593 0.03859373 -0.017879589 0.05902862 -0.0036112068 0.022954462

dist.linear.weight f4 [4, 128]
00000000: 952e 0dbd 5e88 7b3c 9d43 c8bc 35e5 63bc
00000010: eab3 0fbd bfbd b43c 1f18 2cbb 3250 0e3d
00000020: b782 843d e6fc 06bd 3814 34bd ae36 05bc
00000030: ca8e d23c 9f14 c0ba 1bcc 5c3d 4cd6 193c
00000040: 4b20 f53a 04d3 34bd 27e1 f13b 6f82 02bd
00000050: 729f e43a 7fe2 99bd 2cc1 7bbb 3663 783c
00000060: ff59 893c 844f dc3b 03af 8fbc b441 87bd
00000070: 3eca eebc f174 703c f103 2f3b 6ba4 283a
00000080: 68c6 32bd b8d6 84bd dd6a a6bb 6910 67bc
00000090: de0b 4b3c 7355 323a ff28 83bd 52e7 e83b
000000a0: c7cc 4abc 0603 76bc 8c59 47bd 2b50 80bb
000000b0: c09a 0fbd 5d70 0a3a ce46 9bbc dbe1 b7bc
000000c0: e683 cb3d e4e5 1f3c caa4 02bc b399 acbc
000000d0: 93cd 24bc 4d15 0a3c 998e f73c a3df c23c
000000e0: 6cce 173a 820b 02bd 6f1a b4bb f136 d0bc
000000f0: 0d28 dfbb a5b1 b1bb 72b2 50ba 6f72 efbc
00000100: 28b1 ec3b 8210 ae3c 905b 8e3b 7579 363b
00000110: a042 0e3d f00d 01bd 2625 e1bc b4b1 203d
00000120: 3114 b6bd c823 aa3c e903 55bd 3330 f7bc
00000130: f843 74bd 5d1a d2bb baec a3bc 2f2d 173a
00000140: 7e8a ab3c b3ad d73b 80cd 3f3d 31c0 3eba
00000150: 018c bb3c b029 b6bd 1768 91ba 0fbf d23b
00000160: 3ac2 9dbc 73cd 7dbd 45b2 03bd 3666 083a
00000170: 9797 8fbb 7965 373a 6887 3abd 5807 00bc
00000180: ce46 883b d239 7439 c6c9 973c 1bb5 1a3d
00000190: 2dda eb3c cc33 8e3d 4b89 81bc eb5e d83b
000001a0: 5843 35bb 1029 30bc 0c30 2dbc 4145 e7bc
000001b0: 5cd4 b33c 61b9 713d 4ab5 bebb 3ae8 36bc
000001c0: 93a1 0a3b 7faf 9ebd 258c 1ebb 8f68 e43c
000001d0: ced8 4dba 86b4 ca3b 7866 e93c f6ca 35bc
000001e0: 01f8 2d3d 859e 1abd c32c 21bc f686 0cba
000001f0: db6b 383d 285d 6d3b 6f4a d9bc 1858 5b3b
00000200: 83e4 213d b134 313d 4bea 4cbd 32d0 af3c
00000210: f0a6 d4bb 69ae 33bd e7d0 51bc d7d1 6c3c
00000220: 2774 0fbd 8c29 49bc b03d 193d c4ba 063c
00000230: 4de0 8cbc 64a8 81bc 7001 90bc 07fc e83c
00000240: 1db2 2e3c cf08 103d 387f 103d 887a 9b3d
00000250: d09d 22bb 7658 723d 921d 69bb 3532 363c
00000260: a189 7cbd 3d36 0bbd 6261 bebc ec0b 9b3d
00000270: 8f82 803c 522b 8a3c aa2e 313c b450 3ebb
00000280: 7506 bf3c f786 debc f317 a9bb 0dbb 7c3c
00000290: 3006 e13c 7e2a 4cbc c3d1 823d 56fc 34bb
000002a0: d064 bb3b 4e8f 933a 2720 01bd f827 043c
000002b0: 039e b7bc 380c 08bc 4ec4 0f3c 7256 c4bb
000002c0: f6b1 8fbd 8598 423c 2645 8dbd 1164 143d
000002d0: d268 0b3c 879e aabc 0900 aa3a 2b1b 943c
000002e0: d241 0ebb 6214 3fbd 424d 73bc 4d87 0b3d
000002f0: f00f 233d 2566 2b3c e773 35bd 2f95 5e3d
00000300: 88d1 cabb 286f 4b3c 5f6c 513d 8923 d63c
00000310: 6a27 dfbd 1744 303d 5e61 b4bd efdf f4bc
00000320: 8518 da3d 0ce8 85bc e8ad 3b3d 4934 3fbc
00000330: 4d34 e0bc b076 11bd 20de 0b3d 905d 5a3b
00000340: 3d48 0fbd eaa9 10bc 9adc 44bd ba95 0e3d
00000350: 8557 d13b ecd1 dd3c d0a2 9b3c 9ae5 43bc
00000360: d60d f6bc 422d 963d 5210 87bc 46cd 54bd
00000370: f4fb 33bc 07a7 983c 57b2 5a3d 278e b0bc
00000380: 2f9f b3bc 0c1b adbb 63c3 d4bb d39a bbbd
00000390: a4e9 54bc cf74 2abd 6de2 983b 8d7c 843c
000003a0: 7a08 84bc f23f c53b c77b b93c 646f 16bd
000003b0: 0f97 d2bc 7d27 97bb ca37 d23b 7377 00bc
000003c0: f498 6c3c 13a9 fcbb c5c7 483c 9082 32bc
000003d0: d980 25b9 fff7 13bc a540 163b d6a9 8e3d
000003e0: f110 65bc 55fe b2bc 35de 8f3c 38ff e7b9
000003f0: bc0a 62ba edfd d1bb 1778 d93c 4707 133d
-0.034468252 0.015352337 -0.024446303 -0.013909628 -0.03508369 0.022063134 -0.0026259494 0.03474445
0.064702444 -0.032956026 -0.043964595 -0.008130712 0.025702853 -0.0014654583 0.053905588 0.009389471
0.0018701641 -0.044146553 0.0073815766 -0.031862672 0.0017442538 -0.07513904 -0.00384147 0.0151603725
0.016766546 0.006723346 -0.017539507 -0.06604329 -0.029149171 0.0146763185 0.002670523 0.00064331916
-0.043646246 -0.06486267 -0.005078657 -0.014103034 0.012392966 0.0006802894 -0.06404304 0.0071076537
-0.012377924 -0.015015369 -0.048669383 -0.0039158068 -0.03505969 0.00052810257 -0.01895466 -0.022446563
0.09937267 0.0097594 -0.007973859 -0.021069383 -0.010058778 0.00842793 0.030219363 0.023788279
0.0005790952 -0.031749256 -0.005496315 -0.025416823 -0.0068101943 -0.005422788 -0.0007961161 -0.02922937
0.007223267 0.021248106 0.004344411 0.002784339 0.034731507 -0.031507432 -0.027483534 0.03923197
-0.0889057 0.020769015 -0.052005682 -0.03017435 -0.059635133 -0.006411834 -0.020010341 0.0005766926
0.020940062 0.006581986 0.04682684 -0.00072765636 0.022893908 -0.0889467 -0.0011093643 0.0064314674
-0.019257654 -0.06196351 -0.032152433 0.0005203219 -0.0043820846 0.00069960166 -0.04553929 -0.007814251
0.004158831 0.00023291193 0.01852883 0.037770372 0.028790558 0.06943473 -0.015812537 0.006603112
-0.0027658548 -0.010751978 -0.010570537 -0.028231265 0.021951847 0.05901468 -0.005819951 -0.011163766
0.0021153435 -0.07748317 -0.002419242 0.027881889 -0.0007852436 0.006186071 0.028491244 -0.011095753
0.042472843 -0.037748832 -0.009837332 -0.0005360687 0.045024734 0.0036218856 -0.02652475 0.0033469256
0.039524566 0.04326314 -0.050028127 0.02146158 -0.006489627 -0.043867502 -0.012806154 0.014454327
-0.03502288 -0.012277972 0.037412345 0.008223239 -0.017196799 -0.015827365 -0.01757881 0.028440489
0.010662583 0.03516465 0.035277575 0.0759173 -0.0024813302 0.059166394 -0.0035570604 0.011120369
-0.06165469 -0.033987273 -0.023239795 0.07570633 0.015687255 0.01686636 0.010814348 -0.0029039802
0.023318509 -0.027163966 -0.0051603257 0.015425456 0.02746877 -0.012461303 0.06387665 -0.0027616224
0.005718805 0.0011257918 -0.031524803 0.00806617 -0.022414213 -0.008303694 0.00877483 -0.0059917504
-0.07016365 0.011877184 -0.06897955 0.036228243 0.008508878 -0.020827545 0.0012969981 0.018079361
-0.0021706712 -0.046650298 -0.014849963 0.03406458 0.03981012 0.010461365 -0.044299986 0.05434149
-0.006189529 0.012416638 0.05112874 0.026139991 -0.108961895 0.043033686 -0.08807634 -0.029891936
0.10649208 -0.016346 0.045820147 -0.011670181 -0.027368689 -0.03551358 0.03414738 0.0033319928
-0.034981 -0.008829573 -0.048061945 0.03481076 0.006388607 0.027077638 0.018998533 -0.011956597
-0.030035894 0.07332851 -0.016487274 -0.051953577 -0.010985363 0.018634332 0.053392734 -0.021552159
-0.02192649 -0.0052827653 -0.0064930185 -0.0916039 -0.012995157 -0.041615304 0.004665664 0.016172672
-0.016117323 0.0060195858 0.02264203 -0.036727324 -0.025706796 -0.0046128617 0.006415342 -0.007840979
0.014440764 -0.007710585 0.01225466 -0.010895386 -0.00015783626 -0.009031295 0.0022926715 0.069659874
-0.01398109 -0.02184979 0.017562011 -0.00044249906 -0.00086228154 -0.006408444 0.026546521 0.035895612

dist.linear.bias f4 [4]
00000000: 7645 af3b c8f6 8f3c 29c0 4b3b bdd0 9ebc
0.0053488566 0.01757373 0.0031089878 -0.019386644
