saved_models/uptodate_model.pt (torch, 234315 bytes, 13 tensors)

base.base.0.weight f4 [32, 18, 3, 3]
00000000: d155 23be a723 aebe 3cc7 babd f82e 0b3d
00000010: c1ea 9bbd bba2 a53b 397a 19bc c002 29be
00000020: e25d dabe 3356 5ebe 1c08 8b3e 377c a43e
00000030: 2cdd d7bd c671 dc3e e67f 4e3e 1232 5f3e
00000040: 5167 823f 4acc 823f 14a9 6bbe 37e6 03ba
00000050: 253d bebd 8873 df3d 9a4b db3d 07e0 143e
00000060: 93f0 d93c da2f 04be 8121 993e c017 b5bb
00000070: 97ff 653b 899f 06be a3d2 0fbf d08d 85bd
00000080: c705 c33c 6fef 1cbf a5f9 cf3e 7f8d c23e
00000090: d6c3 bc3e 72e3 65bc 04ef 6b3e 2799 95be
000000a0: 31da e03e fde1 e9bd 41bd 49bd ea73 ff3d
000000b0: da87 253f d835 8cbe bc83 50be c214 2c3e
000000c0: b2fa debe bee6 9bbe 8176 823e a540 9abe
000000d0: 4656 f1be 9dbd cf3e 8c81 a0be ecf1 083e
000000e0: d15e ef3e eaaa 8a3f 6b50 a83d 79a4 0c3e
000000f0: ac7f 823f 9254 9abc 7733 9a3e fd48 8d3f
00000100: 1681 c23c 6e5a e63e 4ad7 bebe ffcf d9be
00000110: a53a 2fbf 6f5d 5e3e 72f2 2d3f d42f c53e
00000120: ce17 a6be db28 833e b92c 303e 4c23 49be
00000130: 62aa 8f3e 49f2 ffbd 4bea 87be 88eb febd
00000140: de1d 92be 8282 8abe a9cf 31be 1095 37bd
00000150: e5b0 d2be 0638 5d3d 20a6 863d b42c 09bf
00000160: a99a dc3d affa c3bd 0b07 86be c09b c8bd
00000170: e6e4 323e 145f 86be f2e0 adbd 28aa c03d
00000180: 1021 c0be b4b7 3ebe 8597 a63e 3ec9 e1be
00000190: 4535 09be 60d0 883c 5f48 3dbf 5dce 47bf
000001a0: 93c7 2abe 58be 01bf 3194 00bf fd61 c73d
000001b0: 530a 52bd 562b 08be 144f 453e a4bc 463e
000001c0: 61cf bbbc 95c0 b93e b53d 1b3d 17c4 07bd
000001d0: c35d 8e3e 359d a2bc c861 d3bd 6251 403d
000001e0: 795a cabb f539 7bbb 3ee5 4f3e a234 393d
000001f0: 92b2 533e af7d ca3d eef1 98bd bd04 483e
00000200: 23d4 d23c 66a4 81bc 40f3 ee3c ee0a a23c
00000210: 5b4e b33e 0919 67bd 69cc 593e 7dfe 143e
00000220: 9644 c43d ff4c 1abd 8766 46bd 89ef 65bd
00000230: d4b8 ff3d 1853 c3bd 4638 4b3d fd6f 27be
00000240: c0b3 d7bd 91bb 1e3e 87b4 6d3c c35b a2bd
00000250: 8e7b 143d 3003 6cbd 01ae a73c 2c11 bb3d
00000260: bfcd 9638 87f8 44bf ee21 29be bd36 20bf
00000270: 3191 cebf baa7 07bf 91b5 84bf c300 acbe
00000280: e491 973e 7f98 3fbc ba81 33bd 32c6 8bbe
00000290: b247 b6be 0505 98be e20e df3c 4399 39be
000002a0: ebc0 e9bd 790e ccbd b78b 06bd ac39 683e
000002b0: 1e16 d0be 73ff 9cbd 202f f33e 13d3 1f3e
000002c0: 7429 5dbe 7695 bd3d eec6 d1be aa84 8abe
000002d0: 1a28 70be 70a8 803c 9e68 413e 0c75 f73d
000002e0: a061 0b3d 75f5 963d 4ab6 d13e e0d8 10bf
000002f0: 33ab fabd 676c f8be 8dff f03d 3976 97be
00000300: 0091 70bd a955 c9bf 586a 30be 3218 38bf
00000310: 61df 0f3e b211 173f 386b 373e 2b68 0c3e
00000320: 173e 943d 4718 95bf ffe8 e5be eb1c 023f
00000330: ef3e 0bbf 6709 eb3e 9ae2 283f 9332 223e
00000340: f1a8 2dbe b00f cdbb 9f44 c8bd 8ede 8fbe
00000350: 3ca1 f5be f1ee 4bbe bbb6 a03d 6f55 e5bd
00000360: 0a22 a23f 027e efbd 0e99 e33e 0ac9 bc3d
00000370: 3228 e63f e9ca 0abf 5a80 133e 35fd d33e
00000380: b05d c9bf 9f6d e1be d695 91be 305c 673e
00000390: f369 b1be 5897 143e ec33 79be c616 1ebe
000003a0: 221e 03bd 1382 013d 4df1 133e ded2 25be
000003b0: 1a54 0d3e f63f 9b3c 7f6f 56bf 7295 cabd
000003c0: c34c d83d 9cfd debb b1b6 d83e 7efd 73bf
000003d0: 39df 993e 52a6 603e c847 d8bd 2533 51bf
000003e0: 5bcc 92be 6253 393d aa15 c4be 8db1 813e
000003f0: 16d7 433e 005f 973e 0e28 3f3d a325 543e
-0.15950705 -0.34011576 -0.09120032 0.03398034 -0.07613135 0.0050547994 -0.009367519 -0.16504955
-0.42649752 -0.2171257 0.27154624 0.32126018 -0.10540232 0.43055552 0.20165977 0.21796444
1.018778 1.0218594 -0.23013717 -0.0005031558 -0.09289006 0.10910708 0.10707779 0.14538585
0.026603973 -0.12908879 0.29908374 -0.005526513 0.003509497 -0.13146795 -0.5618078 -0.06521189
0.023806466 -0.61302847 0.4062015 0.37998578 0.3686816 -0.014031278 0.23040396 -0.29218408
0.43916467 -0.11420057 -0.049252752 0.12473281 0.6466042 -0.2738483 -0.20362753 0.16804793
-0.4355064 -0.3044948 0.25481036 -0.30127445 -0.47136134 0.4057435 -0.31348836 0.13373536
0.46752027 1.0833409 0.082184635 0.13734616 1.0195212 -0.018839154 0.3011739 1.1037899
0.023743194 0.44990867 -0.37273628 -0.425415 -0.6844886 0.2171533 0.6794807 0.38513052
-0.32440037 0.25617108 0.1720456 -0.19642371 0.2805968 -0.12497384 -0.2654594 -0.12447268
-0.28538412 -0.27052695 -0.17364372 -0.04481989 -0.41150585 0.054008506 0.065746546 -0.53583837
0.107716866 -0.095692985 -0.26177248 -0.09795332 0.1747013 -0.26244414 -0.084901705 0.09407455
-0.37525225 -0.18624765 0.32537475 -0.44098848 -0.13399227 0.016700923 -0.73938555 -0.7804926
-0.16677694 -0.50681067 -0.5022612 0.09735487 -0.051279377 -0.13297781 0.19268447 0.19407898
-0.022926034 0.3627974 0.037900645 -0.03314599 0.2780591 -0.019850353 -0.10321385 0.046952613
-0.006175336 -0.0038334106 0.20302293 0.04521621 0.20673588 0.098872535 -0.074680194 0.19533058
0.02573592 -0.015825462 0.029168725 0.019780602 0.35020718 -0.05642036 0.21269383 0.14550205
0.09583394 -0.037671085 -0.04843762 -0.05613664 0.12486425 -0.09537333 0.049614213 -0.16351314
-0.105323315 0.15501238 0.014508373 -0.079276584 0.036250643 -0.057620227 0.020468714 0.09134135
7.1908806e-05 -0.7694172 -0.1651685 -0.62583524 -1.6138059 -0.52990305 -1.036791 -0.3359433
0.29603493 -0.011694073 -0.04382489 -0.2729965 -0.35601574 -0.2969133 0.027228776 -0.18124871
-0.11413749 -0.09963698 -0.032848086 0.2267825 -0.40641874 -0.076659106 0.4749689 0.15607862
-0.21597844 0.09257023 -0.40972084 -0.2705434 -0.23452798 0.015705317 0.18887565 0.12082872
0.03402865 0.07371036 0.40959388 -0.56580925 -0.12239685 -0.48520204 0.117674924 -0.29582384
-0.058732033 -1.5729266 -0.17228067 -0.7191192 0.14050056 0.59011376 0.17911994 0.13711612
0.07238405 -1.1648034 -0.44904324 0.50825375 -0.54392904 0.4590561 0.65970767 0.15839605
-0.16958977 -0.0062579736 -0.097787134 -0.28099483 -0.47974575 -0.19915368 0.07847353 -0.11197936
1.2666638 -0.11693956 0.4445271 0.09218033 1.7981017 -0.54215866 0.14404431 0.4140412
-1.5731716 -0.44028947 -0.28434628 0.2259376 -0.34651145 0.14510858 -0.24336213 -0.15438375
-0.03201116 0.03161819 0.14447518 -0.1619372 0.13801613 0.018951397 -0.8376388 -0.09891786
0.10561516 -0.006805135 0.42326882 -0.95308673 0.30053118 0.21938446 -0.10560566 -0.81718665
-0.28671536 0.045245536 -0.38297778 0.25330773 0.19125018 0.29564667 0.04666906 0.20717482

base.base.0.bias f4 [32]
00000000: 12e9 25bd face febd 5d2d 04be 5dad b2bd
00000010: 1acb b6bd a952 cebc 2c14 09be 420d 8ebe
00000020: 1951 33be 2377 82be 49d5 d9bd 4c55 43be
00000030: 17a6 12be f2a7 c0bd 4c1b c8be 8688 37be
00000040: 9236 9abd 2c6a f4bd 5db5 7ebc ce91 2abe
00000050: 5c1a b7bd cc2b 18be dfbe fabd ed66 d7bd
00000060: 59e7 babe 468e c5bd 78aa a0bd 5317 63be
00000070: 11a9 18be 4b23 6bbd 5471 9bbe e52f 54bc
-0.040505476 -0.124418214 -0.1290793 -0.08724473 -0.08925457 -0.0251859 -0.13386601 -0.2774449
-0.17511405 -0.2548152 -0.10636384 -0.19075507 -0.14321171 -0.09407033 -0.39083326 -0.17923173
-0.0752994 -0.11934313 -0.01554617 -0.16657183 -0.089405745 -0.14860457 -0.12243437 -0.105176784
-0.3650463 -0.09646277 -0.07845014 -0.22176866 -0.14908244 -0.057406705 -0.303599 -0.012950872

base.base.2.weight f4 [32, 32, 3, 3]
00000000: 7683 9c3b 7a15 6bbe e184 65be 2bed 6cbd
00000010: 1bd5 f4bd 3a76 59bd f0db 3f3d e12b 0b3b
00000020: b0db 7fbc 26eb 1dbe c751 02bd 4749 bebd
00000030: fc66 c93e d5c8 a6be ec08 c23c 4d42 f43b
00000040: 0e58 be3e 2a3c debd ee51 e83e 89ab 0d3d
00000050: 9a32 45be bb80 39be 44dd 04be 88da 913e
00000060: 8e4b 303e d984 2dbf ffe0 c23d 5657 88bd
00000070: 4971 b23d c976 84bd e236 973d 4755 29be
00000080: 0e8d e3bd 8be8 f63c 40e0 4c3e 9f6d 99bd
00000090: 1006 263e c103 5cbd 162d 833c af02 b73c
000000a0: a622 b73e bc10 393d 0772 7abd 845d c13d
000000b0: f979 273d 05f3 663e 97db 993e 3949 2f3e
000000c0: 1577 9d3c efd8 50be ce7d dcbe e1e6 f0bd
000000d0: 720a febd 6feb 713d 29c6 89be c1dd 3d3e
000000e0: 42dd 40bd e8b0 c83d a356 57be 610a 91be
000000f0: 5321 e03b ba11 f3bd 43c1 1b3d cf1a 423e
00000100: 1816 07be fa0a af3c ec5d d0bd b9bc 6d3e
00000110: 86fa f0bd c2f1 bfbc e6ea e03c 8946 e83d
00000120: 50ad cd3e 2dc6 d1bd 1683 043e 1613 6f3e
00000130: bb9c 4ebd 5c46 acbe a598 843e bb64 833e
00000140: de00 eebd db90 8cbe d469 073f fc05 4fbe
00000150: 9d69 29be 3236 f43d 5a62 223e fced e9bd
00000160: 48dc c4be c477 903d ab25 013d ff83 cdbc
00000170: 715d aebd f53a fdbc bc25 333d a6e7 983d
00000180: 0e9f 373d 9f2c 7b3d 9c0e d63d bde6 963e
00000190: 62ed f73d 9d77 753e bec0 fcbc 5d54 0e3e
000001a0: a460 433d aab7 2e3e f534 febb 19ab a93d
000001b0: c593 803d 90ee 40bd feb8 59be e4bd bcbd
000001c0: 9230 2ebd f1ad 283d dea0 873e 472f c03d
000001d0: 0d2d 9abd 13dd 7d3e 0c1f a3bd 872e 5fbe
000001e0: 07fc 47be 8c26 2b3e 4935 933d 3324 28be
000001f0: 1e28 04be c426 8c3e d09a c3bd 71b4 8dbd
00000200: 8432 503d 14c0 0f3e b12a 673c e91b c0be
00000210: c14a c7bc c40a 3d3d 0df1 7c3e 8c04 2cbe
00000220: 26c5 283d 91a6 b7bc 1f69 f83d 244c 27bd
00000230: a931 4fbd bd0d 213e 7ced c0bc f7ee dd3d
00000240: 618a 363e 06d4 edbc 3fb5 afbd 5497 bf3a
00000250: 53a7 e63c 329c 33be 73b6 d7bd cbc6 a23e
00000260: bc1c a43d c5cc f33d d1bb d13d 2f0d 0abe
00000270: 6dad 723e 7a25 ee3e 231e 893e ab28 6cbe
00000280: a815 d53b 72c6 ee3e 139e fcbe 81f6 09be
00000290: 8fd6 c33e 98b8 81be 3f5c 553c ae51 c1be
000002a0: 959e 6c3d e923 4a3e b2f9 a43e fd91 86be
000002b0: 1933 d9bd 4b96 b7bc ca46 d3be a793 11bf
000002c0: 36f8 7ebe 9fb1 88be 756a 01bf f0c2 89be
000002d0: 1b71 033d f1ab f0be 4648 3cbe f327 f7be
000002e0: 8712 80be 4a54 dcbe aee6 c7bd 6b39 47be
000002f0: 1211 a53d 4782 e43d bdb8 3cbd ae05 e33d
00000300: 7351 803c df51 77be a5bc 75be e687 02be
00000310: dabf 543e 3287 1a3c cee8 a2bd cf91 02be
00000320: aa18 a0bd bc56 f03d 1462 b5be d1a2 93be
00000330: 6e88 a5bd ee30 1d3e 13be 283e 0653 73bd
00000340: 51c0 543d 0ed5 8cbd cff4 ae3d 53fb 41be
00000350: 23a5 0dbe 82c1 7f3e 0117 66be 24cd 393d
00000360: 7ca8 acbd 79be 08bf 0c1a 0cbf dacd aebe
00000370: 3c4b 6fbe 1e8f 8bbe 9b58 2dbd b6a8 b5bd
00000380: acf9 50be cadc 803c 90b2 a2be 7c91 dabd
00000390: 0750 dfbe 57a6 c3be 7274 95be 68a7 c6bd
000003a0: 51e3 cfbd c438 803d 3c72 553e b246 913d
000003b0: 0a4e dfbd 329c 483d aca4 5dbd 85f5 27bd
000003c0: d797 2a3e 8220 ce3d 3017 8fbe 3350 033e
000003d0: b1e5 cfbe 3ce3 903e 22a3 a93e 65b0 773e
000003e0: 2bc6 98be 5a0f 3e3e 434e b93d 16b8 2f3e
000003f0: db45 30be 9af4 a03c b27f 943e 605b dabc
0.0047764136 -0.22957411 -0.2241397 -0.05784337 -0.11954709 -0.053091265 0.046840608 0.002123587
-0.015616342 -0.15421733 -0.03181627 -0.0929132 0.39336383 -0.32575098 0.023685895 0.0074541927
0.37176555 -0.10851319 0.45375007 0.034587417 -0.19257584 -0.18115513 -0.12975031 0.2848704
0.17216322 -0.67780834 0.09515571 -0.06657283 0.08713014 -0.06467969 0.07383515 -0.16536437
-0.111108884 0.030140182 0.2000742 -0.07491612 0.1621325 -0.053714518 0.01601271 0.022340147
0.35768622 0.045181975 -0.0611439 0.09441665 0.040887807 0.22553642 0.30050346 0.17117776
0.019221822 -0.20395254 -0.4306473 -0.11762787 -0.12404336 0.059062418 -0.26908997 0.18541624
-0.047086008 0.09799367 -0.21029143 -0.2832823 0.00683991 -0.118686154 0.038026106 0.18955539
-0.13192022 0.021367539 -0.10174164 0.23216523 -0.117665336 -0.023430709 0.027455758 0.113415785
0.4017129 -0.10242877 0.1294063 0.23347124 -0.05044244 -0.3364743 0.2589771 0.2566279
-0.11621259 -0.27454266 0.52895856 -0.20217127 -0.16544195 0.119243994 0.1585783 -0.11422345
-0.3844931 0.070540935 0.031530064 -0.025087355 -0.08513916 -0.030911902 0.04373716 0.074660584
0.04482942 0.06132185 0.10452005 0.29472914 0.12105824 0.2397141 -0.030853625 0.1389937
0.047699586 0.1706225 -0.007757778 0.082845874 0.06278185 -0.04710251 -0.21261975 -0.09215906
-0.04252679 0.04118151 0.2648992 0.093840174 -0.07528124 0.24791364 -0.07964906 -0.21795093
-0.19529735 0.16713923 0.07187898 -0.16420059 -0.12905928 0.27373326 -0.095510125 -0.06919182
0.050829425 0.14038116 0.0141092995 -0.37521294 -0.024327638 0.046152845 0.24701329 -0.1679861
0.04120364 -0.022418292 0.12129425 -0.040844098 -0.05058447 0.15727897 -0.023550741 0.108365946
0.17826225 -0.029031765 -0.08579492 0.0014617243 0.028155958 -0.17540053 -0.10532846 0.31792292
0.08013293 0.11904291 0.10240901 -0.13481592 0.23698969 0.46512967 0.26780805 -0.23062389
0.0065028258 0.46635777 -0.4933935 -0.1347294 0.38249633 -0.25336146 0.013022481 -0.3775763
0.057768423 0.19740261 0.32221752 -0.26283255 -0.10605449 -0.022410532 -0.41264945 -0.56865925
-0.24899372 -0.26698014 -0.50553066 -0.26906538 0.032090288 -0.4700618 -0.18386945 -0.48272666
-0.25014135 -0.43033057 -0.097607955 -0.19455497 0.080598965 0.11157661 -0.046074618 0.11085068
0.015663838 -0.24152325 -0.23997743 -0.12747154 0.2077631 0.009431647 -0.0795456 -0.12750934
-0.07817204 0.11735293 -0.3542639 -0.28835157 -0.080826625 0.15350696 0.16478758 -0.05940535
0.05194122 -0.068765745 0.08542787 -0.18943529 -0.13832526 0.24976161 -0.22469713 0.045361653
-0.08430573 -0.5341564 -0.54727244 -0.34141427 -0.23368543 -0.27257627 -0.04232083 -0.0887007
-0.20407742 0.01573028 -0.31776857 -0.1067228 -0.43615744 -0.38212845 -0.29190403 -0.09699899
-0.10150779 0.06260827 0.20844358 0.07093562 -0.10903557 0.048977084 -0.05411212 -0.04100563
0.16659485 0.10064794 -0.27947378 0.12823562 -0.40604928 0.28298366 0.33132273 0.24188383
-0.2983869 0.18560544 0.0904813 0.17160067 -0.17214148 0.019647885 0.29003674 -0.0266549

base.base.2.bias f4 [32]
00000000: d50b 68bd 06b0 29bd 0891 963c f331 283e
00000010: 905a e83d 84cf 11be 3ee0 2dbd 793d 45be
00000020: 932e adbd 109f 803e 3c23 eabc f3ae 32be
00000030: 7010 08bd 7501 ad3e 3dcd 65bd 69b0 a13e
00000040: 70de 0c3d 851d efbc 2919 cd3c c5a2 703e
00000050: 041f 0fbd 349d 5c3e 83be 3a3d b6bf a5bd
00000060: 64e5 be3e 235a 673e 6292 54be bf9a a3bd
00000070: 2000 8d3d 3ea6 373b 28e5 02bb 6319 22bd
-0.05665191 -0.041427635 0.018379703 0.16425304 0.113453984 -0.14239317 -0.042450182 -0.19261731
-0.08456149 0.25121355 -0.028581254 -0.1744955 -0.0332188 0.33790174 -0.056103934 0.31579903
0.03439182 -0.02918888 0.025036411 0.23499592 -0.03494169 0.21544343 0.045591842 -0.080932066
0.37284386 0.22592978 -0.20758966 -0.079885 0.068847895 0.0028022672 -0.0019973014 -0.039574992

base.base.4.weight f4 [32, 32, 3, 3]
00000000: 0684 853e 1954 fabd cf0d af3d 732c 5b3e
00000010: 2479 dfbd 2174 86be 3f8e af3d 3eff 103c
00000020: 1cd4 adbd 25c2 723c f687 5cbe ae8e 293d
00000030: d772 22bd 3ca5 3fbe d5af 9fbd 14bb c7bd
00000040: 4291 d43b 0b8b eebd 45bf f0be b750 82be
00000050: 42f4 5b3c 3964 bbbd e4b2 a1be efaf 643d
00000060: 0118 f1bb 0c70 bfbe 43e0 4ebe 22aa 07be
00000070: c962 603e 7267 af3e f809 0c3e 52c7 3d3e
00000080: f2bf b4bd f7e2 4fbe 2d23 3bbf 0a40 253e
00000090: 9bf7 c6bc 081e 21be b54e c7bc 6d43 33be
000000a0: 64c5 453d a40d 3ebe f9b1 19bd dcd3 6ebe
000000b0: 0a23 d1be 97a5 01be 8f7e 1ebe 609a c93d
000000c0: f687 9abe 5696 6cbe c773 c2bd 49a1 f6be
000000d0: 415a b3bd 93de b5bd 9f97 073c e210 603e
000000e0: 327d 43be 4d88 133d 1a3e 933e 5065 4d3e
000000f0: 0852 15be c37d b23e 6e1b eabd c20e acbe
00000100: b5ad 4abe 83d0 c4be 1c09 133e f8d2 1c3e
00000110: 4ab5 e4bd cae1 aebe bb7b a63d 10e4 15bd
00000120: 2df8 a5be 5db9 c6be 9b95 28be e7a1 6abe
00000130: c44e c2be 3f38 e13d d435 72be 570f 86be
00000140: 6f17 c23d 66da 38bd fab3 9ebe 2b99 443e
00000150: afa0 80bd 4d93 1abe 67ae b6be 7344 8dbe
00000160: ad44 3ebd cf37 bfbe 3e47 0fbe da7b 5fbe
00000170: 5318 133e 41e0 bc3e 8730 363e 49d0 9a3d
00000180: 8d87 023e 232f 9f3c 0bba 4dbe 47ca a4be
00000190: 5cd2 6a3d 124b 26bc edec c13e fb12 41bf
000001a0: 6650 7d3e c75b 52bd 1d24 223d 6125 8dbd
000001b0: 591b 1fbe 09fe af3d bd0a bcbe 8863 c5be
000001c0: 4c51 a43d 64e2 9e3d 01f0 80be 2abd 0c3e
000001d0: d9b1 193e a412 1b3e eeb7 3cbf 3702 d73e
000001e0: a386 5ebf 14d8 06bf 034b 05be 55c5 38bd
000001f0: 1e19 193e 8b75 523e 9b9b 13bd 7edb 893c
00000200: 97b1 c4be f5e3 f43d 7c93 17bc 022c 4b3d
00000210: cd69 e63d 800d 1c3e d667 b0bd efc7 2ebe
00000220: cc8d 50bc 7616 90be d403 70be d5cd 383e
00000230: 1f0b a53d 17f2 4ebe 598f 553e 8b43 0c3e
00000240: 7a58 a13e dfb7 5cbd 607a 69bf 780b bf3c
00000250: 9132 35be ed4f e8be 13a9 a43e d24f 8cbe
00000260: fa65 a6bc 36c0 923e fae0 6abe add9 553c
00000270: 76bf 82be 9539 403d fae3 90bc 4b0a 84be
00000280: d2ca 503e 99b6 803e 4f34 ee3d 14f1 703e
00000290: a004 fc3d 3864 ebbe 0986 313d ac08 a93d
000002a0: 84bb d7be 8384 0dbe b7a2 a0be 718e a8bc
000002b0: 2b75 d8be 421a 84bc 1499 1d3e 0bb6 e9be
000002c0: 4d12 ebbd d3df 0cbd 3d59 9bbe 6381 99be
000002d0: 40f5 c53e 23f0 933d 70d1 fbbe a2f0 383e
000002e0: 9bfb 4bbe 0ace 093d ca3a b1bd a0a5 f43e
000002f0: 1075 11be f10c b9bd e0eb 74be 8a4b fe3d
00000300: 9ecd 56bc 8761 90be 098b 4dbf c176 4b3c
00000310: 3e54 083b 8b16 24be 8567 4cbe d378 933d
00000320: 88d7 afbe f7e4 c7be b9f2 17be f0bf 5bbe
00000330: 6c88 1fbe 5e8b 0f3d 5587 673e e22a bdbe
00000340: f3d4 7a3d 1812 aebe d7ed 853d 03e9 553d
00000350: 676c 0abe fb14 833d 33aa bd3e 92b9 eb3e
00000360: e71f acbe 6c95 223e 2889 13be 8245 70be
00000370: bd34 c9bd 9ab8 6f3e 1a9d 1abe 0bc2 d3be
00000380: fa9f d7bc 2046 bdbd ab23 c6be 9d78 acbe
00000390: d0a2 643d 4746 9f3d 3518 4e3d 1329 933d
000003a0: 8a32 5ebe 9e6b b6be 5e76 af3e 302c 433e
000003b0: 6ad9 edbd 5c13 58be 2a10 6c3d 5190 d83e
000003c0: dd94 51be 4f49 5dbe 2143 68be 2165 0cbe
000003d0: 9b2a 83bd da73 bb3c c0c6 c43d 4bb3 61be
000003e0: a4e2 7abe e2ed b0bd 840e 91be adfa 9b3e
000003f0: 23a9 ea3c 1836 1b3d 9d23 313c 9faf a23b
0.26077288 -0.122230716 0.08547556 0.21403675 -0.109117776 -0.26260474 0.08572053 0.008849917
-0.08487722 0.0148167955 -0.2153624 0.041395836 -0.0396603 -0.18715376 -0.07797209 -0.09752479
0.0064870426 -0.11647614 -0.47020927 -0.25452206 0.013424935 -0.09149975 -0.31581795 0.055831846
-0.007357598 -0.37390172 -0.20202737 -0.13248494 0.21912684 0.3425861 0.13675678 0.18533066
-0.08825673 -0.20301424 -0.7310055 0.1613771 -0.02428799 -0.15734112 -0.024329523 -0.1750619
0.04828395 -0.18559891 -0.037523244 -0.23323005 -0.40847045 -0.12660824 -0.15477966 0.09843898
-0.30181855 -0.23104224 -0.09494739 -0.48169926 -0.08757449 -0.08880343 0.008275895 0.2188144
-0.19090727 0.03601866 0.28758317 0.20058179 -0.14582074 0.34861574 -0.11431013 -0.3360501
-0.19792826 -0.38440332 0.14358944 0.15314853 -0.11167391 -0.34156638 0.081290685 -0.03659445
-0.32415906 -0.38813296 -0.1646332 -0.22913323 -0.37950718 0.10997056 -0.23653346 -0.26183578
0.09477126 -0.045130156 -0.30996686 0.19199054 -0.06280648 -0.15095253 -0.35679933 -0.27591285
-0.046452213 -0.37347266 -0.1399202 -0.2182459 0.14364748 0.36889842 0.17791949 0.075592585
0.12747021 0.019431656 -0.20090501 -0.32185575 0.05732952 -0.010149734 0.37876073 -0.75419587
0.24737701 -0.051357057 0.03958522 -0.06891895 -0.15537776 0.08593375 -0.36726943 -0.385525
0.08023319 0.07758024 -0.25183108 0.13744035 0.1500925 0.1514383 -0.73718154 0.41993877
-0.8692419 -0.5267346 -0.13016896 -0.045110065 0.14950988 0.20552652 -0.03603707 0.016828295
-0.3841674 0.11957542 -0.009251472 0.049602516 0.11250649 0.15239525 -0.08613555 -0.17068456
-0.0127291195 -0.28142136 -0.2343896 0.18047269 0.08058762 -0.20209537 0.20855464 0.1369764
0.31512815 -0.05388629 -0.91202354 0.023320898 -0.17695071 -0.4537348 0.32160243 -0.27404648
-0.020312298 0.2866227 -0.22937384 0.013052386 -0.25536698 0.046929915 -0.017686833 -0.25789103
0.2038987 0.2513931 0.11631071 0.23529464 0.1230557 -0.45974898 0.043340717 0.08253607
-0.4213525 -0.1382008 -0.31374142 -0.020575734 -0.42276892 -0.016125802 0.15390426 -0.456467
-0.114781 -0.034393143 -0.3034152 -0.29981527 0.38663673 0.07223537 -0.49183226 0.18060544
-0.19920199 0.03364376 -0.08653791 0.47782612 -0.14204812 -0.090356715 -0.23918104 0.12416752
-0.013110546 -0.28199407 -0.80290276 0.01241845 0.0020802165 -0.16024224 -0.19961365 0.0720078
-0.34344125 -0.39041874 -0.14838685 -0.21459937 -0.15579385 0.03504502 0.22610219 -0.3694678
0.06123824 -0.3399818 0.06539505 0.05222417 -0.13517915 0.06400486 0.37043914 0.46040016
-0.3361809 0.15877312 -0.1440779 -0.23464015 -0.09824512 0.23410264 -0.15098992 -0.4135898
-0.0263214 -0.09241891 -0.38699088 -0.3368577 0.055819333 0.07777076 0.050316054 0.07185569
-0.21698967 -0.3562898 0.34269994 0.19059825 -0.11613734 -0.21101135 0.057632603 0.42297605
-0.20466943 -0.21609996 -0.22681858 -0.13710453 -0.06404611 0.02288239 0.09608221 -0.22041051
-0.24500519 -0.086391225 -0.28331387 0.30464688 0.028645104 0.037893385 0.0108117135 0.0049647833

base.base.4.bias f4 [32]
00000000: 31bf 78be 4a8d 8abe 6753 b6be 695d 84be
00000010: e78a 1dbe ebb0 afbe 5693 69be abac 4abe
00000020: 93c9 1ebe 25b6 32bd 72b5 cabe 7962 12be
00000030: c01e f4be eff3 01bf 7f98 55be 2c94 253d
00000040: 1575 c7be f095 94be 86c5 ccbe d74c 613d
00000050: 24dc 7cbe b5bd a4be 1460 9fbd 3857 593e
00000060: 2f71 7cbe 8eae 70be 7e24 b9bc b76d 1ebe
00000070: 0a44 f6bd 74b4 61be a2b8 a8bd d158 8abe
-0.24291684 -0.2706092 -0.35610506 -0.25852516 -0.15385018 -0.34314665 -0.2281011 -0.1979243
-0.15506582 -0.043630738 -0.39591557 -0.14295377 -0.4767971 -0.5076284 -0.20858954 0.04042451
-0.38956514 -0.29020643 -0.39994448 0.05500492 -0.24693352 -0.32175985 -0.07781997 0.21224678
-0.24652551 -0.23504087 -0.022600409 -0.1547154 -0.12024696 -0.22041494 -0.08238341 -0.27020887

base.fc1.weight f4 [128, 128]
00000000: 8032 f4bc ca3b 623e 634a 333e ede5 343e
00000010: e0c7 8cbd 9a70 dfbd ca3c 51bc 8e1d 0ebe
00000020: 5d6a 9a3e 8aa7 13bf 9acd cabd 9285 b1be
00000030: b5f2 803e 8c7c bd3e 0fcf 26be e2eb c3bd
00000040: 9640 eabe 972f c4be 77e0 f3bd 3379 9a3e
00000050: f607 3fbe a8e4 13be 5e23 5d3c 1e78 8abc
00000060: bd4c 0abf ca12 43be 0eaf 67bd fabe 90bd
00000070: 2995 de3d d34a d1bd f46a bd3e 2445 4ebf
00000080: 3931 3ebe 6130 5bbe 561f c33e 5da5 6ebe
00000090: 91f0 dbbe 5834 21bf b6c4 86be 4a62 f3be
000000a0: b29c e83d 0118 21bf 6534 e5bc fece 543e
000000b0: d005 c13a 8eb7 01bd f1eb af3e 3672 5a3e
000000c0: 0b35 f63d 85b2 e6bc 7605 7bbe f532 99bc
000000d0: a187 cebe 1e9f 21bf aae1 91bd 77e4 0bbf
000000e0: 0126 b93e cc73 70be f59d 16be 162e c6bd
000000f0: 3d43 77be 685d a7be 8cf6 59be 217c 54be
00000100: 9fd4 783d e755 9a3e da07 83be 7b9a f0bd
00000110: 5463 70be d823 aebd dcec a3be 40aa 8ebe
00000120: 14ee cbbd b988 08be 203a a3bd 1327 e63c
00000130: 2ba5 df3e dd74 02be b6b3 083e 93f3 f0be
00000140: abdd a43e ef18 4c3e 1723 52bf b658 edbe
00000150: 1106 1b3e 5765 94bd 56e6 08bf e629 22bd
00000160: 827a 883e 5c69 d0bd 8016 833e bda1 5bbd
00000170: d67d 1abf 1abc 2b3e f800 9bbe a082 b33d
00000180: c870 4b3e e802 b03d 93ef cbbd 70a4 b03d
00000190: 97ba a63e e135 d4be ce4a 1a3e 2352 053d
000001a0: 2077 d23d 81ba 0cbc 7e6f ddbe 089a 4c3d
000001b0: 6fd6 843c acfa 493e 7d27 c3be 463d 87be
000001c0: 5491 3dbf 66db 60bd cc79 1cbf 82a2 a4be
000001d0: 5c57 353d 4a01 16be 6c4b d9bd 1490 05be
000001e0: b7a5 8e3c dc5d 71be 7db3 1a3d ce25 d2bc
000001f0: e058 4c3e 07a9 60bc e622 6fbd 6dbe 5bbe
00000200: 271a fcbe 50f7 b9be f81f 21be f888 e1be
00000210: 3fb5 403e 7c91 25be 5a5b 09bd 430b c9be
00000220: 312c 90be 4144 67be 788d 8cbe e2cf 8dbe
00000230: a4a6 bb3e aa10 04be 9e9a a4be b1b0 67be
00000240: 5c8f 363e 0e00 993d 4248 4c3e b5ee c53d
00000250: d9bb bc3c b1d8 f0bd 54a2 47bd 3bb6 603e
00000260: 2dc7 e1bd a43f 80be df75 d53c 0409 f93d
00000270: a595 953d 143d 41bd 54c4 06be b51d 6ebf
00000280: a22f 0b3e c6a4 2fbe 891f 3cbe d6d8 05bf
00000290: b0c1 ebbe 3c21 d5be 4dfe 8a3d df65 dabd
000002a0: 1654 42be bd22 11be 636a 79be 18f9 8739
000002b0: 4be4 4b3e db33 b8be 76be 3e3e c946 37be
000002c0: 1fe9 603d 6e46 a3bd 74ed 27be 3428 61be
000002d0: 7d9b 0abe 3bd5 16bf 3a6d 2c3e 33d8 d2be
000002e0: ad05 583d 1987 45bd 974a 113e cb4a b2be
000002f0: afbe a73c 7f61 e9be 339b 23be 77ac 3bbe
00000300: 3387 bcbe 24ac d0be 9830 82bd 5d8d 82bb
00000310: 8078 c53e 6caf 5fbe eb30 b6bd 9844 ccbe
00000320: 4431 11be e6a0 94bd 4e77 fcbe b809 81be
00000330: 5ee0 903e 4a50 033e 4b8a f4bd 373c 1ebf
00000340: bcb5 a7bc d1fe 13be ac85 2b3f 4b3f 0c3d
00000350: 9660 8c3e 85e9 9dbe b34a 2a3f 8e44 96bd
00000360: fd47 98be 0491 7a3d f543 133e e053 773e
00000370: 5eb6 13be 3303 823c ade6 603d b8f8 843e
00000380: 5a08 6fbe f089 12be 514e 55be 6770 82bd
00000390: 0b07 973e e13b 093c d2a5 17be b0ce c7be
000003a0: f77f 433d 23b1 1d3d 666f a0bc fb1c ffbd
000003b0: 961e 9b3e c459 b2bd a169 b0bd 26fa f4bc
000003c0: 7305 573e 2c6b ffbc ae91 d7be bfe4 b1be
000003d0: f02b b43e cdcc b2be 1355 c73e 753f edbd
000003e0: 601d 763c 883c 15bd 5e0f cebd 6388 ebbd
000003f0: 2b30 a03e bb38 88be 153d 193f ae4b 023c
-0.029809237 0.2209312 0.17508845 0.17665835 -0.06874061 -0.10910149 -0.012770841 -0.13878462
0.30159274 -0.5767752 -0.09902497 -0.3467222 0.2518517 0.37009084 -0.16289924 -0.095664755
-0.457524 -0.38317558 -0.11908048 0.30170593 -0.1865538 -0.14442694 0.013497202 -0.01690298
-0.54023343 -0.19050136 -0.05656343 -0.07067676 0.10868294 -0.1021935 0.3699566 -0.8057425
-0.18573464 -0.21405174 0.38109845 -0.23305269 -0.42956975 -0.62970495 -0.26321954 -0.47535926
0.11358012 -0.6292725 -0.027979085 0.20782086 0.0014726464 -0.031669192 0.34359697 0.2133263
0.12021836 -0.028161297 -0.24513802 -0.018701056 -0.40337852 -0.6313342 -0.0712312 -0.54645485
0.36161807 -0.23481673 -0.14708693 -0.09676759 -0.24146743 -0.3268845 -0.21285456 -0.20750476
0.060749646 0.30143663 -0.25591928 -0.11748215 -0.2347539 -0.085029304 -0.32016647 -0.27864265
-0.09957519 -0.13333406 -0.07970071 0.028094804 0.436807 -0.12739892 0.13349804 -0.47060832
0.3220037 0.19931386 -0.8208479 -0.46356744 0.15139033 -0.072458915 -0.53476465 -0.03959074
0.26655966 -0.10176346 0.25603104 -0.053621043 -0.6034826 0.16770974 -0.30274177 0.08765149
0.19867241 0.08594304 -0.099578045 0.08625114 0.32564232 -0.41447356 0.15067598 0.032549035
0.102766275 -0.008589388 -0.43249124 0.049951583 0.016215531 0.1972453 -0.38116065 -0.26413935
-0.7404988 -0.054896735 -0.6112335 -0.32155234 0.044272766 -0.14648929 -0.10610089 -0.13043243
0.017413003 -0.23570961 0.03776883 -0.025652792 0.19955778 -0.013712174 -0.05838289 -0.2145936
-0.49238703 -0.36321497 -0.15734851 -0.4404981 0.1881914 -0.16168779 -0.033534385 -0.39266405
-0.28158715 -0.2258463 -0.27451682 -0.27697664 0.36650574 -0.12896982 -0.32149214 -0.22625996
0.17828125 0.074707136 0.19949439 0.096646704 0.023038791 -0.117600806 -0.048738793 0.21944515
-0.11024318 -0.25048554 0.026057182 0.12159923 0.07303933 -0.04717739 -0.1316083 -0.9301408
0.13592389 -0.171527 -0.18371405 -0.5228399 -0.4604621 -0.41626918 0.06786785 -0.106639616
-0.18977389 -0.14173408 -0.2435699 0.00025934796 0.19911306 -0.35977063 0.18627343 -0.17898096
0.05490982 -0.07972418 -0.16399175 -0.21987993 -0.13535877 -0.58919114 0.16838542 -0.41180572
0.052739788 -0.048224542 0.1418861 -0.34822688 0.020476667 -0.45582196 -0.15977173 -0.18327509
-0.368219 -0.40756333 -0.06356925 -0.003984137 0.38568497 -0.21844262 -0.08896049 -0.39896083
-0.1417895 -0.072572514 -0.49309772 -0.25202727 0.2829618 0.12823597 -0.1194044 -0.6181063
-0.0204724 -0.14452673 0.6700084 0.03424005 0.2741744 -0.30842224 0.6652023 -0.073372945
-0.29742423 0.061173454 0.14381392 0.2415309 -0.14425036 0.015870666 0.05490749 0.25971007
-0.2334303 -0.14310431 -0.20830657 -0.06369095 0.2949756 0.008376093 -0.14809349 -0.39024878
0.04772946 0.03849901 -0.019584369 -0.124566995 0.30296773 -0.08708528 -0.08613897 -0.029904436
0.20998172 -0.031179033 -0.42103332 -0.34744832 0.35189772 -0.34921876 0.38932094 -0.11584369
0.015021652 -0.03643468 -0.10061525 -0.11500623 0.3128675 -0.26605782 0.5985883 0.007952614

base.fc1.bias f4 [128]
00000000: 8012 81be 25bb 74be 6586 69be 3327 d7bd
00000010: f934 8fbc 0ceb 2dbe eaf2 9f3d 4a13 a7be
00000020: 77e1 72be a1f9 3fbd 3908 d0bd 7813 6fbe
00000030: 072f c1bd db72 273e 9e27 fabc 31ef cdbd
00000040: 9504 2c3c c088 933c 7928 92be 7b76 2fbe
00000050: d1f2 80be c9c2 5cbc 7ab1 ddbb 0f20 6dbe
00000060: c861 2ebe c23d a6bd d377 59bd f08f c7bd
00000070: 84f4 e1bd 8743 3cbe 4667 64be 8d0b 933e
00000080: 2ba7 8fbd f466 4fbe f444 a8bc f21a 76be
00000090: 78fc 9fbd 7516 c23d f291 b1bc 2ee8 2b3d
000000a0: 1252 84be b39f 9bbe 3081 c8bd 3844 fc3c
000000b0: 93c7 93bd 67a9 03be 86ef c5bb 14f8 86bd
000000c0: 0c69 adbd 1986 8fbd fb92 61bd 8224 0dbe
000000d0: 7980 bcbe 0419 85be 1d4b 0cbe 2567 09be
000000e0: 9fb0 91be faff fdbe b1e9 99bd 6000 ebbd
000000f0: 7208 0bbe 1268 3ebe ec44 1cbe d3d1 b23d
00000100: 38c9 2abd 0e09 83bd 3a2f e53f 0bf9 93be
00000110: 6c21 5d3d 3e9a 15bd d48e 333d 4e97 dcbc
00000120: 2e0e 943e 9173 253f cb3a 4fbd 88b0 61be
00000130: 0738 c4bd 1a53 8b3b 1f8a 35bd 8401 8dbc
00000140: 21e2 8bbe ab28 803d 7c2e c53d 1d77 92be
00000150: 7f86 f8bd b426 29bf 91e6 a1bd 8b3a 48be
00000160: 2de0 7abe 9243 78be efd3 8ebd 31d8 31be
00000170: 312f 63bd dd77 3a3e 2802 a6bd e3ba 1bbe
00000180: 1646 8c3d 08b5 07bf 0408 453d efd1 07bd
00000190: af04 b8be ad61 1fbe 4173 babd 7c4a 12bd
000001a0: d1fb 50bc b90f 41be 61a9 07be 13ee efbd
000001b0: 0fc5 a4be d7cd b73d 7e06 51bd 4e9b 8dbe
000001c0: dc14 6bbe bffb 4fbe f36d 1bbd d326 373d
000001d0: 8e36 8abe 9803 49bd 9627 1fbe d028 8fbe
000001e0: 1cbe 5e3d a094 22be 0276 51bd 41fe 89bd
000001f0: bd1f bbbc be9b bdbd cba1 0cbe 0959 0c3d
-0.25209427 -0.23899515 -0.22805174 -0.105055235 -0.017481314 -0.16984195 0.07810004 -0.32631904
-0.2371882 -0.046868924 -0.10157818 -0.2334727 -0.09432798 0.16352408 -0.03053647 -0.10055388
0.010499139 0.018009543 -0.28546503 -0.1713504 -0.25185254 -0.013474175 -0.0067655416 -0.2315676
-0.17029488 -0.08117248 -0.05309279 -0.09744251 -0.11032966 -0.18385135 -0.2230502 0.2871975
-0.07014307 -0.20254117 -0.020540692 -0.24033716 -0.078118265 0.094769396 -0.021676037 0.04196947
-0.25843865 -0.30395278 -0.097902656 0.030794248 -0.072158 -0.1285759 -0.0060405163 -0.06590286
-0.08467302 -0.07007999 -0.055071812 -0.13783458 -0.36816767 -0.25995648 -0.13700528 -0.13418253
-0.28455064 -0.49609357 -0.07515276 -0.11474681 -0.1357744 -0.18594387 -0.15260667 0.08731427
-0.041695803 -0.063982114 1.7905037 -0.28900942 0.05398695 -0.03652405 0.043837383 -0.026927616
0.28917068 0.64629465 -0.05059318 -0.22039998 -0.09580999 0.00425185 -0.044321176 -0.017212637
-0.2732096 0.06257757 0.09628007 -0.286065 -0.12135028 -0.6607468 -0.07905305 -0.19553582
-0.24499579 -0.24244526 -0.06974017 -0.17367627 -0.055464927 0.18209787 -0.0810588 -0.1520801
0.06849305 -0.53010607 0.048103347 -0.033159193 -0.35941073 -0.15564604 -0.09104014 -0.035715565
-0.01275535 -0.18853654 -0.13248207 -0.11715331 -0.32181594 0.08974808 -0.051031582 -0.2765755
-0.22957176 -0.20310877 -0.037946653 0.04471476 -0.26994747 -0.049075693 -0.15542445 -0.27960825
0.05438052 -0.15877008 -0.05113793 -0.06737948 -0.022842282 -0.09258221 -0.13733594 0.034264598

base.value_head.weight f4 [1, 128]
00000000: 6abc bc3b 993c 423b f872 e738 592c d93a
00000010: 8019 3d3c f862 28bc 9e2a 9e39 78de 053c
00000020: 80ad e33a 77c1 693c f39c 873b 6931 e33a
00000030: c2e2 073b fb52 97bb 6ade 433b 3291 09ba
00000040: 62fc 8e3b c9af 583c f576 0a3c 4818 833b
00000050: ab42 633b bd6e ae3c 21a3 573c 0c2f 773b
00000060: 0e8d 913b d73c 283b f172 e93c a172 b3ba
00000070: 8896 083c 8e5f 6d3a 8acb f13b bd57 a43a
00000080: f80b db39 7de6 a13a a5b1 323a 758a 643c
00000090: 2449 4ebc f8b5 373b f997 ac3a 73f3 72ba
000000a0: 4079 2a3b 2626 9cba cb18 383b c6eb 4f3c
000000b0: d219 0a3d 6a6f 5c3b 85ae d63b 6805 d33a
000000c0: a7ae 6abb 47b6 32bc 3d20 b0ba 9470 7c3a
000000d0: d89f 6837 4c2e fb3c 61fd e6b8 be5d 8f3b
000000e0: e0f1 d13b 5456 b33b 6114 f43a bbcd 0d3d
000000f0: f05d 0b3c 3e10 81ba f1da abba 14df 563c
00000100: f3ec 163a 3147 df39 d4ab ebbd 020f 993c
00000110: 301d 7e39 7291 cd3a 983b c23a e319 9cbb
00000120: 9b15 23bc 6928 4d3d 148f 873b 24a1 17bb
00000130: 566c 153b f2b5 1a3c a10e a33c a067 28bb
00000140: 59d8 b93a dc63 0b3b 99a9 83ba 001e 003b
00000150: 02cc bc3b d673 373d b293 8b3c 386f 643a
00000160: cf69 1fbb 5877 3f3c 2eb5 9b3a 568f 623c
00000170: 264a 82bd a917 363c 7ad1 ac3b 0bb3 ed3a
00000180: 1e0a 083b 3793 92bd 6077 cdb9 f009 393c
00000190: 764d 2e3b cf47 4b39 7345 27bd a320 e8ba
000001a0: 9034 923b d2fe 4e3b 4afb 863b d227 f63b
000001b0: 4500 e039 9253 703a 94b6 963b 5edb 763c
000001c0: c45e d33a 9aed 0bba 4215 893a 6119 1d3c
000001d0: b27a 8c3b 8e60 7cb9 aac2 353a 0289 16ba
000001e0: e823 19ba 0e56 3a3a 7777 353c 42df 55ba
000001f0: 9d4b 84bb bd88 ad3b a70f 863a febb 553b
0.0057597654 0.002963817 0.00011036353 0.0016569003 0.011541724 -0.010277502 0.0003016786 0.008170716
0.0017370433 0.014267317 0.004138583 0.0017333451 0.0020734523 -0.0046180463 0.0029887208 -0.0005247771
0.0043635825 0.013225504 0.008451213 0.0040006973 0.0034677188 0.021293039 0.013161452 0.003771725
0.004441864 0.002567103 0.028497191 -0.0013690778 0.008336671 0.0009055071 0.007379 0.0012538355
0.00041779852 0.0012352016 0.0006816632 0.013949026 -0.01259068 0.0028032046 0.001316785 -0.0009267844
0.0026012212 -0.0011913225 0.002809095 0.01269049 0.03371603 0.0033635744 0.006551566 0.0016099634
-0.0035809667 -0.010907716 -0.0013437342 0.00096298126 1.3865494e-05 0.030661725 -0.0001101445 0.0043751886
0.0064070076 0.0054729376 0.0018621796 0.034620028 0.008506283 -0.000984676 -0.0013111514 0.013114709
0.0005757354 0.00042586916 -0.11507383 0.018683914 0.00024234201 0.0015683605 0.0014818786 -0.004763828
-0.009953882 0.050087366 0.0041369293 -0.0023136819 0.002280017 0.009442793 0.019904437 -0.002569653
0.0014178857 0.0021269238 -0.0010045051 0.0019549131 0.0057616243 0.044788204 0.0170382 0.00087140827
-0.0024324541 0.011686169 0.0011879557 0.013828119 -0.06361799 0.011114039 0.005273995 0.0018135024
0.0020757983 -0.07156985 -0.00039189588 0.011293873 0.0026596463 0.0001938634 -0.040837716 -0.0017709922
0.0044618323 0.003158499 0.0041193115 0.007512071 0.0004272481 0.00091677264 0.0045994017 0.01506695
0.0016126265 -0.00053378346 0.0010458606 0.00958857 0.0042870874 -0.00024068562 0.0006933609 -0.00057424617
-0.0005841837 0.000710816 0.011075846 -0.0008158573 -0.004037334 0.0052958415 0.0010228053 0.0032613273

base.policy_head.weight f4 [128, 128]
00000000: ac0f ccbd 67b6 f2bd 1997 f43b 50af 3ebd
00000010: 8b78 0bbd 73dd 99be a25a 85bc 1687 5dbd
00000020: 09b5 69bd f960 fd3d c929 2ebd ef7a f3bb
00000030: 7c1c c8bb 0486 73bb e75d 4a3c b7f7 aabb
00000040: b294 1dbc 711a 08be ef09 3bbd 0926 e9bd
00000050: 2eb1 b53c 460f 91bd 3b7b 2bbe b1a5 59bb
00000060: 0951 82bd 9655 d13b cf0c 81bc 3471 b53c
00000070: d07c 0cbe 4a56 453d e213 84bc f5bd 2f3b
00000080: ef8b ecbc 5790 013e 2795 d7bd 05fe ec3d
00000090: 3824 debd 8e11 e23c 90e6 e9bc dca2 63bd
000000a0: 5d4a 8abd 54b9 cabd 4f1c 64bd ef59 973d
000000b0: 5378 723e e8aa 433d 119d 50ba 98fc afbd
000000c0: 3176 5d3d a50e b1bd 5755 8c3d 7a09 fabc
000000d0: 6ab6 a0bd 3bca 203d 6a5a c03b ce87 e7bc
000000e0: f536 623c 03a4 033e d7a7 0f3c 220c 0ebe
000000f0: 6fef dfbd 8669 2a3e ae3b b3bc 9270 3cbc
00000100: afa7 14bd 676d a4bb 3671 9a3d 9fd4 053e
00000110: 13ce 4b3e 4532 c53c 315f e63b 9245 ac3d
00000120: 3a75 30bd 4fd6 fbbc ccbe 193d 6504 9abc
00000130: fae7 0fbd 1b65 80bc 1840 0dbd cd9f c93d
00000140: ec35 963d ac30 523d 7dab 9839 21ba a7be
00000150: 22f2 033d 2dc8 95bd c4aa a13d 0635 cfbe
00000160: 0ddf 683d 917b 863e 91e8 0ebd 0a75 123e
00000170: daab f4bd a23c a93e eff8 943d 7c2a 29bd
00000180: cfb7 2f3d 8133 483d 8cbd 57bd 799f e9bc
00000190: 8db5 ca3d 7db0 86bc 5af0 cdbc 5b5c 38bd
000001a0: 1f4e abbd c4c4 87bc 7dbb 883e 631a 26bd
000001b0: 3d6c 4dbc 9e2a 88bc b849 8ebd e124 e7bc
000001c0: bb04 9bbd 6697 f63d f236 d5bd ceea 4f3e
000001d0: a65a 4bbe c82f a33d 02db 78bd d43a 833c
000001e0: a2f5 4f3a 9d62 9b3c d7fc 13bd 9205 803d
000001f0: 2244 02be cae1 2d3d f7f0 8c3d 8585 6bbc
00000200: 9e05 7d3d 36ef 78bd 984c 1bbc 6eec 17bc
00000210: 7841 443d 2ad8 2cbe 1a0a 9b3b 10bc e03c
00000220: 200d 64bc ea12 3c3d bf7c e73b c255 5f3d
00000230: f081 673d a704 e33d 9566 c73d a81a fdbb
00000240: 62b4 21bc ccbf b4bd 1e07 883d 29ca bbbc
00000250: a8a8 9cbd 79de 013d cb21 9f3c 62dc 0ebc
00000260: b60a a0bc 9ed5 0d3d cb64 143d 59e3 e23c
00000270: 90b4 70b9 1342 e23d fdd8 c93d ba55 293d
00000280: 2af0 d53c 1f5c 1b3e 2802 1ebd f94d fdbc
00000290: ca39 1abe 024b 483b a057 81bd 01a0 dfbc
000002a0: 5e49 583d c794 0b3c 2d49 e73d f338 15bd
000002b0: 0566 b93d d361 98bc 8671 b5b9 5be1 7c3b
000002c0: 952e 143d 3e9b 0abe 8773 57bd 9888 393d
000002d0: 2bee 8e3b 99c5 2abb 33f0 1dbc 0573 8f3d
000002e0: c7a8 b73c d4a2 9e3c d74b 9a3d 55b8 553c
000002f0: fb50 253e 7d6a 28be e7e0 19bd d760 8fba
00000300: 1b9d 1e3c 349f ac3c 44bc 8abd 59ef 6cbd
00000310: 6e6a 803d 5abd 983b e6e5 7f3d dcac 8d3c
00000320: 4344 263b a335 0bbd 6b63 06ba ea8e 3ebd
00000330: b9d9 c7bc e060 9d3d 7b48 0a3e 2412 9a3d
00000340: 341e ba3d 5491 a33c ec76 34bc b039 78bc
00000350: abb6 edbd 1419 0f3d 2e08 7f3d 629a 2dbe
00000360: f068 f53b d575 053d fd11 81bd 4a14 23bd
00000370: 78ce 6ebe eb08 8a3d 7323 c6bd c7bd 323c
00000380: 727a 52bc f29f ecbc 945b 913c 772f 21be
00000390: 92c4 4ebd cebe eebb a2c5 a63c 626a 623c
000003a0: b638 69bc b882 663c 58f6 13be 8c9e 5a3b
000003b0: ad5c 6e3c dd31 853d b7fc 2dbc c1e0 2d3c
000003c0: b8e1 af3b 8e3b 773d 14ff abbc 64e4 f53d
000003d0: d76a b3bd ddb4 b03d ae05 06bb 8608 68bc
000003e0: a770 1f3c aed9 f2bb 75eb c9bc 05cc c4bb
000003f0: 400d d2be b36b bfbd eece f9bc 2f29 213c
-0.09963927 -0.11851197 0.0074643013 -0.04655391 -0.034050506 -0.30051765 -0.016278569 -0.054083906
-0.057057414 0.12372012 -0.04252032 -0.0074304263 -0.006106911 -0.0037158737 0.01235149 -0.005217518
-0.009617971 -0.13291337 -0.04566377 -0.11384208 0.022179212 -0.07082991 -0.16746227 -0.0033210332
-0.063631125 0.0063883765 -0.015753178 0.022148706 -0.13719487 0.048177995 -0.016122762 0.0026816104
-0.02887532 0.12652718 -0.105264954 0.11571888 -0.10846752 0.027596261 -0.028552324 -0.055575237
-0.06752465 -0.0989863 -0.05569106 0.073902 0.23678713 0.04777041 -0.0007957975 -0.085931
0.054067794 -0.08645371 0.06852215 -0.030522097 -0.07847293 0.039255362 0.005870153 -0.028262999
0.013807048 0.12855534 0.0087680435 -0.13871816 -0.1093434 0.16641816 -0.021879043 -0.011501448
-0.036292728 -0.0050179246 0.075411245 0.1306939 0.1990283 0.024071822 0.0070303907 0.08411707
-0.043080546 -0.030741839 0.037535474 -0.018800924 -0.03513334 -0.01567321 -0.034484953 0.09844933
0.073345035 0.05131595 0.00029119468 -0.32759193 0.032213338 -0.07313571 0.07893899 -0.4047014
0.056853343 0.2626615 -0.03488976 0.1430246 -0.119468406 0.33054072 0.07274043 -0.041300282
0.042899903 0.048877243 -0.052671 -0.028518425 0.09897909 -0.016441578 -0.025139023 -0.045009952
-0.0836451 -0.016573317 0.26705542 -0.040552508 -0.012538013 -0.016621884 -0.069476545 -0.028215827
-0.07569262 0.12040596 -0.104108706 0.20304415 -0.19858798 0.07968098 -0.060755737 0.016019262
0.00079330255 0.01896792 -0.0361298 0.062510625 -0.12721303 0.042451657 0.06881898 -0.014375095
0.061772935 -0.060775004 -0.009478711 -0.009272678 0.047914 -0.16879335 0.004731429 0.027433425
-0.013919145 0.045916475 0.0070644314 0.054525144 0.056520402 0.11084872 0.09736363 -0.007724125
-0.009869667 -0.08825645 0.066419825 -0.022923546 -0.07649356 0.031706307 0.019425293 -0.008719536
-0.019536357 0.03462755 0.036228936 0.027696298 -0.00022955448 0.11047759 0.0985584 0.04134152
0.026115496 0.1517186 -0.038576275 -0.03092097 -0.15061107 0.0030562286 -0.06315541 -0.027297975
0.052804343 0.008519358 0.11293254 -0.036431264 0.09052662 -0.018601334 -0.00034607592 0.003858647
0.036177237 -0.13535783 -0.05260041 0.04529628 0.004361888 -0.0026057719 -0.0096397875 0.0700436
0.022419346 0.019364752 0.075339966 0.013044436 0.16144173 -0.16446872 -0.037568 -0.0010938895
0.009681012 0.021072008 -0.0677419 -0.057845447 0.062703 0.0046612443 0.062475108 0.01729434
0.0025370277 -0.0339867 -0.0005126509 -0.046523012 -0.02439581 0.07684493 0.13504212 0.07522991
0.09087792 0.019966759 -0.011014681 -0.0151504725 -0.11607107 0.034936026 0.06226366 -0.16953424
0.007489316 0.032583077 -0.06302259 -0.03981427 -0.23320949 0.06739982 -0.0967473 0.010909504
-0.012846576 -0.028884862 0.017743863 -0.15740763 -0.050480433 -0.0072859293 0.02035791 0.013819309
-0.014234712 0.014069252 -0.14449441 0.0033358661 0.014548463 0.06503651 -0.010619334 0.010612668
0.005367484 0.06035953 -0.020995654 0.12006453 -0.087606125 0.08628247 -0.0020450163 -0.014162188
0.009731448 -0.0074112033 -0.024648407 -0.0060057663 -0.41025734 -0.09346714 -0.03049418 0.009836479

base.policy_head.bias f4 [128]
00000000: 1b26 dcbd 79a3 fbbc 79aa 823c fb8d c83b
00000010: c6e4 97bc a0fc fc3b 8f74 cfb9 4d6b 14bd
00000020: 6c40 45bd a453 6cbd d5a2 0fbc 55a1 353d
00000030: 5299 db3c dd25 b0bd c5c0 773d 5c90 8d3d
00000040: 15a2 c8bd cc4c 76bc 4579 c7bc d3b3 f63d
00000050: b5d0 b73d 02ce a33a 7604 75bd d6b0 abbd
00000060: d219 8c3b d76e 9d3c 969e 8abc acfd 3cbd
00000070: 8c59 8fbd 45ef cbbc 2709 8dbc 7423 153d
00000080: 5a13 13bd 7ff6 4e3d 6bc3 1abd 8576 45bd
00000090: 3b75 f9bc 0bc5 c9bd 2be6 3b3c e17c 0ebe
000000a0: 1bb4 71bc 50d4 063c d51b debd 3367 e138
000000b0: ad7d 0a3b 8954 74bd a686 ac3c af80 373c
000000c0: 22d3 ff3d c7ae 2abd 9107 bd3d f3e9 2f3d
000000d0: 3a61 1c3d 2098 453d 2dc6 cd3d e6fd b83c
000000e0: 422b 0e3e e123 01be c358 a63c 9419 7a3b
000000f0: bcc3 3b3d ceb9 d3bd 8cdb 06bd 8eb5 40bc
00000100: ce1b 89ba 046e 18bd ad62 9dbc 670f 0f3d
00000110: 894e 8f3d 8445 9fbd 5cd7 ef3d 34b9 8c3d
00000120: ad7d 3fbc d946 4fbb 3a7d 52bd f581 d2bc
00000130: b4fb a5b8 6b0b 9abd 093e 103e 5de9 083d
00000140: e246 b93c cf69 06bd bbea 0a3c c98a 1abb
00000150: ebfd 803b f1ac 873d 6161 05bd c978 7dbd
00000160: e260 5ebd 814d e43d 6fd4 ee3b f367 9dbd
00000170: 86a4 80bd 4901 2bbd cbd7 b73d 60e1 1e3b
00000180: 3251 09be d916 65bd 476c 813d 5163 f33d
00000190: 84d9 3ebd 55d4 f0bd 39eb b83d 44e9 0abb
000001a0: fc92 34bc cf34 3dbd ef41 d6bd 7322 243d
000001b0: 3fcd 903c df43 7fbc 2171 933d 457a c13d
000001c0: 2e19 1dbd 9124 3cbd ee2b d6bd 2009 b8bd
000001d0: 4d2c 88bd c1e3 8ebd ed45 c4bd 58de 63bd
000001e0: 4935 a33d 89da bd3c 4875 22bd 8571 083e
000001f0: ef1c 94bc 162c a6bd 39e0 a6bc ade9 243b
-0.107494555 -0.030717598 0.015950428 0.006120441 -0.018541705 0.007720545 -0.0003956896 -0.036235142
-0.04815714 -0.057696953 -0.0087668495 0.04434331 0.026806507 -0.08600972 0.060486574 0.069123
-0.0979654 -0.015032958 -0.024349818 0.120460175 0.089753546 0.0012497308 -0.059818707 -0.08383338
0.004275539 0.019217892 -0.016921323 -0.046140358 -0.069995016 -0.024894366 -0.017216278 0.036410764
-0.035907127 0.050528046 -0.03778402 -0.048208732 -0.030451408 -0.09852036 0.011468451 -0.13914825
-0.014752413 0.00822933 -0.10845152 0.000107480584 0.0021132038 -0.05965093 0.0210603 0.011200114
0.12491442 -0.041670587 0.09229959 0.04294772 0.03817866 0.04824078 0.10047565 0.022582006
0.13883689 -0.12611343 0.020305997 0.0038162218 0.045840964 -0.10338174 -0.03292422 -0.011762036
-0.0010460557 -0.037214294 -0.019212091 0.0349268 0.06997401 -0.07776931 0.117109984 0.06871262
-0.011687678 -0.0031627922 -0.051388957 -0.025696734 -7.9146965e-05 -0.07521709 0.14086165 0.033425678
0.022616807 -0.03281575 0.008478816 -0.0023581258 0.0039365194 0.06624783 -0.03256357 -0.061882768
-0.054291613 0.11147595 0.0072885077 -0.07685842 -0.0628138 -0.041749272 0.08976706 0.002424322
-0.1340988 -0.055929992 0.063194804 0.118841775 -0.046594158 -0.11759249 0.0902924 -0.0021196166
-0.011021372 -0.04619294 -0.104617946 0.040071916 0.017675994 -0.015580147 0.07199312 0.09447149
-0.03835409 -0.04593331 -0.10457598 -0.089861155 -0.06649075 -0.06977034 -0.0958365 -0.055631965
0.07969148 0.023175495 -0.03966263 0.13324554 -0.018080203 -0.081138775 -0.02037059 0.0025163696

dist.linear.weight f4 [4, 128]
00000000: e1d2 4fbc d3e3 c4b9 e1fd 3cbb d155 2abb
00000010: 3fa7 21bb 9457 d53d 6674 2f3c bcd4 b73a
00000020: 1797 3dba 6bb2 9fb9 e4a7 dd3a 88e1 aebc
00000030: 35b9 a3bd 1957 0fbb 2845 7539 ef8b 8c3a
00000040: 7c94 98bd 80e5 933c 5796 e8b6 b3fa c1bb
00000050: e091 f23c 200f 8bba e6a1 c7ba 3b4f 68bb
00000060: 6d37 a6ba 3ae4 d03b c017 a1bb 66f8 513c
00000070: d01e 4b3b c106 873b 21fa c1ba a359 c63b
00000080: 18d0 033d c32f e2ba 52bd 09bb 2c46 86bb
00000090: 4f9b dabc 3cf4 d0ba e0c2 1f39 2f64 fe3b
000000a0: f88b 733b 7717 3abc 1555 70bb 72d9 543a
000000b0: 4f14 19bb 17f3 003e 3fa1 ee3a 928c 5cbb
000000c0: 1d9d 28bd a288 273c aac5 04bd 7295 c9bb
000000d0: ca7b 133c 5400 43ba 3c39 0bbd 42ee 183b
000000e0: 0035 353b e0d2 8bbb d65d b6ba 72ea e9bb
000000f0: 4885 02bc 8cf7 883b d258 05ba 0fcb 99bb
00000100: 0b69 e2b9 e6a5 3937 3c01 ad3b 9e7c 59bb
00000110: 4f55 ba3a ea91 0cbc 9b06 923c 6ae1 563d
00000120: f57c 133a 12fd 513c 8a01 0a39 9031 bb3b
00000130: 42b7 89bb 2878 35bc f518 8fbb 08cb 1d3b
00000140: 63d4 9c39 6106 0e3c 3a56 c9b9 370e 0e3b
00000150: 45d7 b73b 6d68 4cbd 81a8 ee3c ddc6 3c3c
00000160: 356b 42bb 67d7 25bd 2269 023b 5039 e43d
00000170: 8fb1 c23a 3a83 89b9 0e5e db3a 673f 4bbb
00000180: 2a9c ee3a 7a3e e5bb d061 913b 70af 4fbc
00000190: 57a1 6fbc 5ee8 b5ba 74ed 883a 8b96 4e3b
000001a0: 57fb ac3c 3656 333b 19ec afbb 7f0c bcbb
000001b0: 80b9 8b3b d4a4 593b a344 c03b b930 443b
000001c0: 47a2 6b3a 7ac9 cbbb 6ed8 9dbb 17c6 e7bc
000001d0: 25a2 aabb eaa1 003b 7975 dd3b e61c c2ba
000001e0: c63b e1bc 38da 8cb8 f359 2c3d 2e9b 64ba
000001f0: 54d8 083c 85d2 853b 55a9 613b 685a f839
00000200: ad4b 903a 7f05 353a 5087 d9bb 92ef 1bba
00000210: a91a 813a bdb2 8439 d6c7 8b3a e986 16b9
00000220: d8ac 4f3b e096 82ba fedd d43b eee7 4e3c
00000230: 7b44 9c3b b2df debb d67e acba 335f 6c39
00000240: d796 2abd c954 3c3c f73c f7bb 29e7 28bc
00000250: 88b4 35b9 401d e6bb 67fe 253a 7d0f a93b
00000260: c29f 973b f082 863b 5c3d 073b 8fba 54bb
00000270: f2cb e4ba 9be9 eabb 6b65 8fbb 167a aeb9
00000280: b04d 7dbb 55fe a4ba 49ca 8dba 1914 acbb
00000290: 6b52 f03d b6ca 223b fb41 c43b afa5 54bb
000002a0: 5b16 5d3c 1c4c 963c d21b 613b dab5 8a3b
000002b0: 33ca 053b c4e2 04be d983 13bb e4a8 92bb
000002c0: 6599 4fbc 74fd 003b 98f9 643d 59b2 5b3c
000002d0: 7cf0 583c eaf7 0c3b 6c35 933d fcd0 9dbb
000002e0: 091a 3d3b 71db 11bc a44f ab39 3825 87bb
000002f0: b16c 80bb 8348 4eba 40b9 023b 8a2e 813c
00000300: a28c 09bc d6ad 11bb e95c 6d3b fabb 4d3b
00000310: 1ad6 e8bb 3740 2c3b 10b0 48bb ab7e 36bb
00000320: 2dd0 fa3b eadd 3c3c 4474 35ba 7665 863b
00000330: c332 12bc 31f2 2abc 30d1 e9ba 7c94 94b8
00000340: be22 f23b b0c2 1f3c 0253 c4bb 6e21 dabb
00000350: f24a 6fbb 877d 913d 3198 6a3c 5735 023b
00000360: 1e70 d43b 85b3 aa3c 9c17 43bc d884 1f3d
00000370: 3541 363b 0933 443b d4f4 26bb 0953 a9ba
00000380: 9219 e23b c47d 4bbb 2969 023b 9d81 5eba
00000390: 2f9a 803c 9531 443a ff30 6e38 5c4f aeba
000003a0: a260 0fbe f3ea 353b bd8f 08bc 1330 1fbb
000003b0: 90e7 413c 52ab 81b9 8840 79bb e66a ea39
000003c0: 94c1 023b 3802 9fbb fec9 f3ba 550a fd3c
000003d0: 5af4 98bb fa9a 083c b297 0c3c 2958 00bc
000003e0: 9a61 debc df67 ac37 8093 c2bd 6212 2fbb
000003f0: 4549 46bb 6a1a 133b ebd7 a4bb 4c90 553b
-0.012684555 -0.00037553775 -0.0028837847 -0.0025991092 -0.0024666337 0.10417095 0.010708904 0.0014025192
-0.0007232292 -0.00030459775 0.0016910997 -0.021347776 -0.0799431 -0.0021871983 0.00023390783 0.0010722856
-0.07450196 0.01805377 -6.9316407e-06 -0.0059197783 0.029610574 -0.0010609366 -0.0015230745 -0.0035447616
-0.0012681313 0.006374863 -0.0049161613 0.01281557 0.0030993707 0.004120678 -0.0014799276 0.006053166
0.032180876 -0.0017256666 -0.0021017385 -0.0040977206 -0.026685385 -0.0015941928 0.00015236018 0.0077634077
0.0037162285 -0.0113581335 -0.0036671807 0.000811956 -0.0023358052 0.12592731 0.0018206014 -0.0033653122
-0.04116546 0.010225447 -0.03241507 -0.0061518485 0.009001682 -0.00074387086 -0.03399013 0.0023335372
0.0027649999 -0.0042670816 -0.0013913463 -0.0071385438 -0.007966347 0.0041799005 -0.00050867826 -0.004693396
-0.00043184342 1.10654855e-05 0.005279688 -0.003318585 0.0014216098 -0.0085797105 0.017825415 0.052461065
0.0005626225 0.012816684 0.00013161279 0.0057126954 -0.0042027542 -0.011076011 -0.004366989 0.0024077315
0.0002991288 0.008668513 -0.0003840195 0.0021675953 0.005610379 -0.049904276 0.029133083 0.011522022
-0.002966595 -0.040488627 0.001989909 0.11143744 0.0014853942 -0.00026228448 0.0016736405 -0.0031013133
0.00182045 -0.006995973 0.004436709 -0.012676105 -0.014625869 -0.0013878455 0.0010446743 0.0031522836
0.021115942 0.0027364618 -0.005368721 -0.0057387943 0.0042640567 0.0033209817 0.005867557 0.0029936268
0.000898872 -0.0062190862 -0.00481706 -0.028292699 -0.0052073174 0.0019627758 0.0067583886 -0.0014809638
-0.027494323 -6.7163666e-05 0.04207797 -0.00087206333 0.008352358 0.004083934 0.0034433205 0.00047369604
0.0011008881 0.0006905421 -0.006638445 -0.00059484795 0.0009849864 0.00025310172 0.0010664414 -0.00014355373
0.0031688716 -0.0009963177 0.00649619 0.0126285385 0.0047689057 -0.006801569 -0.0013160359 0.00022542178
-0.04164776 0.011494824 -0.0075451094 -0.010309019 -0.00017328758 -0.00702253 0.00063321594 0.005159317
0.004627199 0.0041049644 0.0020635938 -0.003245983 -0.00174558 -0.007168961 -0.0043761036 -0.00033278827
-0.0038651042 -0.0012588004 -0.0010817732 -0.0052514193 0.1173447 0.0024840063 0.005989311 -0.0032447388
0.0134940995 0.018346839 0.0034348858 0.004233104 0.002041471 -0.12977129 -0.0022509007 -0.0044756997
-0.012670849 0.001968232 0.055902094 0.013409221 0.01324093 0.0021510073 0.07187924 -0.0048161726
0.002885463 -0.008902417 0.00032674999 -0.00412431 -0.003919207 -0.00078690815 0.0019946843 0.015769262
-0.008395346 -0.0022228858 0.003621871 0.003139256 -0.007105601 0.0026283392 -0.003062252 -0.0027846496
0.007654211 0.011527518 -0.0006921927 0.0041014506 -0.008923235 -0.0104337195 -0.0017838832 -7.084847e-05
0.0073893955 0.009751007 -0.0059913406 -0.006656817 -0.0036513177 0.071040206 0.014318512 0.0019868219
0.006483092 0.020837555 -0.011907484 0.03894505 0.0027809863 0.0029937646 -0.0025475519 -0.0012918423
0.006900021 -0.0031050304 0.0019899106 -0.0008487942 0.01569852 0.0007484195 5.6789253e-05 -0.0013298797
-0.14001706 0.002775845 -0.008335051 -0.002429013 0.011834994 -0.0002473244 -0.0038032848 0.00044711604
0.0019951807 -0.0048525594 -0.0018599627 0.030888716 -0.004667801 0.008337731 0.008581089 -0.007833519
-0.02714615 2.0552367e-05 -0.0950079 -0.0026713838 -0.0030256074 0.0022446164 -0.0050306222 0.0032587228

dist.linear.bias f4 [4]
00000000: cbbc 29bd 6b2b 323d 2351 9dbd a8dc 983d
-0.041439813 0.043498438 -0.07681491 0.07463962
