model/models/latest.pth (torch, 234603 bytes, 13 tensors)

base.base.0.weight f4 [32, 18, 3, 3]
00000000: 343c cbbd 4094 1bbe 253d bebd 6016 4ebe
00000010: 8fec 9cbe efe1 80be 58a1 ddbe 9d14 84be
00000020: afaa 05bf 7498 9ebe 8c87 973f 41fc 7e3f
00000030: 593b 3cbf 3225 a9be 1649 d73e 1138 293f
00000040: cb8d c33f a094 1e40 89d1 88bd dd55 193e
00000050: 2b3e 513e ce49 b0be 070b c5be d84d 853d
00000060: e628 963d f8b9 96bd 71cb 863e 4212 393d
00000070: 0f75 aabe dc20 dbbd 72c8 68bf 34c2 0fbe
00000080: 0e9c 85bd be5e 27bf 86c0 c93e 25d2 e43e
00000090: 21f5 a93e 169f 8f3d ee31 b63e 12ba bcbe
000000a0: 73bc 2e3f 73b6 693e b553 7d3f 8b8e 8d3f
000000b0: 2ddf 1ebe 6e9d bdbf bb2f 9dbf 0b80 5e3d
000000c0: 333f 72bf fdec 42bf 823c 9c3e 1247 4dbf
000000d0: 00bd 7ebe 2310 063f 29ce f9be 9e60 de3e
000000e0: 8639 183f a1d0 db3f 0506 01be 08d3 003f
000000f0: 06a6 683f 4e48 233e d93a 9e3e 88a9 983f
00000100: 5b17 253f 22f8 173f 6b87 3abf c218 07bf
00000110: 9f8f 7fbf 4227 d03d 8822 6e3f 2531 ed3f
00000120: 4a62 b6bd 0374 223f 6714 71be ba4e aebe
00000130: f729 533e 994f 75be 380c 52bf e836 1dbf
00000140: 154a c4be 5ed2 57bf d8ff 8ebf 2d72 79be
00000150: ab4f 97bf b756 5dbf 5f00 2b3e 85d4 35bf
00000160: de29 83bd 884b e8be 5fcf 53bf 867c 9dbf
00000170: 45ea 363f 5322 70bf aff8 98bf d3c8 b53e
00000180: a1e9 0cbf f42e 10bf 297f 213f eb2e 65bf
00000190: 7d2a a2bf c7d6 993d 5c20 8bbf 26dd ebbf
000001a0: 7080 c1bd 5b12 5fbd 73da f7bb 2457 533f
000001b0: 36fc 4fbf a594 a9bd 9475 c4be 57cd c93e
000001c0: 3f45 283f fcbf 7a3e 2e5a e1be 0b6e fc3e
000001d0: ad8e 25be 359d a2bc c861 d3bd 6251 403d
000001e0: 795a cabb f539 7bbb 3ee5 4f3e a234 393d
000001f0: 92b2 533e af7d ca3d eef1 98bd bd04 483e
00000200: 23d4 d23c 66a4 81bc 40f3 ee3c ee0a a23c
00000210: 5b4e b33e 0919 67bd 69cc 593e 7dfe 143e
00000220: 9644 c43d ff4c 1abd 8766 46bd 89ef 65bd
00000230: d4b8 ff3d 1853 c3bd 4638 4b3d fd6f 27be
00000240: c0b3 d7bd 91bb 1e3e 87b4 6d3c c35b a2bd
00000250: 8e7b 143d 3003 6cbd 01ae a73c 2c11 bb3d
00000260: bfcd 9638 fb5d 81bf 7b0a 703f aa4f 95bf
00000270: b8ce debf bc5e 68bf 0d3e 93bf 5746 f8be
00000280: f98f 7a3f d87d d43f 9952 dcbe 3442 57bd
00000290: 8196 6abe 93d6 babe 502c 4bbd 1cb3 abbe
000002a0: 41fd ddbe 1953 0ebe 6fa9 843d 8915 cd3c
000002b0: e352 293e 074f b9be 9eb3 8b3f 75b4 863f
000002c0: e3fa 283e ae18 4d3f cb18 91bf fa72 d8bf
000002d0: ecce 8dbd 356b 4f3e 38f2 293e 5972 813d
000002e0: 3ca9 c13e 587b b23d ed38 db3e 7612 17bf
000002f0: fa05 b0bb 543c 07bf cb14 6b3e 36c5 f7be
00000300: e5a0 2fbe 1263 60c0 6895 8abd 2c56 1dc0
00000310: f918 3b3e e279 88bf 4af2 853e 8269 47bf
00000320: 2aed 92be f8b9 05c0 438a 8cbe bea5 4e3e
00000330: d9e0 bbbf ea33 033f ce55 f33f 0406 633e
00000340: 3851 5cbf 582a 87be ec59 e1be 7ba7 9fbf
00000350: d33a 79bf 0b21 66be 906e cbbd 0670 e2be
00000360: ba03 f03e 31e1 e7be b3e1 d93e 1f30 40be
00000370: 51e3 8d40 79d6 2ebf 26a0 38bf 5b18 c53f
00000380: 96a8 23c0 2600 93be 2188 f7be d473 b83d
00000390: 0174 9ebe f15e 853e 5f3c d3be 7e2e 40be
000003a0: ff99 82bd baf3 4fbb c550 843e 8881 95be
000003b0: d9dd de3e 3144 f5bd 1561 1ac0 f009 11be
000003c0: 4953 95be 72be 183f 0429 12bd 799a 5e3c
000003d0: 2faa f73e d1f7 23be e787 2b3e 5d2a 6abf
000003e0: f074 e3be bfc2 853e 6c09 dabe de93 613e
000003f0: 4bb4 a03e a76c 81be e003 3dbe d3c5 1cbe
-0.09923592 -0.15193272 -0.09289006 -0.20125723 -0.3064923 -0.25172374 -0.43287158 -0.25796977
-0.5221357 -0.30975688 1.1838241 0.9960366 -0.7352806 -0.3303619 0.42047948 0.66101176
1.5277647 2.4778214 -0.06680591 0.1497416 0.20433871 -0.34431309 -0.38484976 0.06508988
0.073320195 -0.073596895 0.26327088 0.045183428 -0.33292434 -0.10699627 -0.90930855 -0.14038926
-0.06523906 -0.6537894 0.39404696 0.44691578 0.3319483 0.07012765 0.35584968 -0.3686071
0.682563 0.22823505 0.9895585 1.1059126 -0.15514822 -1.4813669 -1.2280191 0.05432133
-0.94627684 -0.76142865 0.30514914 -0.8018657 -0.24876785 0.5236837 -0.487901 0.43433088
0.59462774 1.7173043 -0.12599953 0.5032201 0.9087833 0.15945551 0.30904272 1.1926737
0.6448876 0.59362996 -0.7286288 -0.5277215 -0.99828523 0.10163738 0.9302144 1.8530623
-0.08905466 0.6345827 -0.23542939 -0.3404444 0.20621477 -0.23956145 -0.82049894 -0.61411905
-0.3833777 -0.8430537 -1.1171827 -0.24359961 -1.1821188 -0.8646044 0.1669936 -0.71027404
-0.0640447 -0.45370126 -0.827383 -1.2303627 0.71451217 -0.93802375 -1.1950892 0.3550478
-0.5504399 -0.56321645 0.63084656 -0.89524716 -1.2669216 0.07511669 -1.086925 -1.8426864
-0.09448326 -0.054460865 -0.007563883 0.8255484 -0.8124422 -0.08280305 -0.38370955 0.39414474
0.6573066 0.24487299 -0.44014114 0.49302706 -0.16167708 -0.019850353 -0.10321385 0.046952613
-0.006175336 -0.0038334106 0.20302293 0.04521621 0.20673588 0.098872535 -0.074680194 0.19533058
0.02573592 -0.015825462 0.029168725 0.019780602 0.35020718 -0.05642036 0.21269383 0.14550205
0.09583394 -0.037671085 -0.04843762 -0.05613664 0.12486425 -0.09537333 0.049614213 -0.16351314
-0.105323315 0.15501238 0.014508373 -0.079276584 0.036250643 -0.057620227 0.020468714 0.09134135
7.1908806e-05 -1.0106806 0.9376599 -1.1664937 -1.7406836 -0.90769553 -1.1503311 -0.48491165
0.97875935 1.6600904 -0.43031767 -0.05255337 -0.22908975 -0.36491832 -0.049602807 -0.33535087
-0.4335728 -0.13898887 0.064776294 0.025034683 0.16535525 -0.36193106 1.091419 1.0523821
0.16501956 0.80115783 -1.1335691 -1.6910088 -0.06924233 0.2025574 0.16596305 0.06320638
0.37824428 0.08714932 0.42816868 -0.59012544 -0.005371806 -0.5282643 0.2295715 -0.48392648
-0.1715122 -3.5060468 -0.06766778 -2.4583845 0.18271245 -1.0662196 0.26161414 -0.7789537
-0.28696567 -2.0894756 -0.27449235 0.20180413 -1.4677993 0.5125109 1.901056 0.22170264
-0.8606143 -0.26399493 -0.44013917 -1.2472986 -0.97355384 -0.22473542 -0.099331975 -0.44226092
0.46877843 -0.45288995 0.42555007 -0.18768357 4.4339986 -0.6829601 -0.7211937 1.5398058
-2.5571647 -0.2871105 -0.48346046 0.090064675 -0.3094788 0.26048997 -0.41256997 -0.18767735
-0.06377029 -0.0031730966 0.25842872 -0.29200387 0.4352863 -0.11975897 -2.4121754 -0.14163947
-0.29165104 0.59665596 -0.035683647 0.013586634 0.48372027 -0.16012503 0.16751061 -0.9147089
-0.44425154 0.26125142 -0.42585313 0.22029063 0.31387553 -0.25278208 -0.1845851 -0.15309839

base.base.0.bias f4 [32]
00000000: a3a2 c8bd 4d8c 16be 1c5e dabd 534c 05bf
00000010: ab77 48bf 2cc8 30bf 801b 1cbf b006 07bf
00000020: bad1 a9be 014d e5be 29d5 29bf 6998 15be
00000030: 9ed7 7cbf a34c 87bf ffe4 54bf bc7f 3dbf
00000040: 9679 11be 069b 54bf 248e 4dbd a689 2dbf
00000050: a8d7 6fbf e89c 2cbe b29e cabe e6fe 5dbf
00000060: a4dc fcbe 2545 81bf c80b 8bbf a3d7 a4be
00000070: 354e 34bf 357c 3cbe bdd9 0bbf b952 a4bc
-0.097966455 -0.14701958 -0.10662481 -0.52069587 -0.783076 -0.6905544 -0.6097946 -0.5274458
-0.3316782 -0.44785312 -0.6634088 -0.14608921 -0.98766506 -1.0570263 -0.8316192 -0.7402303
-0.14206538 -0.83049047 -0.050184384 -0.6778816 -0.9368844 -0.1685673 -0.395742 -0.8671707
-0.49387085 -1.0099226 -1.086297 -0.32195768 -0.70431834 -0.18406756 -0.5462912 -0.020058976

base.base.2.weight f4 [32, 32, 3, 3]
00000000: fdf7 bd3e 6feb 143e 3fe5 c4be fba2 07bf
00000010: cd5e 323f 5046 93be 9414 6dbd b9ad 0c3f
00000020: 58f6 1bbe 7065 76be a44e e83d 8eee 863e
00000030: 5151 d83e 175f 3b3e 5ad5 ca3e 87db d5bc
00000040: c27d c93e 9e0b 6e3e 734a 853e e66e edbe
00000050: d226 57be e299 3dbd 24aa c13e b10a 663e
00000060: 4fd3 893e 084f 60bf 851c cf3e 0712 323e
00000070: 5c5f 7e3e d108 c0be ca5d ad3e a63f b43e
00000080: e017 913e 531e d53e a7da 8ebe 0805 92bc
00000090: dbc6 57bd 9474 f63d 1a1f 2dbd 584f 9a3e
000000a0: 8d91 063f 04af db3d a00d 753e ca7b 453e
000000b0: 44dd 9d3e dde1 97bd 9460 313d 2aed 023d
000000c0: bda0 433e 21ba d93e e80c 1dbe 1311 a73e
000000d0: 3b1d 373e e787 d83d 2cdb 27bf 6897 fc3e
000000e0: b267 a9be bf77 2a3e c2b6 db3d 9172 25bf
000000f0: 352e 1d3e b220 883d 5dc4 033c 2c6a 12bf
00000100: b6b9 b2bd 317f ff3d 0145 9abd e527 943d
00000110: e135 823e e9f9 d7bd 3b7d 7e3e 7f58 593d
00000120: 7c0d db3e d0c5 bf3e f088 be3e 2025 ca3e
00000130: 8221 833e 3240 a83c 4806 a93e 4285 473e
00000140: bc38 68be f0a5 a0bf 552c c73d 7872 5a3e
00000150: 1dde 8b3d 9bed 24bf 0baf c83e 2602 1dbd
00000160: e6ff f9be 8bba eebe 3b93 bdbe 8465 103f
00000170: 5644 503e 7b3d 20be 8df3 07be 9b5e ccbd
00000180: d12e 1f3e 2d37 43bf 7048 393f 368a 323e
00000190: 7779 20be 198f 75bd 5c6c 6abe 918d 79be
000001a0: e82c acbd c738 92be 7215 96bf 29ed ab3e
000001b0: a362 ce3e 11c3 463e 0435 cf3e 2309 ed3e
000001c0: 9869 0f3f 369e 4cbd 861e d93e fb63 4dbf
000001d0: 9687 943e b408 113f 46d0 babe f7a4 d0bf
000001e0: 3db8 14be 154a 953e b822 353f da2f a7bd
000001f0: c66c da3d 9167 863e 9b64 5f3e 5cae 3abf
00000200: bd10 26be edde f53e 6d9d b7be 7f83 24bf
00000210: 6e77 633e 3516 1dbf 2e19 89bd e5a6 33bd
00000220: 3b24 4dbe f018 15bf 9475 c5be ecff 9fbd
00000230: 955e fa3e d123 64bd 8534 20be d033 543e
00000240: 3964 6f3e 34bd bbbe f681 bdbe a9ae 75bd
00000250: 6ef1 4f3d 0c57 afbe 578c cfbe dd8a 903c
00000260: 1a7b 3e3d 2d84 5b3e a965 083e f0af 05be
00000270: 50e1 fe3e 62ba ea3e 59bd cb3e 1565 a0be
00000280: bfb9 2d3c 8877 643e 8fa8 56bf 6100 c93e
00000290: 0afa ac3f 3117 833d 342e b63e 7c72 433f
000002a0: a5cb 8d3d afd6 5fbd 9d6e 8abe 23a6 44bf
000002b0: d0d3 87bf 5778 6bbe e977 b2bd 1869 933e
000002c0: 1800 12bf 7d97 8a3c 9f9c babf 3d4c 03bf
000002d0: 37a6 2c3f 7451 ff3d 610f 68bf 074f bfbe
000002e0: b482 77bd 0bc1 dcbd f69d a9bf 61d1 99bf
000002f0: 04cc 313f ff18 9cbe 0762 0b3e 0745 973e
00000300: aa62 ea3d ac96 c9be 5a91 bfbe 06ec ad3e
00000310: 4030 e0bc 6b63 61bd 1060 8e3e 6eed 7ebb
00000320: ce36 18be 0e75 25be 8c1d eb3e dfa5 d13e
00000330: b87f 3c3e db4d 88bd 2b87 043f a713 15be
00000340: f9f6 f03e 0260 c23e f059 b53e df26 b53e
00000350: 2ac6 073e 9466 c83e f1f5 5cbd 293b 8e3e
00000360: 209a af3d 95bc abbe 6082 54be 8ab6 443e
00000370: 8c32 13bf 7bef ca3e ef33 6d3e 3754 ddbd
00000380: b290 bdbe bc8a 99be 3f20 89be f0bf e1bd
00000390: 6c10 ed3d 39c1 473e 0835 4e3e 7d7e 0ebf
000003a0: e2f8 4abe 1209 bcbd a73d a7bd a56e 8dbe
000003b0: 73d8 2cbe 8347 9bbe f4cc aabf cb41 61be
000003c0: af1c 7f3e e218 27bf d290 5ebd 3af8 ab3e
000003d0: 5d73 0abe f79b 3c3d d42f e53d 61f5 e53e
000003e0: 9d04 873e d6b7 75be 217d 8d3e 4184 003f
000003f0: dd6e 6a3d 21c1 a43d 6293 dabe 8ab7 223e
0.37103263 0.14542936 -0.3845615 -0.52983063 0.69675905 -0.28764582 -0.057880953 0.5495258
-0.15230691 -0.24062133 0.113431245 0.26353878 0.4224954 0.18297993 0.396159 -0.026105655
0.39353758 0.23246619 0.26033363 -0.4637367 -0.21010903 -0.046289332 0.3782512 0.22465016
0.26919028 -0.8762059 0.40451446 0.1738969 0.24841064 -0.37506726 0.33860618 0.3520481
0.28338528 0.41624698 -0.27901193 -0.017824665 -0.052679878 0.12033954 -0.04226599 0.3013866
0.5256584 0.10726741 0.23930979 0.19285503 0.30832875 -0.07416127 0.043304995 0.03196446
0.19104286 0.42524818 -0.15336955 0.32630214 0.17882244 0.10572796 -0.65568805 0.49334264
-0.33086926 0.16647242 0.10728218 -0.6462794 0.15349658 0.06646861 0.008042422 -0.57193255
-0.08726828 0.12475432 -0.07532693 0.07234172 0.2543173 -0.105457135 0.24852459 0.053062912
0.42783725 0.37455606 0.3721385 0.3948145 0.25611502 0.020538423 0.33012605 0.19484428
-0.22677892 -1.255064 0.097252525 0.21332729 0.06829474 -0.6442506 0.39196047 -0.038332127
-0.48828048 -0.46626696 -0.3702639 0.564049 0.20338568 -0.15648453 -0.13276501 -0.09978982
0.15545203 -0.76256067 0.72376156 0.17435536 -0.15671335 -0.05995092 -0.22892898 -0.2437041
-0.08407003 -0.28558943 -1.1725295 0.33579376 0.4030963 0.1941035 0.40470135 0.46296033
0.560205 -0.04995557 0.424061 -0.80230683 0.29009694 0.56653905 -0.36487025 -1.6300343
-0.14523406 0.29158083 0.707561 -0.08163424 0.10665278 0.2625089 0.21815722 -0.729223
-0.16217323 0.4802164 -0.35862294 -0.6426315 0.22213528 -0.6136201 -0.06694256 -0.043860335
-0.20033352 -0.58241177 -0.38566267 -0.07812485 0.48900285 -0.05569822 -0.15645035 0.2072289
0.23378076 -0.36667788 -0.37013215 -0.059981022 0.050767355 -0.342461 -0.40536758 0.01764434
0.046504118 0.2143714 0.1332003 -0.13055396 0.49781275 0.45845324 0.39792898 -0.3132712
0.010603367 0.22311223 -0.8385095 0.39258102 1.3513806 0.06400908 0.35582125 0.76346564
0.06923608 -0.054648098 -0.27037516 -0.76816005 -1.0611515 -0.22995125 -0.08714277 0.28791118
-0.57031393 0.016917938 -1.4579047 -0.51288205 0.67441124 0.12466708 -0.90648466 -0.3736498
-0.060427383 -0.107790075 -1.3251331 -1.2017022 0.6945193 -0.3048782 0.13611613 0.2954485
0.114446 -0.39372766 -0.37415582 0.33969134 -0.027366757 -0.055026453 0.27807665 -0.0038898843
-0.14864656 -0.16157934 0.4592098 0.40946862 0.18408096 -0.06655475 0.5176875 -0.14558278
0.47063425 0.37963873 0.3542018 0.3538122 0.13259187 0.3914076 -0.053945486 0.2777951
0.08574319 -0.33542314 -0.20752859 0.19210258 -0.57499003 0.39635834 0.23164342 -0.10807078
-0.37024456 -0.29988658 -0.26782414 -0.11022937 0.11575398 0.19507302 0.20137417 -0.55661756
-0.19821504 -0.091814175 -0.08166056 -0.27623478 -0.16879444 -0.30327997 -1.3343797 -0.21997754
0.24913286 -0.65272343 -0.05433733 0.3358782 -0.1352057 0.046047177 0.11190763 0.44913772
0.26370707 -0.23995909 0.27634528 0.50201803 0.057234634 0.08044649 -0.4269057 0.15890327

base.base.2.bias f4 [32]
00000000: 27ad 13be 139a fc3e 5395 6e3e ae05 bfbe
00000010: f38c ae3e 3760 34bf 6407 143e a294 94bf
00000020: 3894 9ebe 4b69 a6be b0e8 2abe 3d79 45bf
00000030: 2262 6a3e 895d 7d3f 2d5e 26bf bf1d 47be
00000040: 55dd a93e 9fa1 e5be ce68 babe 5401 083f
00000050: 8dae c6bf 84bf b33e 0895 6dbe 914a 19bf
00000060: ba4b c03f f2c9 393f 9df3 bbbf 8158 9a3e
00000070: efd0 863e 7b3e afbe 4c2b 86be 2346 25bf
-0.14421521 0.493363 0.2329915 -0.3730902 0.3409191 -0.7045931 0.14455944 -1.1607859
-0.30972457 -0.32502207 -0.16690326 -0.7713812 0.22888997 0.9897085 -0.6498745 -0.19444941
0.33176675 -0.4484987 -0.36408085 0.53127027 -1.5522019 0.35107052 -0.23201382 -0.59879404
1.502311 0.7257377 -1.468372 0.30145648 0.2633128 -0.34227356 -0.26204908 -0.64560145

base.base.4.weight f4 [32, 32, 3, 3]
00000000: 8bb8 85be 6410 92bd d6b6 a73d 0eb9 39be
00000010: 67d9 493d 4834 82bf 3ec4 75be f9f3 33bb
00000020: d2a5 44be 8269 1cbf 4748 75be fa92 6ebf
00000030: e2ed 84bf 9fe4 5bbe f1f6 8cbf 8702 f9be
00000040: 592b 71bf 96a6 93bf 325b 12bf 432b 00bf
00000050: dd3d 303d a2c1 d8be 8ee0 493f 038a 483e
00000060: 80dd c0be da2f 26bf 7ece e0be 31ff 70bf
00000070: e024 8b3f d1e6 093f b5cb 333f a73a 0ebe
00000080: df47 6bbf 3494 42be 97f5 853e 2f0a e83e
00000090: bc34 f8be 4087 3dbf b728 0ebf 2350 45bf
000000a0: 0502 e8bc 4549 c2be 6e48 4fbe 7d5b 51bf
000000b0: 2f1a a9bd 86b8 60bf 3dea 68be 2d27 993e
000000c0: 7c1e ccbc ebb1 36bf 0a55 463d 289f 87bd
000000d0: ba2d 863e 3e71 7a3d a184 623e f2dc 00bf
000000e0: 1437 98be c1e3 89be 583e cabe 1774 343e
000000f0: bf33 97bf 46df 47be 1081 033f c35b fcbd
00000100: 31a7 9d3e 748a 483e 0337 83bd d6dd 9a3e
00000110: 41ad 83bf bfd6 6f3e 3831 463f 7fba 23bd
00000120: 1d2c 953e f61d d33e 003c 1c3d af9e 43bd
00000130: 510f 00bf aa1a c03d f194 cbbe a186 f73e
00000140: 9d6d f6bd 66c8 f3bd 5241 953d 0352 01bf
00000150: 7bd3 e43c a8c4 193e 6dab abbe 6bff d13b
00000160: 1ec3 e83e 32b5 92be 098a 42bd 636e c3bf
00000170: 2d46 99be a5ec 89be eee5 07bf b379 5ebf
00000180: c3a9 1e3e 597a d0be 41fe d9be d2cc b9be
00000190: 7fa1 8ebe c8d2 1dbf 2223 193f a539 a9be
000001a0: eebd 043d 447e 86be 1d1d 6dbe 102d 5f3d
000001b0: 4aac 44be 2243 12be 150a 28bf 4611 3cbf
000001c0: cac2 543e 352b 093f db2b 023e 655f 61bd
000001d0: f8b6 01be b1e6 61be 885c 66bf bbf5 07bf
000001e0: b5bd 2cbf 05ba 24bf e8bf 08bf e8f6 a6bd
000001f0: 9b4e 8a3e 939e 923c 27a1 9a3d 8cce 213f
00000200: b458 33bf fc25 97bd 5a9b a93e f4e3 5fbe
00000210: e746 dcbd bd3a 133e 023c 26bf 42de 573e
00000220: c9aa 16be ea23 31bf e5fa 623e 1c2b 163f
00000230: 1e9e 01bf d39c 2cbe 3696 253f d8ab 383e
00000240: 97a6 183e 27f8 49bd 63d1 04bd 6302 34bf
00000250: 5ccd e3be 852e 07bf d96a a13e f142 8b3b
00000260: c4e4 8cbf 9b55 64bd 7a49 923d 4990 d83e
00000270: 85ec ab3d 5e42 723f c47a e4be 961b eebd
00000280: b4b5 aabe f20e 0b3d 5794 c0bc a80b ebbe
00000290: 5e41 2fbf a609 13bc 65bf ab3f 2188 b23e
000002a0: 1f58 7b3e 7b56 2ebe 2e7b 99be ae10 79be
000002b0: 5f3d b3be 6c9c 7dbe 2c12 e3bd 6965 263e
000002c0: f28c 31bf 0c77 58be f700 27bf d415 a9be
000002d0: f9f8 173e c5cb 243d dcd4 51bf c9ea 123f
000002e0: 592c f1be 4358 033e f861 8a3e a308 4d3e
000002f0: c092 d5be a035 e8be ad94 b73c 7562 93bc
00000300: e277 67be 5678 e6bd c345 02bf fd33 a53e
00000310: 94df a63e da1b 81be ae41 a7bd 1074 943d
00000320: 2923 8fbe ec62 423e 6430 17be 79e1 65be
00000330: e26f 56be 85c6 ffbe 643a ea3b 1e62 a3be
00000340: 8d0d 81be e0c6 9bbf cd7b e9be bbe1 093f
00000350: 8e62 24bf 8498 2dbf 5fcc 0e3f 5ace 363f
00000360: 511d a0bf cad1 2dbe 07a1 d73e b334 c1be
00000370: 6c35 d13d 2464 603d 6efe ddbe a7b1 91bf
00000380: 884a f6be 570a a43c fab5 21bf 1a38 d0be
00000390: bb41 6c3e 8997 7ebd 6365 96be 6066 5b3d
000003a0: 3f46 04be 7abe 4fbe 4af2 4abd 6965 fa3e
000003b0: 16e2 02be 7037 09be 9320 f83e cb8c 6d3f
000003c0: cc9f bd3d 82db c63e ee56 1bbe 3d99 34bf
000003d0: b460 93be 6915 3dbe affb c0be f433 7abe
000003e0: fc66 c3bf 2083 b4be 1408 10bf 6082 1cbf
000003f0: 3cd5 053c 34f1 553d 090a 613d ac9c b5be
-0.26117358 -0.071320325 0.0818917 -0.18136999 0.049279597 -1.0172205 -0.24000642 -0.0027458651
-0.1920388 -0.6109849 -0.23953353 -0.9319302 -1.0385096 -0.21473931 -1.101286 -0.4863474
-0.9420677 -1.1535213 -0.57170403 -0.5006601 0.043027747 -0.4233523 0.7885827 0.19583897
-0.3766899 -0.64916766 -0.4390754 -0.9413939 1.0870628 0.5386782 0.7023271 -0.13889562
-0.9190654 -0.19001848 0.26163933 0.4532027 -0.48477733 -0.740345 -0.55530876 -0.77075404
-0.028321275 -0.37946525 -0.20242473 -0.81780225 -0.08256947 -0.8778156 -0.22745605 0.299127
-0.02491688 -0.7136523 0.048420943 -0.066221535 0.26206762 0.061143152 0.22120906 -0.50337136
-0.2972952 -0.26931575 -0.3950069 0.1762241 -1.1812667 -0.19518766 0.5136881 -0.1232219
0.3079162 0.19584066 -0.06406977 0.30247372 -1.0287248 0.23421763 0.7741885 -0.03997278
0.29135218 0.41233796 0.038143158 -0.047758754 -0.5002337 0.09380086 -0.3976207 0.483449
-0.12032626 -0.11903457 0.072878495 -0.50515765 0.027932873 0.15016425 -0.33529225 0.006408622
0.45461363 -0.28653866 -0.04749492 -1.5268062 -0.29936352 -0.26938358 -0.5308522 -0.8690445
0.15494446 -0.40718344 -0.42576793 -0.36289078 -0.27857587 -0.6164975 0.59819233 -0.33051792
0.032407694 -0.26268208 -0.23155637 0.054486334 -0.19206348 -0.14283422 -0.65640384 -0.7346386
0.20777431 0.53581554 0.12712042 -0.055022616 -0.12667453 -0.22060658 -0.8998494 -0.5310933
-0.6747697 -0.64346343 -0.53417826 -0.081525624 0.27013096 0.01789788 0.075502686 0.6320579
-0.70057225 -0.07380292 0.33126336 -0.21864301 -0.10755711 0.14377876 -0.64935315 0.21080878
-0.14713587 -0.69195426 0.22166021 0.5865953 -0.5063189 -0.16856699 0.6468233 0.18034303
0.14907299 -0.049308922 -0.03242625 -0.7031614 -0.44492614 -0.5280536 0.3152683 0.0042499234
-1.1007314 -0.055745702 0.07142921 0.4229758 0.08394722 0.9463252 -0.44624913 -0.11626355
-0.33341753 0.0339498 -0.023508234 -0.4590733 -0.6845912 -0.008974468 1.3417784 0.34869483
0.24545334 -0.17025177 -0.2997679 -0.24322769 -0.3500776 -0.24766701 -0.110874504 0.16249622
-0.6935569 -0.21139163 -0.6523585 -0.33024466 0.1484107 0.040233392 -0.8196542 0.57389504
-0.47104147 0.12826638 0.2702787 0.20022826 -0.41713524 -0.45353413 0.022409761 -0.017991284
-0.22604325 -0.11253421 -0.508877 0.32266226 0.32592452 -0.25216562 -0.08166824 0.072487
-0.27956513 0.18983048 -0.14764553 -0.22449292 -0.20941117 -0.49956146 0.007148074 -0.31910795
-0.2520565 -1.2170067 -0.45602265 0.5386006 -0.6421288 -0.67810845 0.55780596 0.7140862
-1.2508947 -0.1697456 0.42115042 -0.3773552 0.102152675 0.054783 -0.43358177 -1.138234
-0.48103738 0.020024462 -0.631683 -0.40667802 0.23071949 -0.062156234 -0.29374227 0.05356443
-0.12917422 -0.20287505 -0.04954747 0.48905495 -0.12781557 -0.13400054 0.48462352 0.9279296
0.092589945 0.38839346 -0.1516988 -0.70546323 -0.28784716 -0.18465199 -0.3769202 -0.24433881
-1.5265803 -0.3525629 -0.56262326 -0.61136436 0.008168515 0.052231982 0.05494121 -0.35471094

base.base.4.bias f4 [32]
00000000: 6c12 8fbf 7069 bfbf 419d 93bf 6268 50bf
00000010: 5305 dfbe 9b85 75bf f9fb 72bf e0e0 94be
00000020: 4b37 c1be 20e3 9f3d caee b2bf 02f9 87be
00000030: fba2 9fbf 6a38 c5bf 4b33 3cbf 84e1 06bf
00000040: 5e37 9dbf 9374 3ebf 6390 5cbf 368b 373d
00000050: 253c 0ac0 6551 b8bd 4fab 873e 294b 933f
00000060: 4969 d5be a482 b8bf 17fd a0bf 8352 b7bf
00000070: 8688 13bd 1450 d8bf d2c3 bcbe b11d 32bf
-1.1177497 -1.4954052 -1.1532365 -0.81409276 -0.4355875 -0.9590699 -0.9491573 -0.29077816
-0.37737498 0.078069925 -1.3979123 -0.26557165 -1.2471613 -1.5407841 -0.73515767 -0.5268786
-1.2282522 -0.7439663 -0.86157817 0.044810496 -2.159921 -0.089999 0.26497886 1.1507312
-0.4168189 -1.4414868 -1.2577237 -1.4322056 -0.03601887 -1.6899438 -0.3686815 -0.69576555

base.fc1.weight f4 [128, 128]
00000000: 949c bbbe 970a b7bc b0e3 ae3d b02a ccbc
00000010: fc9d 48be 9001 2dbe 25d6 f03d 4b82 a63e
00000020: 0b3f 13bd 94a8 26bf 139a 9a3d 1e62 43bf
00000030: 0e5a 163e 2cc0 d13e 34c3 adbe 4e58 c6bd
00000040: be97 01bf fd35 23bf b65b ba3c 5a2f f93e
00000050: 93f4 41be ef83 b8bd 7894 7abe 6dbe 22bd
00000060: c776 0c3f f18c 363e 0fe8 24bf 9886 abbd
00000070: 29cf 763e b98c d7bc 062c 373e 9f5f e8bf
00000080: 4c3c 72be 648c bd3d 942c d3bd 77b6 52bf
00000090: 6d9b b6be bab8 25bf b3f6 18bf 49fa 933e
000000a0: 706b c1be 8005 bdbe 0bdb 6ebf 9faf 043f
000000b0: cd99 14be a2cf 543f 2813 ce3e 46fe 043f
000000c0: 6333 61be 1f7d 723e 42de 1bbf 083d 463e
000000d0: bf07 3dbf 400d 0ebf 8b4f 94be c72b 1abf
000000e0: bb24 153e fd17 d93e 00a5 c23e 91b2 7abe
000000f0: 7bf2 3fbf 9261 9bbe 9c37 1ebf 517e eb3b
00000100: c983 05be 22e9 d33e c3c8 88be 6d41 e8be
00000110: b616 453f dde8 5c3f 30cd 9e3e d69a cb3e
00000120: f7ab 2dbf a4af 79be 9968 44bf 7594 f9bc
00000130: cc42 153f 2611 11bf 8866 233e 9ebe 7bbf
00000140: 1834 6fbd cc60 aa3e 78ad 53be 946b 3dbe
00000150: 8a86 df3d 1781 133f afa1 68be 3b22 0ebf
00000160: ed5e 063c 60e2 473e 5377 bd3d 9b83 26bd
00000170: 39bd ffbe c3e3 b33e 9a28 50bf 4b4d 72be
00000180: 8c58 0bbd 89a0 a83e 0dde 5dbf c685 133e
00000190: 21ac 90bd 0746 33bf 186f c1bc 9ed9 bbbe
000001a0: 8276 98be 0051 943d 9bb1 35be 160b 29be
000001b0: 8817 8dbc 2c87 933e 9d45 1e3f aec5 5a3e
000001c0: 9153 b3bf ca8b be3d 6ff7 963e df0d 10bf
000001d0: ac98 cbbe 0f3d e73e 542a f5be d551 98be
000001e0: e122 ccbe 987c e1be d368 bf3e 66a2 3f3f
000001f0: cb70 813f 35b1 69bf 9c7a c7bd f5bf 18bf
00000200: 5d3e a0be 3294 c4be e137 773d b956 9bbc
00000210: 6fd2 9d3e d314 0dbf 427b d5be 4e5b 64bf
00000220: 0e90 c3be e335 e03e 3b2e 58be 6041 e8be
00000230: d675 9e3e 13ce e4be 6261 31bf 231a 1abf
00000240: 252c 583d c5fe 193f 6ad8 053e adff 843d
00000250: 0bc1 aebe ea04 7bbe c521 85bf 9886 86bd
00000260: f715 b2ba 9da3 4dbe d2f0 1d3f a604 073f
00000270: af09 97bd 1af1 773e 78d9 5fbe 79a5 cabe
00000280: 45b0 32bf 17a2 f9be f712 82be 880c ffbe
00000290: daac 2cbf ed32 20bf f239 59be 727f 133e
000002a0: bdf7 84be 55bc 80be 2ba9 34bf 38e9 dabd
000002b0: 891a a33d 3f85 0fbe b003 883d 8220 863e
000002c0: c7e9 10bf cbc6 15be 3041 6abf 121d ffbd
000002d0: 19b3 51bf aaf7 5cbf da83 b23c 1166 25bf
000002e0: f65c 1ebf 46ca d03c bfe9 6abe a3f2 76bf
000002f0: 03ea 7c3e 9608 3ebf b0c3 cabe 707d 0b3d
00000300: 6ce7 39bf ac58 10bf 8bb4 3d3e 71b6 593e
00000310: e5d9 183f d553 aebd 3e3e 70bf f1da 02bf
00000320: ff52 01bf f8f6 f8bd b401 6abf 18a9 74be
00000330: 7950 c63e aa22 a13e bb8c 17be 3f77 9fbe
00000340: 834c cb3d 4504 0cbf 65ff 3f3f e8ab ab3d
00000350: ff37 fbbc 8e07 06bf 938e 03be 4b6d 333c
00000360: 7e77 f7bd 5d5a a2bd fd92 383e 7526 5abe
00000370: 1d29 89be db56 40bf d5eb c4bd c2b6 5abe
00000380: 86ce 28bd 7717 31be 1e5e 34be 9dc9 aebe
00000390: 8098 dabd 3a1f c03d 5ffb 27bf a3c4 adbe
000003a0: 8222 cb3e 91f3 75be cf4a 043f 8918 4fbe
000003b0: 14d3 88be 8a4e 9c3e f0e5 aa3c 02b9 14bf
000003c0: 0727 b9be 7375 a2be 81ab 243d 06c3 8cbe
000003d0: 56d6 bbbe 7a5f 72be 2fa0 943d 09a3 d4be
000003e0: cc78 c0be 99a7 96bd ca25 d9be b990 943e
000003f0: f4d9 fe3e fb68 13bf c96c 263e d1ce 523e
-0.36642897 -0.022343917 0.08539522 -0.024922699 -0.19591516 -0.16895127 0.11759595 0.3252128
-0.035948794 -0.6510098 0.075489186 -0.7632159 0.1468279 0.40966928 -0.3393799 -0.096848115
-0.50622165 -0.63754255 0.02274881 0.4866894 -0.18940954 -0.09009539 -0.24470699 -0.039732385
0.5486874 0.17827202 -0.64416593 -0.08375281 0.24102463 -0.026312219 0.17887887 -1.8154181
-0.23655814 0.09255293 -0.10311237 -0.8230967 -0.35665455 -0.64734995 -0.59751433 0.2890189
-0.3777728 -0.3691826 -0.93302983 0.51830477 -0.14511795 0.8312932 0.4024899 0.5195049
-0.21992259 0.23680542 -0.60886014 0.19359219 -0.73839945 -0.5548897 -0.28966936 -0.6022305
0.14564793 0.42401114 0.3801651 -0.2448218 -0.7497937 -0.30347878 -0.61803603 0.007186689
-0.13038553 0.41388804 -0.2671567 -0.45362416 0.7698778 0.8629282 0.3101592 0.39766568
-0.6784052 -0.24383408 -0.76722103 -0.030466298 0.5830505 -0.5666679 0.15957081 -0.98337734
-0.05839929 0.33276975 -0.20671642 -0.18498069 0.10914333 0.5761885 -0.22717927 -0.5552098
0.008201343 0.19519949 0.09251275 -0.040652853 -0.49949053 0.35134706 -0.81311953 -0.23662297
-0.03401999 0.3293498 -0.8666695 0.144065 -0.07064081 -0.7002873 -0.023612544 -0.36689466
-0.29777914 0.07242012 -0.17743532 -0.16508135 -0.017223135 0.28814065 0.6182497 0.21364471
-1.4009877 0.093040064 0.29485652 -0.56271166 -0.39764917 0.45163772 -0.47883856 -0.29749933
-0.3987036 -0.4404037 0.37384662 0.74857175 1.0112547 -0.9128602 -0.09740183 -0.59667903
-0.3129758 -0.38394314 0.060356025 -0.018962251 0.3082461 -0.551099 -0.416956 -0.8920182
-0.38195843 0.43791112 -0.21111386 -0.45362377 0.30949277 -0.44688472 -0.6928922 -0.6019613
0.052776475 0.6015437 0.13070837 0.06494079 -0.34131655 -0.24513593 -1.0400931 -0.065686405
-0.0013586868 -0.20081945 0.6169559 0.5274147 -0.07374894 0.24213067 -0.21860301 -0.3957937
-0.69800216 -0.48756477 -0.25405094 -0.49814248 -0.6745125 -0.62577707 -0.2121351 0.14404085
-0.2597026 -0.25143686 -0.7057063 -0.10689014 0.079640456 -0.14015673 0.06641328 0.26196676
-0.56606716 -0.14626615 -0.9150572 -0.124567166 -0.81913906 -0.86315405 0.021791387 -0.64608866
-0.618606 0.025487076 -0.2294073 -0.96463984 0.24698643 -0.7423185 -0.39602423 0.034055173
-0.72618747 -0.563853 0.18525903 0.21261002 0.5970748 -0.085120834 -0.93844974 -0.5111533
-0.50517267 -0.121564806 -0.9140885 -0.23892629 0.3873327 0.3147176 -0.14799778 -0.31145665
0.09926703 -0.54694015 0.74999076 0.08382398 -0.03066635 -0.5235528 -0.12847356 0.01095135
-0.12083338 -0.07927392 0.18024822 -0.21303733 -0.2678918 -0.7513253 -0.09615294 -0.21358779
-0.04121258 -0.17294107 -0.17614028 -0.34138194 -0.10673618 0.09380956 -0.65617937 -0.33939084
0.39674765 -0.24018694 0.5167665 -0.20224203 -0.2672354 0.3052867 0.020861596 -0.580948
-0.36162588 -0.31730232 0.04020262 -0.2749254 -0.36686963 -0.23669234 0.07257115 -0.41530636
-0.3759216 -0.073561855 -0.42411643 0.29016665 0.4977566 -0.5758206 0.16252436 0.20586707

base.fc1.bias f4 [128]
00000000: c41a c8be 98ad e5be 5375 03bf 17f6 a8be
00000010: 3c35 19be f46f bcbe 8916 073c bc63 29bf
00000020: 485b 40bf 316a 50be 39a9 acbe 6d5a fdbe
00000030: 8b0e 1cbe e225 133d 0eb0 1dbe 2189 fc3e
00000040: 1492 4ebd f243 dcbd 26b3 e7be 6b25 a8be
00000050: a906 2abf c9a3 f0bc f547 40be 59ae 06bf
00000060: c5ee a6be a5a1 36be 4500 12be c3dc 6abe
00000070: b47f 48be 9122 89be d2ba 40be fcb6 2a3f
00000080: 5b63 7dbe 96a1 b7be b477 08be 91ab 9cbe
00000090: a6ce e4bd 591b b63e ce95 6dbe e581 bbbd
000000a0: 26c9 d1be 91f3 21bf 2813 72be 9707 9f3d
000000b0: 5b1d 15be b669 9cbe a289 03be e010 7cbe
000000c0: e3bf 29be 3dbc 5ebe 8c86 20be a6d8 d8bd
000000d0: ef54 90bf efa6 afbe af22 55be f8d4 a7be
000000e0: bf71 1abf dfb5 8dbf 0165 03be 0122 a7bd
000000f0: 2fab 60be f772 80be ca44 a3be 9781 da3c
00000100: c4e6 3cbe a268 a03d 61a5 df40 03ad cdbe
00000110: 0746 10be eced bbbd 05b4 cdbc f2b7 08be
00000120: e9e5 553e 7615 533f 6355 08be 0655 a3be
00000130: 654c 82be 8ee7 47be 2fe7 53be 0165 86be
00000140: d32d 89be 0acc febd aae0 c93e 29ad b9be
00000150: 75c8 a1bd 6690 adbf 0385 04be 36f7 b6be
00000160: 7bd5 a2be 687d ddbe 2ebd 8ebe 873d 91be
00000170: 2028 12be 2ead 8e3c 02e4 1cbe a017 19bf
00000180: f4f7 993e e31c babe bddc 983d 0908 cebc
00000190: f071 0fbf 5b76 613e 6cd6 2b3f a09f 7fbe
000001a0: aed1 0ebe a875 b7be 2542 3ebe feb3 f8be
000001b0: 62b7 21bf 9dff d4bd e3f0 00be d657 0dbf
000001c0: b8d3 98be aa48 83be e937 44be 2dc6 68bd
000001d0: 321f c7be e181 58be 51af a7be f602 0abf
000001e0: 3fc3 abbd 1e2f 99be 93a6 77be d887 88be
000001f0: 8b07 fbbd 16a5 a2bd b77c a1be 6cc0 04be
-0.3908292 -0.44859004 -0.513509 -0.33000252 -0.14961714 -0.36804163 0.008245119 -0.6616781
-0.75139284 -0.20353009 -0.33722857 -0.49483052 -0.15239923 0.0359248 -0.15399191 0.4932337
-0.05043228 -0.10755147 -0.45253867 -0.32841048 -0.6641641 -0.029374974 -0.1877745 -0.52609783
-0.32604042 -0.178351 -0.14257915 -0.22935776 -0.19579965 -0.26784185 -0.18821266 0.6668546
-0.24744932 -0.35865468 -0.13326913 -0.30599645 -0.111722276 0.3556774 -0.23201677 -0.09155635
-0.40973777 -0.6326228 -0.2364012 0.077651195 -0.1456198 -0.305494 -0.12845472 -0.24615812
-0.16577105 -0.21751495 -0.15676326 -0.105881974 -1.127592 -0.34307048 -0.20814012 -0.3277967
-0.6032981 -1.1071128 -0.12831499 -0.081607826 -0.21940301 -0.2508771 -0.3188842 0.026673121
-0.18447405 0.07832457 6.988938 -0.4017106 -0.14089213 -0.09176239 -0.025110254 -0.1335142
0.20888485 0.8245462 -0.13313822 -0.31900805 -0.2544891 -0.19521925 -0.20693658 -0.26248935
-0.26792774 -0.12441261 0.39429218 -0.36264923 -0.07899562 -1.3559692 -0.12941365 -0.35735482
-0.31803498 -0.4325974 -0.27878708 -0.28367254 -0.14273119 0.017416563 -0.15321353 -0.59801674
0.30071986 -0.36350164 0.074639775 -0.025150316 -0.5603323 0.22017805 0.67124057 -0.24963236
-0.13947174 -0.35831952 -0.1857992 -0.48574823 -0.63170445 -0.10400317 -0.12591891 -0.5521215
-0.2984903 -0.25641376 -0.19161953 -0.05682962 -0.38890988 -0.21143295 -0.32750943 -0.5391077
-0.083868496 -0.2991876 -0.24184637 -0.2666614 -0.12257298 -0.07941644 -0.31540462 -0.12964028

base.value_head.weight f4 [1, 128]
00000000: 41e1 e03a 151d cebb cf66 843a 5064 9739
00000010: 5fe1 ad39 da14 c8bd 5cb0 32b8 1df6 8f39
00000020: 872f 263a 4de8 cb3b f5f6 7fba 0e0a 1fba
00000030: 0be7 3eb9 b020 163b a07a bf3c c87c 8739
00000040: 4959 e4bb c41b ea3b 0097 8f3a 494e 123a
00000050: 18b2 85ba b69d d1b9 4aa5 1d3b 81e5 6e3a
00000060: 59cc ff3a f1d9 2339 6100 adbb 3661 933a
00000070: bb44 7f3b 2101 4b3a 08f3 6b3a a772 41bb
00000080: 4448 c1b9 ea49 1fb9 9fa4 123a f545 f739
00000090: 8a18 e2ba 1612 243a 8b96 c03a ce0f c6ba
000000a0: 85a5 d338 db60 0f3a 7d97 063c 2867 3d3b
000000b0: 22ab a83b 9e6a ce39 7371 a8b9 8cf4 523c
000000c0: b72b 1f38 3be7 a53b fdd5 153b 3bce 263a
000000d0: 8419 b33a f0b1 7539 56b7 243a e907 2e3d
000000e0: c349 27ba 62d0 753a 33ba 9d3a 1b6a f6b9
000000f0: 8c9a a03d f128 65bb 4725 3f3a e462 f4b8
00000100: b926 ecb8 dbdd 553a bc3d a9bd aac6 5dbb
00000110: 0d82 1bbc 9316 e6b8 2a89 0439 1c05 943b
00000120: 1274 b03c 7d19 d337 9c7f 83ba 3481 1e39
00000130: 1b61 25bc b902 443a b756 553c 861d f83b
00000140: b46c 543b 8e90 a33a 94ed b339 5c60 1cba
00000150: a8a7 913c 1a2d b33a aaeb efb9 e901 c73a
00000160: 5f99 1c3c 45b0 d63a 52d4 e9b9 dd8a d13a
00000170: 1a33 81be e56a f53a 66d6 81b9 2e2b 1239
00000180: 001f d138 33da a339 91dd 0d39 75ca 0c3b
00000190: 6475 063d 2807 fe39 f39a c7bb 0994 413b
000001a0: 6cbb 73bc 5e6c 2b3c 78a4 b1ba 7a6e 403b
000001b0: 1448 6139 e347 fc3a 5813 0f3a d459 5ab9
000001c0: 43d1 0f3b 2186 8aba 1d54 b03a 7915 8b3b
000001d0: e30f 3c3a a986 d43a 0f69 ee39 b8f2 1dba
000001e0: f0ac 0d3c 5cc9 ff3a b1fb 5b3a dbc1 c6b9
000001f0: 77f4 003b a4c9 d13a 349d 9fba 5f84 cc3a
0.0017156975 -0.006290088 0.001010144 0.00028875703 0.00033165046 -0.09769602 -4.2602755e-05 0.00027458454
0.00063394796 0.006222761 -0.00097642775 -0.0006066867 -0.00018205882 0.0022907667 0.023373902 0.00025842176
-0.0069686514 0.007144423 0.0010955036 0.00055811234 -0.0010200171 -0.0003998109 0.0024054819 0.0009113178
0.0019515856 0.00015626081 -0.005279586 0.0011244181 0.0038950879 0.00077440037 0.0009000753 -0.00295178
-0.0003686567 -0.00015190957 0.00055939885 0.00047163633 -0.0017249745 0.00062587985 0.0014693303 -0.0015110911
0.000100920945 0.00054694497 0.008214829 0.0028900597 0.0051473537 0.00039370818 -0.00032127983 0.012875687
3.7949267e-05 0.005062965 0.0022863143 0.0006363128 0.001366422 0.00023431308 0.00062834227 0.042488012
-0.0006381536 0.000937706 0.0012033641 -0.0004699983 0.078419775 -0.003496703 0.00072916265 -0.000116532465
-0.000112605696 0.0008158364 -0.08263728 -0.0033840337 -0.009491456 -0.000109714594 0.00012639599 0.0045172106
0.021539722 2.5165029e-05 -0.0010032537 0.00015116186 -0.0100939525 0.00074772123 0.013021163 0.007571879
0.0032413425 0.0012478994 0.0003431855 -0.00059652864 0.01778014 0.0013670058 -0.00045761216 0.0015183064
0.009558051 0.0016379437 -0.00044599414 0.0015986819 -0.252343 0.0018723874 -0.00024764537 0.0001393973
9.971671e-05 0.00031252354 0.00013529348 0.0021482978 0.032826796 0.00048451987 -0.0060914694 0.0029537699
-0.014876228 0.0104628485 -0.0013553044 0.0029362724 0.00021484523 0.0019247498 0.00054578995 -0.00020823564
0.0021944798 -0.0010568538 0.0013452802 0.004244503 0.0007173998 0.0016214448 0.00045473172 -0.00060252426
0.008647189 0.0019514966 0.0008391692 -0.00037909937 0.0019676962 0.0016005528 -0.0012177587 0.0015603415

base.policy_head.weight f4 [128, 128]
00000000: cdc1 84bc e37b 39bb 928e 78bb ee5f 2fbb
00000010: 5d5b 743c 65b7 55be aa52 9c39 69b5 b7bb
00000020: 9149 cdbb 9168 19bc 2f9c 7d3a 7c64 2e3c
00000030: 738c f9ba ce37 33bd 127d e3bc 5073 7dbb
00000040: fdc8 ab3c 967e f63c 1fd5 29bc de04 143b
00000050: 32ed c0bb 6e2d 0b3c bc8a 80bd 45f7 ba3b
00000060: 872e c83b ffcb 28bb bfed e63c ef2f 293d
00000070: a711 c6ba 24c0 c7bb bba0 55bc 541c 4f3b
00000080: c10c 0a3b 5c72 68bd db6a 213b 01d1 683b
00000090: 53d5 9fbc 5e9e 563b efa0 1fbc 87e4 f0bc
000000a0: f6c7 a9bc 317d 52ba 70f4 97bd 7eea e23b
000000b0: f0f0 0c3e 6757 613b c0d7 e8b9 cbe0 35bd
000000c0: 7f2a 463d 011d 28bd 5df7 d83c 8d2d 4a3b
000000d0: 7d91 4839 e589 5738 d40f 2ebb a7ec 25bd
000000e0: 272b 0c3c e53d a43b 0506 053c 052b 9abc
000000f0: 7bf3 5abd 3da6 b33c 8ed5 00bd ef68 823c
00000100: c9f0 13b7 060e b63a 1d40 9cbc aeea fe3d
00000110: 1ed4 f93c 3ae4 fdbb 117b 0dbb e18a 513b
00000120: 8155 e53b c38e d3bb 0160 283d c6ad 883b
00000130: 2024 653b de89 3c3c 1536 c03c b17b 153c
00000140: 7625 30bc 47b9 16bc f990 84bb 43af 12be
00000150: 35ae dd3c 1375 15bc 35a5 5fbd 44bf 3a3c
00000160: 96da c33c 8c80 753d 22ba 6fbc 0968 8abb
00000170: bde1 bbbd de80 d439 52f0 7f3c a9e7 61bb
00000180: 466b 18b8 1b92 4ebb c11a d9bb 4e5c 61bc
00000190: e4e6 a33d d12f 683b 6125 0a3b 1a15 eebc
000001a0: bf9b babc 508a c4bc ef14 563e 2a51 babb
000001b0: 9446 1cbb 69eb 373c 2d69 90bb 0086 5f3c
000001c0: ef62 e4bd 0f68 a63c c567 a4bc bccf 453e
000001d0: f307 1439 7325 7b3c dbb1 113c a164 b1bc
000001e0: a978 153c 85d0 f3bc 8c36 b0bb 110b 06ba
000001f0: 5220 1fbd 7a31 aa3c a30b 77bc 7d4c 443c
00000200: c71b a1bb 3e59 8b3b 8334 16bc 5c3d 33bc
00000210: 9740 bf39 5546 a4bc 7610 7aba 803b 033a
00000220: 2d41 1dbb e30b b8bc 827d 053b dce8 a2b9
00000230: 8f3c 153a 9f1d 9cbc ede2 aeba d45d 91b9
00000240: 0aaa b8bb 9ee7 b63b e493 33bb 0e6b ce3b
00000250: f81e 0fbb f949 e1bb d40f e73c 5bb9 183b
00000260: 4d41 26bb 023d b1bb b56b 8fbc 16b0 5bba
00000270: a716 3a3c d8cc 3f3c 5b91 ef3b fdb2 d63b
00000280: 6b78 d03a f150 94bc 30ab 2dbb be7b 0fba
00000290: bb7e 943c 0246 66bb 8365 a23b 1f64 8b3b
000002a0: fc59 99bc 6e4f d9bb 5118 843d 15ed 35bc
000002b0: 10b9 693c c8b7 563b 2baa 11bb 569c eb39
000002c0: 0f19 80bb b94f 49bb 6fc8 fe3b 8f8b c439
000002d0: 7243 483c e4d3 9a3a f1bf 693a fb2a 16bd
000002e0: 2c53 753c 2442 6dbb 8210 113c 2968 503c
000002f0: 622f ea3d d17d 61bc f6dd d1bb a318 b23b
00000300: e2d0 88ba 97eb 033b 9f67 ac3c 889c 65bd
00000310: 2f28 1e3c 0b70 483c dde4 41bb 7c07 083d
00000320: a1cf 67bc 9522 773b 5012 263c 3cfd 143b
00000330: 7a86 203b f2ad 2abc 734c fcba 26eb 943c
00000340: 685c 59bc 0b58 603c 8d9d 693b 4ea9 bb3c
00000350: d2a2 88bc e3f8 b43b 4464 cbbc ed23 b7bb
00000360: 72c8 963b 24da 323b 20be a63b 0d36 8cbb
00000370: 34fd 53bd df6b 67ba 3b32 e0bb de54 4abb
00000380: b9bf a93b d5e7 303b 4f3c 90bb 496b 82bb
00000390: 4518 a83c c2f7 af3a e6ba fc3a eae0 cd3b
000003a0: faf3 35bd 2696 133a cef6 aabc 24b3 c43a
000003b0: 2720 3aba af09 d43c 56a0 dd3c 19f0 dfbb
000003c0: 285b 9bbb 7170 1c3c f89b 5b3d 1eed b13d
000003d0: 593a 31bc 49a7 14bc 3797 be3a 250b 0a3c
000003e0: 595f e33c d254 b4bb 69a2 b537 5e2f 113b
000003f0: c537 47be cb11 2ebc 0f03 41bc 03e4 783b
-0.016205693 -0.0028302602 -0.0037926775 -0.002676006 0.014914361 -0.2087074 0.00029816228 -0.0056063426
-0.0062648733 -0.0093633095 0.0009674457 0.0106440745 -0.001903905 -0.04375439 -0.0277696 -0.0038673468
0.020969862 0.030089658 -0.010365753 0.002258591 -0.005887651 0.008494718 -0.062764615 0.0057057464
0.006109062 -0.0025756357 0.028189538 0.04130548 -0.0015111462 -0.006095903 -0.013038809 0.0031602578
0.002106473 -0.056749687 0.0024630341 0.0035524967 -0.0195109 0.0032748203 -0.009742959 -0.029405845
-0.020725232 -0.0008029519 -0.0741967 0.0069249263 0.13763785 0.0034384371 -0.00044411235 -0.044403832
0.04838037 -0.041043285 0.02648514 0.0030849904 0.00019127685 5.138842e-05 -0.0026559727 -0.040508892
0.00855521 0.005012261 0.008119111 -0.018819341 -0.053454857 0.021929855 -0.03145366 0.015919177
-8.817945e-06 0.0013889677 -0.01907354 0.12447105 0.030496653 -0.007748154 -0.0021588246 0.0031973647
0.0069987183 -0.0064562275 0.04110718 0.004171106 0.003496416 0.0115074795 0.023463288 0.009123729
-0.010751119 -0.009199447 -0.0040456024 -0.1432467 0.027060607 -0.009122151 -0.054600913 0.01139814
0.02390794 0.059937045 -0.01463178 -0.0042238277 -0.091739155 0.00040531805 0.015621262 -0.0034470356
-3.633953e-05 -0.003152019 -0.006625504 -0.013754917 0.08003023 0.0035428891 0.0021079408 -0.029062796
-0.022779344 -0.023991734 0.20906423 -0.005685945 -0.0023845779 0.01122556 -0.004407069 0.013642788
-0.111516826 0.02031329 -0.020069012 0.19317526 0.00014117341 0.015328753 0.008892502 -0.021654429
0.009123006 -0.029762516 -0.0053775962 -0.00051133434 -0.038849182 0.020775545 -0.015078458 0.011981127
-0.0049166414 0.004252582 -0.009167793 -0.010939922 0.00036478482 -0.020053068 -0.0009539196 0.00050061196
-0.0023995147 -0.022466606 0.0020368998 -0.00031072542 0.0005692923 -0.019057093 -0.0013342776 -0.00027726463
-0.0056355046 0.00558181 -0.0027401382 0.006299383 -0.0021838527 -0.0068752733 0.02820579 0.002330384
-0.0025368512 -0.005408884 -0.017507413 -0.0008380426 0.01135794 0.011706553 0.007311029 0.006552099
0.0015905028 -0.018105002 -0.002649974 -0.0005473456 0.018126836 -0.0035136943 0.004955949 0.0042538787
-0.018719666 -0.006631783 0.064499505 -0.011103888 0.014265314 0.003276335 -0.0022226672 0.00044939172
-0.003909237 -0.0030717684 0.0077753584 0.00037488012 0.012223111 0.0011812416 0.0008916846 -0.036662083
0.014973443 -0.0036202753 0.008854033 0.012720146 0.11434819 -0.013762907 -0.0064046336 0.005435066
-0.0010438228 0.0020129436 0.021045504 -0.056057483 0.009653135 0.012233744 -0.0029585876 0.033210263
-0.014148624 0.0037709821 0.010136202 0.0022733947 0.0024494217 -0.010417448 -0.0019248858 0.018178534
-0.01326666 0.013692866 0.0035646886 0.02290788 -0.016679201 0.0055228337 -0.024828084 -0.0055889995
0.0046015317 0.0027290666 0.0050885826 -0.0042789043 -0.051755145 -0.0008828025 -0.0068419254 -0.0030873339
0.005180326 0.0026993651 -0.0044017206 -0.0039800745 0.020519385 0.0013425278 0.0019281774 0.0062829154
-0.044422127 0.0005629979 -0.020869639 0.0015007001 -0.0007100128 0.025883524 0.027053993 -0.006834042
-0.0047410913 0.0095482925 0.05361554 0.08687805 -0.010817134 -0.009073087 0.0014540915 0.008425509
0.027755426 -0.0055032754 2.165251e-05 0.0022153477 -0.19454868 -0.010624359 -0.011780514 0.0037977702

base.policy_head.bias f4 [128]
00000000: 50da fdbd 82c7 62bd 2b83 0d3e 14a9 0c3c
00000010: 3763 8a3c 478b ed3c 34ea afbc 6e19 81bd
00000020: 38cc 3fbb 011d 82bd 5879 edbd 1102 013e
00000030: f504 1cbd ddbb a6bd db29 173d b8aa 6a3c
00000040: 02f5 783c be33 913d 06f9 333c e759 c53c
00000050: 84ac cc3d 69b1 f93c e8a9 5e3b fadf a3bd
00000060: e406 54bc 0d64 c33d c8ff 54bb c5e5 6dbd
00000070: 2da7 d0bd 5922 bc3c bfb4 223c d8ae 993d
00000080: 339f 62bd d008 003d 6237 e13c b861 c7bc
00000090: 9de5 f83d 13d4 6dbd 8140 55bc 7d29 81bd
000000a0: 865d 06bd c145 1f3d 2c19 c3bd 86a9 09bc
000000b0: 4165 cd3b 4e7b dfbe 34b1 ec3c 72b2 15bd
000000c0: 4ed6 30bd 977b cb3b 89f0 233e e590 0a3c
000000d0: 1a33 17bb 7726 ac3d 5d0e e13d 33ae 4e3c
000000e0: f55c 113e a5e1 0dbe 1c6d b43c 8be7 c23d
000000f0: 17a1 aabc d18d 03be c6c7 babb 6363 f4bd
00000100: 439e f73c 7c41 3cbc 310f b43c cc3e fd3b
00000110: 4bb2 f13d e3d9 1cbd 3c3a ad3d b9a2 d43d
00000120: 1e8d 453d 71cf 76ba 53f7 b2bd d807 06be
00000130: eb8d 83bd 2438 0bbb a409 6bbc 5396 2dbc
00000140: b599 053c 3300 1cbd 22d7 df3c 2b4e 403e
00000150: 9a8f 06bd b360 2e3e cd24 033d 86ec 07bb
00000160: 5c42 65bd 2fdf d23d ecc7 f63d 5032 88be
00000170: 34ec 2dbe 1598 63bd 3964 593d 26f4 ecbc
00000180: 3fe5 f0bd b536 a3bd 16c8 0e3b e7b8 6cbd
00000190: 11ef af3d f69a 5ebe ca07 633d f759 c5ba
000001a0: afad 31bd 9f26 1abd 68f6 91bd d33b 6e3c
000001b0: 9c08 963d f9f8 a73c d756 043c 591b 1d3e
000001c0: f4e4 1ebd 04e3 cebd eaf8 c7bd be9f e1bb
000001d0: 7374 80bc f868 b23c 8315 82bd afc4 d8bc
000001e0: 941f 94bd 31cc 37bd d831 01be 5c29 3b3e
000001f0: 4922 2cbd c35c 5ebd 28ce 873d ceb4 8abd
-0.123951554 -0.055366047 0.13819568 0.008585233 0.016893012 0.028997077 -0.021473981 -0.063036785
-0.002926601 -0.06353188 -0.1159541 0.12598445 -0.038090665 -0.08141301 0.03690515 0.014322929
0.015195133 0.07089947 0.010984665 0.02409072 0.09993842 0.030480104 0.0033975784 -0.080017045
-0.012941096 0.095405675 -0.003250109 -0.058080453 -0.10188136 0.022965597 0.009930789 0.07504052
-0.055327605 0.031258404 0.027492229 -0.024338588 0.1215317 -0.058063578 -0.013015867 -0.063067414
-0.032804035 0.038884882 -0.095262855 -0.008402234 0.006268174 -0.43648762 0.02889309 -0.03654713
-0.043173127 0.0062098014 0.16009726 0.008457397 -0.002307123 0.08405774 0.10989068 0.0126147745
0.14195617 -0.13855608 0.022024684 0.095168196 -0.020828767 -0.12847067 -0.0057000844 -0.11933019
0.030226832 -0.011490222 0.0219799 0.0077284332 0.11801585 -0.03829373 0.08458373 0.103825994
0.048230283 -0.00094150665 -0.087385796 -0.1308893 -0.06423553 -0.002124318 -0.01434556 -0.010594922
0.008154322 -0.038086127 0.027324263 0.18779819 -0.032851793 0.17029075 0.032017518 -0.0020740344
-0.05597149 0.10296475 0.12049851 -0.26600885 -0.16984636 -0.05556496 0.053074095 -0.028925013
-0.11762475 -0.07969419 0.002178674 -0.057793524 0.0859052 -0.217388 0.05542735 -0.0015056719
-0.04337853 -0.03763449 -0.071270764 0.01454063 0.07325861 0.020504462 0.008077345 0.15342464
-0.038792565 -0.101018935 -0.097642735 -0.006885498 -0.015680527 0.021778569 -0.06351759 -0.026460974
-0.072325855 -0.044872466 -0.1261667 0.18277496 -0.042024884 -0.054287683 0.06631118 -0.06772767

dist.linear.weight f4 [4, 128]
00000000: c953 5aba 5704 813b 82cc acbb 3ff4 803a
00000010: 3766 abbb f8bf 8dbc b9e4 d43a c92b 5c3b
00000020: c761 ca3a 7888 ef3a f79b 0cbb 50fa 8a3b
00000030: 0cf8 803b e560 02bb a950 2cbc 1303 24bb
00000040: eaf1 59bd c6a8 063c 82bf 0eba 0a52 a1bb
00000050: 433b 07bb ea63 09bb 9130 3fbb cc1e aabb
00000060: 047c aa3a 3370 ae3a 886f aebb 5cc4 72bb
00000070: da50 85ba 9d6d 75bb 313d 97b9 2696 1b3b
00000080: 7b83 553b 04d9 4a3b 26a3 a93a 451e 46bb
00000090: a89b 9e3b f373 5eba f2c1 043c 429b 6bbb
000000a0: 5e2b a73b 3342 10ba 9fc0 08bb b5b8 173b
000000b0: 9e62 65bb 7baf d13d 8b6f a53a 4b9a 99bb
000000c0: c654 80bc 54bb d13a 3789 adbb 6d18 ab3b
000000d0: 83cf b53b 40a5 043c 8f0b 08bc 9f97 40bb
000000e0: 0fbc 8cba 5790 b73a d02b e83a debc f1b9
000000f0: 236a 1aba 0673 313a 87f1 83bb ff8c dfbb
00000100: 30d3 70ba b975 163b 3916 b73a 5bdc e0ba
00000110: 34ed 99bb 9493 2fbb ec20 4fbb b6b0 083a
00000120: 4c96 99b6 b877 1d3c 711e e439 4385 b73b
00000130: 1ba6 87ba 65cf 3dbc c9cd dcba 9807 dc39
00000140: 36f2 ce3b 9936 443c fb8e 5bbb 0d33 c2b9
00000150: 82b0 ab3b f749 eeb8 4d47 933a 303f 1c3c
00000160: 649e 2338 5fde ea3a c35b 8f3a 0909 933d
00000170: 34c7 75bb f042 fdba 4aa3 34bb 15bc b9bb
00000180: e326 9c3b c7d7 39ba adcd 5938 0bf7 56bb
00000190: 2200 f83b 5aec efba 7bfd d7ba 9988 af3b
000001a0: 5f41 743c 51b0 913a 10bd 6dbb be13 3cbb
000001b0: f50d c33b 86a9 7e3b a6b2 39bb 45c4 a83b
000001c0: cbc0 0fbb 6e35 9fbb c660 26bb 9186 23bc
000001d0: e9b8 4abb 8950 0d3b e7c8 db3b d025 adba
000001e0: 838e b4b9 c423 b03a d701 ceb9 dc4f 98ba
000001f0: ac8a 983b caf0 4cba 1702 843a a6fa d5ba
00000200: 1bb0 16b9 8a2f 8d3b f0b4 a2bb da2c 19bb
00000210: 3659 8abb 00d3 8dbc a968 ea3a ac2e 27bb
00000220: 3a9e db3a 82f5 53b9 7441 1c37 0977 e93a
00000230: 64c2 873b e4d8 1cbb 43d0 12bc ca1e 02ba
00000240: 2f1c 2bbd 0f97 3c3c 0438 e4ba f77e d9bb
00000250: 7965 3039 757a abb9 cc26 9ebb 42b2 9bbb
00000260: 00d7 9c38 9546 5a3a 3b9b 75ba bee5 0fbb
00000270: e088 1f3b 5668 78bb 7df1 f3ba 0260 5039
00000280: e2ec 6b3a 5117 143b 3eed 4438 d6a7 24bb
00000290: 98f1 4f3b af9e a03a cca1 f83b 1cfb 01ba
000002a0: 0bb2 a63b 78af 1bb9 6be6 0dbb e514 0f3b
000002b0: 7359 023b 00d8 fdbd 10b4 05ba 7b97 44bb
000002c0: 369b 65bc 8d4d 533b 5f1a 81bb 53a6 d43b
000002d0: 17b0 923b 336b eb3b e48c 33bc 3113 fab9
000002e0: 3c73 cb39 c931 a23b 1e72 c2ba be2f 07bb
000002f0: de62 06ba 7a9a d339 a995 96bb 509c 5dba
00000300: 397d 403a 458c 2b3b 47e7 92b9 9f55 6db9
00000310: 4a41 77bb b28f f7ba 9ca6 bc39 0824 c5ba
00000320: 379c 6cbb 5e28 3a3c 2ac6 07bb 1dbd c53b
00000330: 639a 61bb a38e 27bc f89e 7439 5b09 cfb9
00000340: cfed 3b3b c9b8 353c d7ae 4739 62ba 8eba
00000350: 40f8 233b b193 17bb 675d e33b d622 4b3c
00000360: 6852 f038 dfcc c5ba a4ca 563b 08ae f63c
00000370: c968 02bb 38f6 50b9 81de 133b 00d8 adbb
00000380: 4c96 843b b128 71ba 1ece 41ba 1528 e5ba
00000390: c49a d13b dd81 faba 7e0c 1abb 7f82 9aba
000003a0: 0137 cc3c a02b 3e3b 9431 a5bb 73a6 8abb
000003b0: fdd5 223b fa9d 503b 33c6 b4bb 783b 163b
000003c0: 2bea 143a 3608 3ebb 2a46 24bb e662 febb
000003d0: 740f afba 333b 473b 13df c43b 9d8b 25b7
000003e0: f520 bdba d9e5 baba b9f3 e43a 7405 fe3a
000003f0: 6e27 3c3b c6c9 883a 3901 c03a 8321 9eba
-0.0008328525 0.003937285 -0.0052734027 0.0009838416 -0.005230691 -0.017303452 0.0016242481 0.0033595434
0.0015440517 0.0018274924 -0.0021455267 0.0042412654 0.0039358195 -0.001989418 -0.010517278 -0.0025026246
-0.053209223 0.00821895 -0.0005445407 -0.00492311 -0.0020634688 -0.0020964094 -0.0029173235 -0.0051916596
0.001300693 0.0013308584 -0.005323354 -0.003704331 -0.001017119 -0.0037449368 -0.00028846556 0.0023740618
0.003257959 0.0030952105 0.0012942299 -0.0030230444 0.004840333 -0.0008485906 0.008102881 -0.0035950695
0.0051016053 -0.00055030285 -0.0020866764 0.0023150865 -0.0035001407 0.10238548 0.0012621743 -0.0046875826
-0.015665423 0.0016001263 -0.0052958983 0.0052214176 0.005548419 0.008096039 -0.008303537 -0.0029387248
-0.0010737198 0.0014004809 0.0017713252 -0.0004610782 -0.00058904494 0.0006769154 -0.004026595 -0.006822228
-0.0009186743 0.0022958352 0.0013968415 -0.0017155515 -0.0046974663 -0.0026790844 -0.0031605316 0.000521432
-4.577252e-06 0.009611063 0.0004351023 0.005600603 -0.0010349186 -0.011585091 -0.0016845997 0.00041967328
0.006315495 0.011975908 -0.003350197 -0.000370406 0.005239547 -0.000113625014 0.0011236459 0.009536549
3.900974e-05 0.0017919055 0.0010937381 0.07179458 -0.0037502768 -0.0019322317 -0.0027563148 -0.005668173
0.004765378 -0.0007089343 5.1928382e-05 -0.0032801058 0.007568375 -0.0018304691 -0.0016478741 0.00535686
0.014908164 0.0011115168 -0.003627602 -0.002869829 0.0059525915 0.0038858368 -0.0028335243 0.0051503503
-0.0021934982 -0.0048586642 -0.0025387271 -0.009980814 -0.003093297 0.0021562895 0.006707299 -0.0013210122
-0.00034438455 0.0013438393 -0.00039292753 -0.001162048 0.004655203 -0.0007817863 0.0010071424 -0.0016325309
-0.00014370719 0.0043086456 -0.004965417 -0.002337268 -0.0042220606 -0.017312527 0.0017883974 -0.0025509996
0.0016755529 -0.00020213987 9.313564e-06 0.0017811964 0.004143046 -0.0023932988 -0.008960786 -0.00049636944
-0.041774925 0.011510625 -0.0017411713 -0.00663745 0.0001682247 -0.000327069 -0.0048264023 -0.0047514746
7.4787065e-05 0.00083265576 -0.00093691394 -0.0021957005 0.0024343058 -0.0037903986 -0.0018611398 0.00019872191
0.0008999837 0.0022596905 4.695099e-05 -0.0025124452 0.0031729694 0.0012254323 0.007587647 -0.00049583777
0.0050871423 -0.00014847319 -0.0021652232 0.0021832522 0.0019889742 -0.12394714 -0.0005100379 -0.0029997516
-0.014014056 0.0032242269 -0.0039399113 0.006489554 0.004476558 0.00718441 -0.010958884 -0.00047698015
0.00038805034 0.0049497825 -0.0014835035 -0.0020627822 -0.00051264267 0.0004036015 -0.0045954776 -0.00084537733
0.00073428784 0.0026176136 -0.00028019605 -0.00022633978 -0.0037728124 -0.0018887429 0.00035982288 -0.0015040645
-0.0036103853 0.011362163 -0.002071748 0.006034507 -0.0034424297 -0.010226878 0.00023328874 -0.00039489087
0.002867568 0.0110914195 0.00019043252 -0.0010889287 0.0025019795 -0.0023128802 0.0069386247 0.012398442
0.00011459441 -0.0015090964 0.0032774592 0.030112281 -0.0019898883 -0.0001992815 0.0022563043 -0.00530529
0.004046237 -0.0009199484 -0.00073930796 -0.0017483259 0.0063966233 -0.0019112189 -0.002350598 -0.0011788158
0.024928572 0.0029017702 -0.0050413106 -0.004231268 0.0024846785 0.0031832443 -0.0055167913 0.002292363
0.00056806457 -0.0028996593 -0.0025066235 -0.0077632545 -0.0013356046 0.0030400276 0.006008038 -9.867273e-06
-0.0014429378 -0.0014259174 0.0017467655 0.0019380287 0.0028710025 0.001043611 0.0014648802 -0.0012064431

dist.linear.bias f4 [4]
00000000: 1d2a e4be ea43 6b3e bd73 fe3c 47e4 4b3e
-0.4456338 0.22975126 0.031061048 0.199113
