model/models/policy_20240516-091324.pth (torch, 234603 bytes, 13 tensors)

base.base.0.weight f4 [32, 18, 3, 3]
00000000: 9300 edbd 3990 a3be 4436 9cbd bdaa 153d
00000010: c81f e1bd dff4 1e3c 2412 0a3c 505b 0dbe
00000020: 3159 dcbe e54f fdbd f0ab 813e e8e0 b43e
00000030: 38ef e9bd 55e6 e43e a475 4b3e 3375 493e
00000040: db58 783f 8441 823f 6e39 1abe 95b2 97bc
00000050: 1a4c e5bd f57e ae3d f2c6 e33d 7d1b 203e
00000060: f5aa 113d 64f5 0bbe 3f4b 923e eff8 3aba
00000070: d107 033c 440b 0bbe 9073 1abf 536f 9dbd
00000080: cdba 3b3d 2728 21bf 9012 d33e 892f c23e
00000090: f200 ae3e e998 5ebd 64ce a33e 65b7 a6be
000000a0: db63 e63e 2202 fabd 078e dbbc 67f8 073e
000000b0: 4aa3 0f3f 629b a0be 96f0 4fbe ad11 393e
000000c0: f396 f5be 9b85 9abe 166c 883e 55ae c4be
000000d0: 53b4 fabe fa8d cc3e 4233 a9be ccca 0c3e
000000e0: 40b4 d03e 1ab2 8f3f f9bd ae3d a1d8 153e
000000f0: 401a 853f 60e8 d3bc 79d4 a43e ad4a 963f
00000100: f060 0c3d 99e4 013f f097 c0be 55fb ddbe
00000110: 007b 39bf 495a 8b3e a854 253f bfc7 d13e
00000120: 4662 9ebe 5510 8b3e a2cc 363e 63ec 36be
00000130: 917e 8d3e f96e 67be 338f 7fbe 40f2 efbd
00000140: c70e 8abe a377 88be d450 1dbe 208e 8e3d
00000150: 7799 cabe 7a27 923d 1645 dc3d 9fdf efbe
00000160: 4cac 1f3e 51a9 96bd 62d8 a3be 1d0b 1bbe
00000170: 9608 313e 70fb a3be b9d2 0abe 63fc d73d
00000180: 5415 dcbe 6f9a 67be 1dd1 aa3e 4a85 e2be
00000190: ed24 eebd d82a cdba 56c6 3bbf ee6b 3fbf
000001a0: 24c5 30be 3adf 08bf 2d87 01bf 9fb2 ad3d
000001b0: e331 5ebd 1597 bcbd ccfb 673e 7537 383e
000001c0: b094 3d3c 749f bf3e f459 3dbc 00ca acbc
000001d0: 8e8c 883e 359d a2bc c861 d3bd 6251 403d
000001e0: 795a cabb f539 7bbb 3ee5 4f3e a234 393d
000001f0: 92b2 533e af7d ca3d eef1 98bd bd04 483e
00000200: 23d4 d23c 66a4 81bc 40f3 ee3c ee0a a23c
00000210: 5b4e b33e 0919 67bd 69cc 593e 7dfe 143e
00000220: 9644 c43d ff4c 1abd 8766 46bd 89ef 65bd
00000230: d4b8 ff3d 1853 c3bd 4638 4b3d fd6f 27be
00000240: c0b3 d7bd 91bb 1e3e 87b4 6d3c c35b a2bd
00000250: 8e7b 143d 3003 6cbd 01ae a73c 2c11 bb3d
00000260: bfcd 9638 4c26 45bf f0ec 1ebe 92c3 1cbf
00000270: 2c29 d5bf fcce 08bf 6e5f 8abf 914d 94be
00000280: fbe2 a23e e05f 52bc e7a0 95bd 5d9d 37be
00000290: 3d7d d9be ae63 a3be deb7 383d 8273 dfbd
000002a0: a8c7 d4bd f3e3 aabd 16ce 19bd fe55 6b3e
000002b0: f240 e2be 7ef1 e2bd 5b3b df3e 9b19 013e
000002c0: 076c 51be 6987 3a3d 08dd f8be 4a76 83be
000002d0: ca5b 2cbe 3f15 343c 60ec 3e3e d6d9 273e
000002e0: 8a3e a33c 8b63 093e 1889 d93e 957b 24bf
000002f0: 224e c3bd 1cb8 f0be d53e 013e b4bd 9abe
00000300: 64ad 4fbd 9869 cdbf f54c 2fbe 46aa 36bf
00000310: 3e64 123e 4fdd 143f fed0 4d3e 676d c83d
00000320: 81c0 a33d 4ebe 8fbf a6a0 f2be a708 023f
00000330: 94c5 19bf 57b6 033f 61e7 343f eb5c 1c3e
00000340: 1a92 35be dd82 f9ba 7a4f cbbd 5973 96be
00000350: f706 f7be 701b 42be 5b2a b63d 3e5e bfbd
00000360: f74a a83f e6ad 0ebe 1469 f83e ec78 b63d
00000370: 33e9 e83f 570e 0fbf 9371 6d3e 50ef e43e
00000380: 8870 cdbf 48fb e4be 354f 91be 59f9 633e
00000390: 2bbc b1be c9b9 1d3e dfbb 78be 2dd8 2ebe
000003a0: e81b 01bd 19c9 233d bf97 093e 50ba 66be
000003b0: 4021 cc3d 8baa cc3c df77 5cbf c8cf 95bd
000003c0: dad5 933d 95f6 21bd 4958 eb3e ec8b 66bf
000003d0: d6c7 913e e364 3d3e df47 f2bd a324 47bf
000003e0: f993 7bbe 54ab d13c 80bd e2be 81e9 8c3e
000003f0: 08af 443e 91c1 953e f10b 5c3d f606 5e3e
-0.11572375 -0.3194597 -0.07627538 0.03653978 -0.1099239 0.0097019365 0.008427177 -0.13804364
-0.43036798 -0.12368754 0.2532649 0.3532784 -0.114225805 0.4470698 0.19869095 0.19673614
0.9701058 1.0176244 -0.1506097 -0.018517772 -0.11196156 0.08520309 0.1112193 0.15635486
0.035563428 -0.13667828 0.28573033 -0.0007132431 0.007997469 -0.13578516 -0.60332584 -0.07687249
0.045832444 -0.6295189 0.412251 0.3792689 0.33985096 -0.054345045 0.319934 -0.32561794
0.4499806 -0.12207438 -0.026801122 0.13278352 0.56108534 -0.31368548 -0.2030662 0.18073149
-0.47966728 -0.30180058 0.26644963 -0.38414255 -0.489657 0.3995207 -0.3304692 0.13749236
0.4076252 1.1226227 0.08532328 0.14633419 1.0398636 -0.025867641 0.32193354 1.1741539
0.034272134 0.5073944 -0.3761592 -0.43355814 -0.7245331 0.2721732 0.645823 0.40972707
-0.30934352 0.27160898 0.17851499 -0.17863612 0.27635625 -0.22600926 -0.2495697 -0.117161274
-0.269644 -0.26653776 -0.15362865 0.06960702 -0.3957021 0.07136436 0.107553646 -0.46850297
0.1559307 -0.07356513 -0.32001024 -0.15140958 0.17288432 -0.3202777 -0.13556947 0.10546186
-0.42985022 -0.22617505 0.33362666 -0.44242316 -0.11628137 -0.0015653027 -0.7334951 -0.7477406
-0.17262703 -0.53465617 -0.50596887 0.08481335 -0.054246794 -0.09208504 0.22654647 0.17989905
0.011571094 0.3742634 -0.011557091 -0.021092415 0.26669735 -0.019850353 -0.10321385 0.046952613
-0.006175336 -0.0038334106 0.20302293 0.04521621 0.20673588 0.098872535 -0.074680194 0.19533058
0.02573592 -0.015825462 0.029168725 0.019780602 0.35020718 -0.05642036 0.21269383 0.14550205
0.09583394 -0.037671085 -0.04843762 -0.05613664 0.12486425 -0.09537333 0.049614213 -0.16351314
-0.105323315 0.15501238 0.014508373 -0.079276584 0.036250643 -0.057620227 0.020468714 0.09134135
7.1908806e-05 -0.7701156 -0.15520072 -0.61235917 -1.665319 -0.53440833 -1.0810373 -0.28965428
0.31813797 -0.012840241 -0.0730608 -0.17931123 -0.42478362 -0.31911987 0.045097224 -0.10910703
-0.10389644 -0.08344259 -0.037550054 0.22982022 -0.44190174 -0.11081217 0.43599972 0.12607424
-0.20451365 0.045539293 -0.48606133 -0.25676185 -0.1683189 0.010991394 0.18644857 0.16391692
0.019927282 0.13416879 0.42487407 -0.6425107 -0.09536387 -0.47015464 0.12621625 -0.30222857
-0.050702468 -1.604785 -0.171192 -0.71353567 0.14296052 0.5815019 0.20099255 0.09786492
0.079957016 -1.1229951 -0.4738819 0.5079445 -0.60067105 0.51450104 0.70665556 0.1526982
-0.17731515 -0.0019036193 -0.09927268 -0.29384878 -0.482475 -0.18955779 0.088947974 -0.09344147
1.3147877 -0.13933524 0.48517668 0.08909783 1.8196167 -0.55881256 0.23187856 0.4471383
-1.6049967 -0.44722962 -0.28380743 0.22263087 -0.34713873 0.15402903 -0.24290417 -0.17074652
-0.031520754 0.039986704 0.13436793 -0.2253201 0.099672794 0.024983665 -0.8612041 -0.07315022
0.07218523 -0.0395418 0.45965794 -0.90057254 0.28472775 0.18495516 -0.118301146 -0.7779028
-0.24568166 0.02559439 -0.44285202 0.275219 0.19207394 0.29249242 0.053722326 0.21682343

base.base.0.bias f4 [32]
00000000: c822 4fbd 607f e7bd 2de2 0cbe d408 c1bd
00000010: bbf9 e2bd dd7a fd3c b248 bebd 2827 8fbe
00000020: 09db 26be 5a4a 92be 7db7 03be 63ac 32be
00000030: d06a 14be cb22 0ebe 1102 bcbe 21e6 4bbe
00000040: af21 52bd 39a9 e7bd 8f27 edbc 4a78 26be
00000050: 60df 0dbe d176 45be cd0a 09be 9ffe 05be
00000060: 205f a9be 3b19 ddbd 6ba2 f8bd 92c9 58be
00000070: 8f5f 29be 0ab2 59bd 2596 95be d837 f7bc
-0.05057028 -0.11303592 -0.13758154 -0.09425512 -0.110827886 0.030942375 -0.09291209 -0.2795956
-0.16294493 -0.2857235 -0.12862964 -0.17448573 -0.1449387 -0.1388046 -0.36720327 -0.19912006
-0.051301654 -0.113115735 -0.028949527 -0.16256824 -0.13854742 -0.19283606 -0.13383026 -0.13085411
-0.33080387 -0.10795828 -0.12140354 -0.21170643 -0.16540359 -0.053148307 -0.29216114 -0.030177996

base.base.2.weight f4 [32, 32, 3, 3]
00000000: 4551 9f3d a344 60be a4f2 70be 4b33 0bbe
00000010: acdb 3fbe b985 6ebd 5660 8d3d e423 61bc
00000020: d731 83bd 4c56 03be 6de6 8bbd bdd1 4bbd
00000030: 7879 bd3e 3611 84be d412 813d f7b7 3a3d
00000040: 0b0f d43e 3f58 8fbd f4ad eb3e 6683 e73c
00000050: 9130 27be e53e 43be d59c 13be 437f 953e
00000060: ffc0 403e ef39 2abf db8d f43d 4a3c 083d
00000070: 96f8 053e 94a5 67bd 80ba a63d 9b16 e9bd
00000080: d4bb fbbd 95ab 153d c709 743e b938 90bd
00000090: 03c7 493e 5d31 e5bc ed55 5bbb a5af f0bb
000000a0: 5031 ba3e 4f18 9bbc 7147 81bd 8641 913c
000000b0: 6dd0 8fbb 93ca 7a3e efed 923e 4a8c 4e3e
000000c0: 57fa 553d ce58 3cbe f98a c4be 5142 3cbe
000000d0: bdc3 f7bd 821f 413d 6605 9dbe e40c 9e3d
000000e0: 349a 4ebd a4ed c03d 96cb 1ebe 4b05 a4be
000000f0: 559c 913c 6306 27be 35e4 cabb ace0 413e
00000100: 43c3 b3bd d7c6 1f3d 3d22 b0bd 0dc3 503e
00000110: 1a6e fdbd 6cb3 30bd 92c3 9bb9 c2d0 e93d
00000120: 9017 ce3e aeb9 36be 47ea 583e 8fce 4e3e
00000130: f631 4cbd f692 bfbe 3620 793e ccc0 7d3e
00000140: 6be7 ffbd 94ac 71be bc80 0c3f 1d9f 49be
00000150: f7fa 65be c8ff bf3d 4479 003e ad1b dcbd
00000160: c75e ddbe b47f 8a3d 19b8 d1bb dd7b a0bd
00000170: 8c27 afbd da3b 3cbd 0bfe 223d 7a4e 7e3d
00000180: d5bc 5f3d d908 0c3d a61b 9c3d b165 953e
00000190: 1d9b 293e cd9d 4f3e 74d1 b3bd 31c1 083e
000001a0: 2389 653d 6f27 0d3e cc8e 623c 49be 073d
000001b0: c051 ea3d b153 82bc ee52 4abe 9c09 b3bc
000001c0: 921b 6bbd 2ac4 413d fa98 823e 2e41 5c3d
000001d0: aef5 d1bd aa57 a53e 5182 1abd 6d8e 36be
000001e0: 4c67 31be 2298 533e 59b8 b83d e3cd 2fbe
000001f0: df8e 08be d5e8 823e 40dd c4bd a64e 0ebd
00000200: 9833 893c 8a3b 7e3d f20b 723d 32c9 d0be
00000210: 3ef3 a9bd e98f a93d 7a8d 8e3e 2158 23be
00000220: a2df 663c ecdd 24bd 010d 073e 81e4 ebbc
00000230: b622 44bd 247e 3b3e 73ee bcbc 231f 213e
00000240: f542 123e f6c6 57bd 413c d8bd c0e1 13bd
00000250: 83de 083d eaea 82be f607 9ebd 6ab1 b43e
00000260: 089c 683d 2f2a 723d 44f7 7d3d 36e2 0abe
00000270: 8527 503e 4b28 013f 5b81 713e d202 61be
00000280: bdf4 c5bc 5a56 d03e 8ee0 08bf a3c8 19be
00000290: 2b59 b43e 3c16 75be 20e6 3d3d 1c33 bcbe
000002a0: ea0d cd3d 8101 483e 1b0f a43e c53d 8fbe
000002b0: e852 b7bd bd00 5cbd 644e e9be 1462 12bf
000002c0: 0387 83be 5c7e 7abe 3587 04bf 5b5c 98be
000002d0: ae3b babc efd4 ccbe eb69 3abe b075 c9be
000002e0: dde5 5cbe 88af 05bf bf67 bebd 30f5 58be
000002f0: 4aa3 8a3d f436 0d3e dd91 1ebd af98 273e
00000300: 8d1f ffbb b0e6 71be 5326 73be d85f eabd
00000310: 99de 3e3e 4151 4d3d ca13 0ebc 93ff febd
00000320: 13f3 93bd d0ca 303e 7f51 b7be 68cf d5be
00000330: fafa 2dbc 8c33 3e3e 1c33 3a3e 1f6a 003c
00000340: c5bf 3f3d 7eec b4bd d68b c43d 7611 6fbe
00000350: 6741 56be 8f96 443e 66d1 73be 6ac1 023d
00000360: e993 01be 8e86 13bf 5ecc 15bf ce86 9cbe
00000370: 586d 83be e54c 66be 0fae c8bd 7ec9 b0bd
00000380: dc84 32be f4aa 25bc 260f 9cbe eb95 98bd
00000390: 14a4 d1be 2c90 b7be 230e 7fbe 44dd 5ebc
000003a0: 2d8f 3dbd b61a bf3d b1ed 223e 178e 933d
000003b0: 56bc 0cbe f1c4 ae3d 2e8c d4bd 6c9b a73c
000003c0: 4b94 223e 637d 623d 9bcb 6ebe f9d5 1f3e
000003d0: 1a76 e0be b144 523e cb3c 8a3e c898 4c3e
000003e0: ceba 9dbe 7336 0d3e 909f 6e3d ba14 c73d
000003f0: 7853 43be 24a7 b63c 94f4 863e e9e8 6ebc
0.07779173 -0.21901183 -0.2353006 -0.13593785 -0.18736142 -0.058232997 0.0690314 -0.013741467
-0.064059906 -0.12825888 -0.068310596 -0.04976057 0.37006736 -0.2579438 0.06302419 0.0455856
0.41417727 -0.069992535 0.46031153 0.028260898 -0.1632712 -0.19066961 -0.14415295 0.29198655
0.18823622 -0.6649465 0.11941119 0.03326062 0.1308311 -0.056554392 0.08141041 -0.11381265
-0.12291685 0.036540587 0.23831855 -0.07042069 0.19704823 -0.02797764 -0.0033467964 -0.007345157
0.36365747 -0.01893249 -0.063124545 0.01773144 -0.00438886 0.24491338 0.28697154 0.20170704
0.052240696 -0.18393251 -0.38387278 -0.18384673 -0.12097881 0.04714919 -0.3066818 0.077173024
-0.05044003 0.09420326 -0.1550735 -0.32035288 0.01777474 -0.1631103 -0.006191755 0.18933362
-0.087774776 0.039007988 -0.086002804 0.20386906 -0.12374516 -0.04313986 -0.00029709615 0.114167705
0.40252352 -0.17844269 0.2118312 0.20195983 -0.049852334 -0.3741681 0.24328694 0.24780577
-0.12495311 -0.2360099 0.54883933 -0.19689603 -0.22459017 0.09374958 0.12546259 -0.10747466
-0.43236372 0.06762639 -0.00640012 -0.07836125 -0.08552465 -0.045955516 0.039793056 0.06208656
0.054623444 0.034188125 0.07622461 0.29179147 0.16563077 0.2027504 -0.087801844 0.13354947
0.056038987 0.13784574 0.013827991 0.033140454 0.11441374 -0.015909048 -0.19758198 -0.021855168
-0.05739934 0.047306217 0.25507337 0.053773098 -0.10251938 0.32293445 -0.037721936 -0.17827769
-0.17324561 0.20663503 0.090195365 -0.17168383 -0.13335751 0.25568262 -0.096125126 -0.034742974
0.016748235 0.0620685 0.059093423 -0.407785 -0.08298348 0.08279402 0.27842313 -0.15951587
0.014091404 -0.040250704 0.13188554 -0.028795483 -0.047884665 0.18309838 -0.02306292 0.15734534
0.14283355 -0.05267998 -0.105583675 -0.036103964 0.03341533 -0.2556985 -0.07716362 0.35291606
0.056789428 0.05912226 0.06200339 -0.13562855 0.20327576 0.5045211 0.23584501 -0.21973732
-0.024164552 0.4069088 -0.53467643 -0.15017943 0.3522428 -0.23934263 0.046362042 -0.36757743
0.100124195 0.19531824 0.32042775 -0.27976814 -0.0895136 -0.05371164 -0.4556762 -0.57180905
-0.25688943 -0.24462265 -0.5176881 -0.29757962 -0.022733536 -0.40006205 -0.18204467 -0.393476
-0.21572061 -0.52220964 -0.09297132 -0.21187282 0.06769426 0.13790494 -0.038713325 0.16366838
-0.0077857436 -0.23623157 -0.23745088 -0.11444062 0.18639602 0.050126318 -0.00867171 -0.12451091
-0.07224097 0.17264867 -0.35804364 -0.417598 -0.0106189195 0.18574351 0.18183559 0.007837801
0.046813745 -0.0883417 0.09596984 -0.23346505 -0.20923387 0.19198059 -0.23810348 0.031922735
-0.1265408 -0.5762719 -0.58514965 -0.30571598 -0.2566936 -0.2249027 -0.09798824 -0.086321816
-0.17433494 -0.010111559 -0.30480307 -0.074504696 -0.40945494 -0.35852182 -0.24907736 -0.0136025585
-0.04627912 0.093312666 0.15910985 0.07204836 -0.1374372 0.08533657 -0.103783 0.020459853
0.15876882 0.05529536 -0.23319857 0.15608968 -0.43840104 0.20534016 0.26999506 0.19980156
-0.30806583 0.13790302 0.05825764 0.0972075 -0.1907481 0.022296496 0.26358473 -0.014581897

base.base.2.bias f4 [32]
00000000: 47f3 11bd 01b7 c2bc f047 debb 77b6 2e3e
00000010: 7191 cb3d 1eb0 3ebe 4397 83bc dd93 61be
00000020: 4a5b 5bbd 0e14 8b3e 1352 18bc 80da 25be
00000030: b626 34bc 4133 d43e a61b 94bd c21c a83e
00000040: 8cae bb3c f3c7 333c 4164 7f3c 2e5e 663e
00000050: 9cec 93bd 6074 663e 869b 1f3d 5dbd aabd
00000060: 8762 d43e 4c94 753e c366 64be b6bf a4bd
00000070: 67f4 263d f815 b8bb 8cd0 e5bc 4e4a bdbc
-0.035632398 -0.023768904 -0.006783478 0.17061792 0.0993985 -0.18621871 -0.016063338 -0.22029062
-0.053553857 0.27163738 -0.009296912 -0.16196632 -0.0109955575 0.41445354 -0.07231836 0.3283444
0.022910379 0.010972965 0.015587867 0.22496864 -0.07222864 0.22505331 0.038966678 -0.083368994
0.4148142 0.23982352 -0.22304825 -0.080443785 0.040760424 -0.0056178533 -0.028053544 -0.02310672

base.base.4.weight f4 [32, 32, 3, 3]
00000000: 2518 853e b043 f8bd 092d 413d 265a 5e3e
00000010: f021 edbd 8bb4 66be a476 cf3d fca9 dabc
00000020: d252 99bd d60c 773d b11d 5cbe 5360 2abc
00000030: 00ce 6bbc 00a5 21be 4411 d3bd d466 ccbd
00000040: d532 8fbc 548a 21be 9176 b4be c7cd 85be
00000050: 8300 acbc a198 d5bd 222e 97be 679e 373e
00000060: 73c4 24bd a591 bbbe c68a 48be 3572 ddbd
00000070: f2a6 3c3e 8e76 a83e 4c2a 633d abff 3b3e
00000080: 87de 02be d46c ffbd 2419 2ebf df40 bc3d
00000090: dbf1 11bd a4fe 92bd d569 4bbd 3d4a 20be
000000a0: 6fae 8b3d 0446 40be f237 b63c b7d9 57be
000000b0: ec57 ebbe 45f1 30be 87a1 d5bd e4e9 fa3d
000000c0: e642 96be 86e7 86be d2e6 5abd f928 f0be
000000d0: 7a2c b1bd 32ad 51bd 675c 5bbd d293 4f3e
000000e0: 77c6 63be 231a d53c 3458 a83e 856b 6c3e
000000f0: 8372 f9bd 0b38 ae3e ae2f 23be de6e 74be
00000100: ae6b 81be 1ad1 adbe c508 0d3e 37b0 db3d
00000110: f4ea a8bd bb0f a9be faf8 963d 0feb b7bd
00000120: 22fc a0be d1c8 bdbe 8f91 3cbe 8064 5abe
00000130: 7ef3 dbbe f6d4 f73d cf08 89be 8e19 71be
00000140: 70d7 b13d 3afd 48bd 7808 bcbe ee4a 5a3e
00000150: aa5a 58bd 541b 43be 8d1c 91be 80f0 9cbe
00000160: 8f08 063d 21ea cbbe 2d69 edbd 7196 77be
00000170: 431a 3f3e 4a7d c83e 3456 2e3e bf4a 833d
00000180: 302b 1f3e 63de fb3c d5cf 5fbe 19c6 8ebe
00000190: 22f3 a23c 2849 f5bc 45ea e23e a430 37bf
000001a0: 0933 7f3e a4cf 02bd 5b13 073e c36c eabd
000001b0: bc6c 68be 9958 d83d a5e4 f6be 21d7 c3be
000001c0: 12d3 a73d 1db3 a83d 6f13 90be 4e3c ec3d
000001d0: 88a4 023e d2e7 493e ac89 48bf a535 a53e
000001e0: 017a 57bf 4768 01bf 1164 36be 4c30 dbbc
000001f0: ad99 d53d b3e0 0f3e ef73 dabc e26b 163d
00000200: e192 eabe acd7 e53d 5b95 fd3a e642 973d
00000210: 017c 9b3d 6eff bd3d 4167 87bc b798 46be
00000220: 763b 453d b281 99be 3ab1 5dbe c669 663e
00000230: 24e8 733d 7f66 58be ee7e 883e 8da8 c83d
00000240: 3e1e aa3e 9703 babd 4b03 5dbf dc2f 19bd
00000250: e6dd 39be 7929 d2be 1c24 863e c51a 87be
00000260: 3d99 babd 75a7 973e e6e4 76be fdb5 9e3c
00000270: 67ce 8fbe ed49 3f3e ea38 86bc 7d1c 51be
00000280: dbca 2e3e cccc 7e3e 1dc7 093e 3bab 743e
00000290: bb50 843d 4cc0 f6be 400f f13c df14 df3d
000002a0: 7757 efbe 7e8a 5cbd fa2c 8cbe d200 2dbd
000002b0: 3ff5 c6be d2d0 dbbd 3792 de3d 1ec8 f6be
000002c0: ed72 43be 3b97 09be cbec 99be 9314 c0be
000002d0: ac21 d03e d304 7b3d e2b0 0cbf 083a 113e
000002e0: 6202 5cbe 936f 09bd 3f63 4cbd ce23 013f
000002f0: 4b61 29be ab9d 08be 8566 78be da66 103e
00000300: 61c2 50bd 0d7b b0be 3bc5 4cbf a2c3 87ba
00000310: 86b8 983c f6ee 51be 0379 59be 38ad aa3c
00000320: 18dd cabe 2061 a4be cb72 40be e96d 55be
00000330: b0ad 1bbe 7d66 733c 96a0 803e f7cb 91be
00000340: 73d1 ca3b e6e0 a6be 7ddb d73d 7ae7 683c
00000350: cc11 0bbe ac9d af3d e793 b03e 3bc8 ef3e
00000360: e6a8 a5be cae6 2d3e c897 14be 4b72 23be
00000370: de7b d5bd c7f6 3d3e 4b6f dfbd 0bfb dcbe
00000380: 28db a6bd b309 5fbd 5b01 b5be 5f99 b6be
00000390: f229 b33d 26d9 c53d 1ffe ca3c 151b 803d
000003a0: 2796 6cbe c766 b9be abb0 bf3e b6de 3a3e
000003b0: 39ec 18be f67a 59be 2159 0f3e c3e8 d43e
000003c0: 1908 6dbe 0121 30be 86c0 6bbe b4d9 d6bd
000003d0: 55a3 35be b3f7 cfbc 789c 033e 61ef 89be
000003e0: d9e6 65be 6bee 3bbe e643 82be a60d aa3e
000003f0: dd34 94ba f5ef 973d ac12 5f3d 0405 ccbc
0.25994983 -0.12122285 0.04716209 0.21714076 -0.11578739 -0.22529809 0.10130051 -0.026692383
-0.074865 0.060314976 -0.21495701 -0.010398942 -0.014392376 -0.15785599 -0.103060275 -0.099805504
-0.017480293 -0.15775424 -0.3524671 -0.26133558 -0.020996338 -0.10429502 -0.29527384 0.1793152
-0.04022641 -0.36634555 -0.19584188 -0.10812799 0.1842306 0.3290295 0.05546026 0.18359248
-0.127802 -0.12471929 -0.6800711 0.09192061 -0.035631042 -0.07177475 -0.049661476 -0.1565332
0.0682038 -0.18776709 0.022243474 -0.21079145 -0.45965517 -0.17279537 -0.104311995 0.12251642
-0.29347914 -0.26348513 -0.053442784 -0.4690626 -0.08651061 -0.051190563 -0.05355492 0.20271233
-0.22243677 0.02601344 0.32879794 0.2308789 -0.121800445 0.34027132 -0.15936157 -0.23870417
-0.25277466 -0.33948594 0.13772877 0.1072697 -0.08247939 -0.33019814 0.07371707 -0.08980381
-0.31442362 -0.37067273 -0.18414901 -0.213274 -0.42959207 0.12101166 -0.26764533 -0.23544905
0.086836696 -0.04906962 -0.3672521 0.21317646 -0.05282084 -0.19053394 -0.28342095 -0.30652237
0.032723006 -0.39827064 -0.11592326 -0.24178483 0.18662362 0.39158088 0.17025071 0.06410741
0.15543818 0.03074569 -0.21856625 -0.27885512 0.019891325 -0.02994211 0.44319358 -0.71558595
0.24921812 -0.031936303 0.13190977 -0.11446526 -0.22697729 0.10563774 -0.48221317 -0.38250068
0.08194555 0.08237288 -0.28139827 0.1153494 0.12758076 0.19717339 -0.7833507 0.3226749
-0.8417054 -0.5054974 -0.1781161 -0.026756428 0.10429702 0.1405056 -0.02666661 0.03672398
-0.45815185 0.11222777 0.001934688 0.07385807 0.07592011 0.09277235 -0.016528727 -0.19394194
0.04815241 -0.29981762 -0.21649638 0.22501287 0.05954756 -0.21132849 0.2665934 0.097977735
0.33226198 -0.09082716 -0.8633315 -0.037399158 -0.18151054 -0.41047266 0.26199424 -0.2638761
-0.09111259 0.29619947 -0.24110755 0.019373888 -0.2808716 0.18680544 -0.01638456 -0.20421024
0.1706957 0.24882811 0.13454862 0.23893444 0.064607106 -0.48193586 0.029426217 0.10892653
-0.46746418 -0.053843014 -0.27378064 -0.04223711 -0.38858983 -0.10733189 0.10867732 -0.48199552
-0.1908681 -0.13436596 -0.3006347 -0.37515697 0.4065069 0.061283898 -0.549574 0.14182293
-0.21485284 -0.03355367 -0.049899336 0.5044526 -0.1654102 -0.13341396 -0.24257858 0.14101735
-0.050966624 -0.3446888 -0.7998845 -0.0010357986 0.018642675 -0.20501313 -0.21237569 0.02083455
-0.39621806 -0.3210535 -0.1879379 -0.20842709 -0.15202975 0.014855978 0.25122517 -0.28475925
0.006189519 -0.3259346 0.10539911 0.014215345 -0.13581008 0.085749954 0.3448784 0.4683245
-0.32355422 0.1698257 -0.14511025 -0.15961568 -0.104240164 0.1855117 -0.10909899 -0.4316028
-0.081472695 -0.05445261 -0.35352597 -0.35663888 0.08748235 0.096605584 0.024779378 0.062551655
-0.23104154 -0.36211225 0.37439474 0.1824902 -0.14933862 -0.21238312 0.13998844 0.41583833
-0.2314762 -0.1720009 -0.2302266 -0.10490742 -0.17738087 -0.025386667 0.12852657 -0.26940444
-0.22451343 -0.18352668 -0.25442427 0.33213538 -0.0011307258 0.07418815 0.054461166 -0.024904735

base.base.4.bias f4 [32]
00000000: cb89 6cbe 766b 91be b4ca a7be 1edc 86be
00000010: b7f2 1ebe 0aea acbe 737e 60be e10a 4ebe
00000020: d3e9 0abe eb90 58bd 392f cabe 1153 08be
00000030: 63b2 01bf e97c 06bf f8d8 69be 5356 9f3d
00000040: dac4 c5be d7a8 98be b172 cabe 56da 403d
00000050: 6e8b 80be 7a1b acbe d9a9 bebd 4df7 5f3e
00000060: d27d 70be 25de 75be 2f28 21bd 077c 1fbe
00000070: 42b1 00be 9351 8ebe 1d6c 32bd 1b31 81be
-0.23099439 -0.284023 -0.32771838 -0.2633981 -0.15522276 -0.33772308 -0.21923237 -0.20121337
-0.1356576 -0.05287258 -0.39489153 -0.13312937 -0.5066282 -0.5253435 -0.22836673 0.07780137
-0.38626748 -0.29816315 -0.39540628 0.04708322 -0.25106376 -0.33614713 -0.093097396 0.21871682
-0.23485497 -0.24010523 -0.039344963 -0.15574656 -0.12567618 -0.2779661 -0.043560136 -0.25232777

base.fc1.weight f4 [128, 128]
00000000: b9ae 80bc ca6b 703e f853 253e edfb 593e
00000010: 9a86 2ebd 4066 f5bd eae0 1c3c b2f5 22be
00000020: 74d8 9f3e 2360 14bf 02ff c9bc 73b7 c0be
00000030: c65f 8b3e 31f5 bf3e edc2 13be 62f3 d2bd
00000040: 4757 e8be fc8d c4be c074 24be e60e a33e
00000050: c0c7 25be 85a1 f5bd 5a31 393d 1142 25b9
00000060: 5087 1abf d380 16be 1003 afbc 6e61 0ebe
00000070: 43d1 073e ffc6 64bd bbd8 b43e 69b6 46bf
00000080: a5d9 febd c187 53be 5820 c43e c588 41be
00000090: b8e2 dabe 5f9f 1abf 2901 7bbe adc6 eebe
000000a0: b22f 623d 2444 2ebf b76e 5dbd b8dc 303e
000000b0: 7b64 abbc 4199 31bc 4609 b43e 2218 5e3e
000000c0: ec09 3e3e 7b19 0dbd 9d2d 4bbe 09d1 8ebb
000000d0: c54b c3be 6d21 1bbf fb2b 3abd 0d33 07bf
000000e0: 8895 b23e c053 72be 112d 0bbe 2065 96bd
000000f0: 0b2c 94be 2db8 9fbe c150 46be 53f1 3dbe
00000100: cf7f d43d 2af3 723e 0012 9cbe 3722 05be
00000110: 9096 5ebe a924 9ebd 7325 b0be ed1b 8bbe
00000120: b0e2 c3bd 9cfb 0fbe 6c90 8cbc cc60 483c
00000130: 3ac3 c73e a39e b1bd aef5 1a3e bd57 ecbe
00000140: 9b5a a23e db48 5b3e 1908 46bf 021e d4be
00000150: ed71 423e 0b5a c9bd 0de5 03bf 85ca 83bd
00000160: f175 9f3e 0cba f1bd 2c58 993e ff61 8cbd
00000170: 5d8e 20bf 03bc e23d f52a 97be 0ef4 553d
00000180: 6b15 5b3e 1a4b 5a3d f8eb 14be 6cc9 8a3d
00000190: 00e7 a93e a4c3 c2be 01f4 3e3e d4e3 483d
000001a0: 8417 de3d 3053 343d 6b13 d0be 6f77 9d3d
000001b0: 04f4 a5bc 804a 163e 7e40 c0be e45c 85be
000001c0: 50e9 43bf 24c4 cebc 5686 35bf d94d a9be
000001d0: 48df 833d 5828 1ebe 5ae9 4dbd 6318 cebd
000001e0: e08d 2abc 60a6 40be 9106 993d 3228 c0bd
000001f0: f589 693e 35e3 2b3c 8123 16bc ef96 6abe
00000200: 99ef eebe 6328 b2be f8d5 3abe 243d dbbe
00000210: c6e4 2d3e caab 25be e237 87bc cb91 d2be
00000220: 9d77 7ebe 0cee 37be ba33 87be 9bf3 89be
00000230: 4659 c43e 3091 0cbe a84e c8be 2654 8abe
00000240: 4d1c 303e 3ce6 cd3d ba3b 1c3e 3018 d63d
00000250: 3ae2 1c3d 0ad9 c7bd 1935 2bbd d4c2 6a3e
00000260: e847 6bbd ffa7 29be 1aa2 b23d 356d 6b3e
00000270: 8b4d 1a3d 5b4b 94bd a97f 22be 5cdc 66bf
00000280: 0588 f13d 5d49 25be 2ae4 35be 3596 febe
00000290: 0f7d 00bf bce1 e3be 069d 753c bcb1 07be
000002a0: e80f 64be 8c49 e4bd 3d8d 8cbe 8f64 bebc
000002b0: e301 1a3e 4046 bfbe 98ab 293e 8f3f 73be
000002c0: ab86 073d d508 c9bd 85c7 41be bde8 3dbe
000002d0: 4e1f 42be b187 10bf aacc 1d3e 2c1e d4be
000002e0: 66a8 053d fe5c edbc e8a1 cf3d de25 b5be
000002f0: ff81 31bc 0282 ffbe 0b95 1abe 846d 47be
00000300: 0c86 a6be b33d e4be 66e2 16be ddab 10bd
00000310: 1308 cf3e 9082 60be 8ce4 bbbd c0c9 c3be
00000320: 4c4a efbd 413c abbd 67aa 14bf d1b0 77be
00000330: 229c 9c3e fe8d df3d 99ae 05be 221b 2cbf
00000340: cb4e 26bd bad0 97bd e268 303f a304 733d
00000350: bf2a 8b3e 1977 a1be 4da0 263f 86db f6bd
00000360: 2064 6fbe f2f4 dc3d a725 ed3d ab93 803e
00000370: 0583 28be 3db1 333d 78d2 fb3c 7cf5 853e
00000380: 3cf9 58be 0489 f2bd 11a4 ffbd 316a 2cbd
00000390: e433 8e3e 1d8e 0d3c e138 31be 2b0f d2be
000003a0: e7b6 e23d 7e82 b33d 875d 4abd 5c80 d8bd
000003b0: 0fdb a73e 7288 04bd 10ef debd d66f 05bd
000003c0: eb07 4b3e e5ca a5bd 6e31 d1be b8ea 8cbe
000003d0: 7772 9e3e bd12 b7be 9cab db3e 80d8 debd
000003e0: bf1f fd3c 2548 5fbd 04d0 8dbd 5ffc 0fbe
000003f0: 24f1 6d3e a0e1 8bbe c3f7 123f 3bbb 073d
-0.015708314 0.23478618 0.16145313 0.21287508 -0.042608835 -0.11982393 0.009575108 -0.15914038
0.31219828 -0.57959193 -0.02465773 -0.3763996 0.27221507 0.37491754 -0.14429827 -0.10300328
-0.45379087 -0.38389575 -0.16060162 0.31847304 -0.1618948 -0.11993698 0.04521308 -0.00015760238
-0.6036272 -0.1469758 -0.021363765 -0.13904354 0.13263421 -0.05585384 0.35321602 -0.77622086
-0.12443856 -0.20657255 0.38305926 -0.1889983 -0.42751098 -0.6039943 -0.24512161 -0.46635953
0.055221267 -0.68072724 -0.054060664 0.17271698 -0.020921936 -0.010839761 0.35163325 0.21688893
0.18558472 -0.03444813 -0.19841619 -0.004358415 -0.38143745 -0.6059788 -0.0454521 -0.5281227
0.34879708 -0.2366476 -0.1359141 -0.07343507 -0.28939852 -0.31195202 -0.19366743 -0.18549089
0.1037594 0.23725572 -0.30482483 -0.13001333 -0.21737123 -0.07721836 -0.3440357 -0.27169743
-0.095647216 -0.14060825 -0.01715871 0.012230109 0.39016134 -0.08672836 0.15132782 -0.4616069
0.3170975 0.21414511 -0.77356106 -0.41429144 0.18988772 -0.098316275 -0.5152138 -0.06435112
0.3114467 -0.11803064 0.29950082 -0.06854629 -0.6271723 0.11071017 -0.2952496 0.0522347
0.21394889 0.05329428 -0.1454314 0.067766994 0.33184052 -0.38039887 0.18647768 0.0490454
0.10844329 0.044024646 -0.40639815 0.07688796 -0.020257957 0.14676857 -0.37549204 -0.26047432
-0.7652788 -0.025240012 -0.70908105 -0.33067206 0.06439072 -0.15445077 -0.05027137 -0.10063245
-0.010409802 -0.18813467 0.074719556 -0.09382667 0.22806533 0.010491182 -0.009163738 -0.22909139
-0.46667174 -0.34796438 -0.18245685 -0.42820084 0.16981801 -0.16178814 -0.01650614 -0.41126856
-0.24850316 -0.17961901 -0.26406652 -0.2694367 0.3834936 -0.1372726 -0.3912251 -0.27017325
0.17198296 0.10053679 0.15257159 0.10453832 0.038301684 -0.09758194 -0.041798685 0.22925884
-0.057441622 -0.16567992 0.08722325 0.22990878 0.037671607 -0.072409354 -0.15869011 -0.9017999
0.11793522 -0.16141267 -0.17762819 -0.49723974 -0.50190824 -0.4450816 0.014991051 -0.13251394
-0.22271693 -0.111468405 -0.27451506 -0.02324131 0.15039782 -0.37358284 0.16569364 -0.23754714
0.033087414 -0.09816138 -0.18923767 -0.18545814 -0.18957254 -0.5645705 0.15410104 -0.4142927
0.0326313 -0.028975006 0.10138303 -0.35380453 -0.010834216 -0.49903876 -0.15095918 -0.1947537
-0.32524145 -0.44578323 -0.14734802 -0.03532015 0.40435848 -0.21924806 -0.09174451 -0.3823986
-0.11684093 -0.08361102 -0.58072513 -0.24188544 0.3058787 0.10915755 -0.13054885 -0.672289
-0.040602487 -0.07412858 0.6891004 0.059330594 0.2718105 -0.31536177 0.6508835 -0.120535895
-0.23378038 0.10788907 0.11579447 0.25112662 -0.1645623 0.0438702 0.030740008 0.26163852
-0.21188825 -0.1184254 -0.12482465 -0.04209346 0.27773964 0.0086398395 -0.17306854 -0.41027197
0.11070042 0.08765124 -0.0494056 -0.105713576 0.32784316 -0.032356687 -0.10885441 -0.03257736
0.19827239 -0.0809534 -0.40858024 -0.27522826 0.30946705 -0.35756484 0.42904365 -0.10881138
0.030898927 -0.05451216 -0.069244415 -0.14061116 0.23236519 -0.27320576 0.57409304 0.03313754

base.fc1.bias f4 [128]
00000000: 4cba 81be 70e4 83be f7ce 65be 727b cfbd
00000010: a7f8 22bd 2844 44be 02f4 7f3d a639 a1be
00000020: ae7d 6abe 665e 41bd d090 c7bd 71c5 80be
00000030: 1c7a c4bd eee4 203e 0888 00bd 0a9b 9fbd
00000040: 8b49 1e3c 4285 983c eb22 95be 0a96 1abe
00000050: 1cab 83be e665 4a3c cfb4 0abd 564e 5ebe
00000060: 8af9 2dbe 7612 b4bd c15c 2abd 4f7f d0bd
00000070: c743 b8bd 781f 37be 8b3c 70be ffed 8d3e
00000080: de23 8dbd c7b6 3cbe 1057 19bd ead4 75be
00000090: b0b4 a7bd 3c58 9b3d ca83 2ebd 5d1c 343d
000000a0: 9efa 89be 4c8f 97be bce0 cabd e702 c93c
000000b0: c524 a2bd f881 0dbe b279 4abc 88ae 98bd
000000c0: 990e cabd fd12 93bd 7e41 2cbd 7d69 01be
000000d0: 8fbe babe 7ff8 88be df40 fdbd b1d6 fdbd
000000e0: 83ee 94be 41b5 0bbf 0407 9fbd bac7 f5bd
000000f0: 3508 14be b569 34be bd0c 13be 62b5 d13d
00000100: d945 00bd 1cdd 38bd 43c4 e43f 5ea3 94be
00000110: 4c10 893d 14eb 05bd 91ca 2b3d 21f3 67bc
00000120: 1b11 8d3e ea63 333f 84a5 51bd 81c5 61be
00000130: 88ab 06be 76db 263d 4750 e8bc 26fd 35bd
00000140: 872e 8bbe 5c6c 953d 61ca ca3d ec5c 95be
00000150: f06a 01be f5d0 25bf 8324 9bbd e3ed 4abe
00000160: 6d4e 7bbe 3bb3 72be 7d7f 9fbd ef09 31be
00000170: c54a 66bd c9e3 433e 8fae 86bd 5acf 38be
00000180: 0e40 b13d 4d86 1abf 7896 5e3d 1992 05bd
00000190: bc9c babe f319 2ebe 0ec3 bfbd 125e 1bbd
000001a0: 1682 a1bc d726 4abe 5479 0cbe 5f30 02be
000001b0: 7e87 a5be 06b9 993d f154 73bd 3a19 84be
000001c0: 8046 5ebe 945c 73be 3ac6 17bd c94d 893d
000001d0: 8052 95be f4fc a4bd 8902 3dbe 9aa0 99be
000001e0: 7f4c 563d 82e9 30be 7d5b 43bd f790 b2bd
000001f0: bc3e 0dbd 4bb2 92bd 3038 11be 83d1 c03c
-0.25337446 -0.2576022 -0.22442232 -0.10130967 -0.039787915 -0.19166625 0.062488563 -0.31489295
-0.22899505 -0.047209166 -0.09744418 -0.25150636 -0.09593603 0.1571233 -0.03137973 -0.07793243
0.009661089 0.01861823 -0.29128203 -0.15096298 -0.25716484 0.012353396 -0.03386384 -0.2170957
-0.16989723 -0.08792584 -0.041592363 -0.10180532 -0.089973025 -0.17883098 -0.23460595 0.2772064
-0.06891607 -0.18429099 -0.037436545 -0.24007002 -0.0818876 0.07585189 -0.042606153 0.04397236
-0.26949018 -0.29601514 -0.09906146 0.024537517 -0.079171695 -0.1381911 -0.012358116 -0.07455164
-0.098660655 -0.07181356 -0.042054646 -0.12637897 -0.3647351 -0.26752087 -0.12365889 -0.12394465
-0.2908822 -0.54573447 -0.0776501 -0.120009854 -0.14456256 -0.17618449 -0.14360328 0.10239674
-0.031316612 -0.04513274 1.7872394 -0.2903089 0.066925615 -0.03269489 0.04194123 -0.014157088
0.27552113 0.7007433 -0.05118324 -0.22047998 -0.13151371 0.040736638 -0.028358592 -0.044430874
-0.27183935 0.072960585 0.09901882 -0.29172456 -0.1263845 -0.6477197 -0.075753234 -0.19817309
-0.24541636 -0.23701183 -0.07787988 -0.17288946 -0.05622365 0.19129862 -0.06576263 -0.18047848
0.086547956 -0.60361177 0.054342717 -0.032610033 -0.36447704 -0.17002086 -0.093633756 -0.03793151
-0.01971535 -0.19741379 -0.13718158 -0.12713765 -0.32329935 0.075059935 -0.05940718 -0.25800496
-0.21706581 -0.23765785 -0.037054278 0.067042895 -0.29164505 -0.080560595 -0.18457998 -0.30005342
0.052319046 -0.17276576 -0.047694672 -0.08719056 -0.034483656 -0.07162913 -0.1418159 0.023537403

base.value_head.weight f4 [1, 128]
00000000: 8526 dd3b 5751 833b f61e 973a 0828 ea39
00000010: 5c2c f73b fdae 2fba 29f0 09b9 76fc f33a
00000020: d94d 8b3b 4cef 883a 95f6 503b 69c8 a23b
00000030: 77a6 6c3b 8822 213c 9b15 873a aee8 1a3a
00000040: 8cb1 003b ed8c 3b3c ae6f a93b 8889 f3b9
00000050: 78aa ab3b 0981 603c 57d6 113c 3243 8b3b
00000060: 921d 5a3c cf03 ef3a 0844 923c b92e 003c
00000070: a7a5 1cba c072 233c 78b4 733c 0f13 9dba
00000080: e231 0f3b 2476 32bb face 9a3a 934f aa3a
00000090: b229 3dbc e91d 113b fc1b 6f3a 8fac 1d3a
000000a0: 52ea b13a 6fcf cd3a 450c 98bb 368e 833c
000000b0: 9d99 9e3c 3190 2d3c 165b 233c ed01 da39
000000c0: e35e c9bb dc9c 8bbb 61ce 863c a777 273b
000000d0: 4fcb 4b3a 2ed8 f33c 715d 1d3a c8d5 b23b
000000e0: 8e98 7b3b 48fa 083c 5008 ea39 d1db 9d3c
000000f0: 682e c33b ae1c 143a caff ae3b a456 303c
00000100: 8c6c 893b ff3e a23a b385 cdbd aabb c63c
00000110: 7975 94bb d88f 793b bd79 a239 409e f638
00000120: 1fef 29bb f159 483d ea57 f23b 2200 d9ba
00000130: 0e30 113a 85e4 113b c40c 823c c2d8 96b8
00000140: 36c3 383a e225 123b 7f2f f0ba ffa5 f4bb
00000150: c9de 373c f780 403d 2869 033c 411c ae3b
00000160: 4868 4abb 33da 023c 89f6 c23a 0f99 cfba
00000170: 64ba 8fbd 1f48 f13b f12a 7a3a da76 5f3a
00000180: bfbf 5f3a ac8d 8fbd 8c10 023a ae89 8e3b
00000190: d665 a539 225e f6b9 c63c 07bd 9dec b039
000001a0: e22b f53b f4bb b73b 6758 d3bb a197 8f3b
000001b0: 5505 1c3b ca1f 383b 8884 0e3b e42e 9b3c
000001c0: ce18 d83b 8a7b 453b 4507 303a 6979 f3ba
000001d0: 7c2d 3bbb ef34 333c ef02 143a 908e 3f3b
000001e0: d751 743a b4a4 be39 17f8 e63b 9df9 eeba
000001f0: ae32 3dbc d926 c33b 3fba d83b 7398 0f3c
0.0067489767 0.004007499 0.0011529613 0.00044661784 0.00754313 -0.00067017955 -0.00013154805 0.0018614668
0.0042512235 0.0010447293 0.0031885256 0.0049677384 0.0036109963 0.009834893 0.0010306122 0.0005909306
0.0019637076 0.011447174 0.005170784 -0.0004645104 0.0052388273 0.013702639 0.0089012 0.0042499537
0.013312714 0.0018235388 0.017854705 0.00782364 -0.0005975612 0.009976089 0.01487457 -0.0011983829
0.00218498 -0.0027231062 0.0011810951 0.0012993686 -0.0115455855 0.0022143072 0.00091212965 0.0006014788
0.0013573861 0.0015702079 -0.0046401345 0.016059022 0.019360358 0.01059346 0.009970447 0.00041581635
-0.0061453446 -0.0042606425 0.016455831 0.0025553496 0.0007774131 0.029766168 0.00060029986 0.0054576136
0.003839049 0.008360453 0.0004463815 0.019269856 0.00595646 0.00056500256 0.005340551 0.010762844
0.004193848 0.0012378393 -0.10035267 0.024259407 -0.0045306054 0.0038080122 0.0003098975 0.000117596705
-0.002592988 0.0489139 0.007395734 -0.0016555826 0.0005538472 0.0022261452 0.015875228 -7.192932e-05
0.00070481317 0.0022300412 -0.0018324702 -0.0074660773 0.01122255 0.04699799 0.008020677 0.0053134267
-0.003088491 0.007986593 0.0014874499 -0.0015838462 -0.07017973 0.007363334 0.0009543142 0.0008524485
0.00085353473 -0.07009444 0.0004961572 0.004349909 0.00031547126 -0.0004699091 -0.033016942 0.00033745627
0.007482038 0.0056071226 -0.0064497474 0.0043820892 0.002380689 0.002809512 0.0021746475 0.018943258
0.006594754 0.003013345 0.00067149504 -0.0018575612 -0.0028561046 0.010937913 0.0005646189 0.002922926
0.00093200564 0.00036362337 0.0070486176 -0.001823235 -0.0115477275 0.0059555587 0.006613999 0.008764374

base.policy_head.weight f4 [128, 128]
00000000: ff01 b9bd 0483 bebd 0aab a83b 4c61 38bd
00000010: 5a0f 26bd d950 9fbe 145f 4bbc 0aa5 6abd
00000020: d358 5dbd d239 013e 4fea 62bd 68ad 0ebc
00000030: 48cf 6cbc 6033 3ebc 598e a43c b571 e9bb
00000040: cdf5 c43b 3078 0bbe bbcc a0bc a91f d7bd
00000050: c056 933c 2037 8bbd 03b3 24be 97e4 fb39
00000060: 2cc2 70bd d6d9 5b3c 9379 18bb fa4c 753c
00000070: c1f3 0ebe 5942 4d3d f9e7 40bc de68 8d3b
00000080: 4b01 bfbc 2b3d 033e e716 dcbd 9ab2 d43d
00000090: 14bc bcbd 432b 713c 786d b7bc 898e 32bd
000000a0: d2cf 8abd b04a cabd e152 76bd eb40 7c3d
000000b0: 9f4f 803e ace7 383d 6d73 8a3c c5ba 9dbd
000000c0: ae10 983d 799b fcbd d465 833d 06b5 f0bc
000000d0: 8fb9 acbd 06e7 093d 44dc a43b c534 52bd
000000e0: e623 5a3b 51d7 ed3d 80ef ec3b 85af 10be
000000f0: dd9d cfbd ba41 333e 9ac0 0bbd 03cc 6ebb
00000100: 1017 4abd a837 083c 0d79 863d 544b 0c3e
00000110: 6090 583e 0817 f03b a571 d43c 9f30 a53d
00000120: ffe9 02bd eeb4 08bd 539a 463d b953 c03b
00000130: 6941 53bb 237b afbc 9c47 31bd 93a8 e23d
00000140: f7a3 963d ffb0 d13c 1c0c 293c ab99 a9be
00000150: 6e96 333d 114e 8fbd e201 803d ff9c d0be
00000160: 295c 3e3d 2550 843e 6c10 c5bc f134 1d3e
00000170: c093 fbbd 39b9 ad3e 6706 b53d efe6 53bd
00000180: ec82 183d 878e 263d 7147 84bd 08c9 d0bb
00000190: 7cf0 a63d 60b2 ddbc 3300 cdbc 43dd 57bd
000001a0: 3703 b1bd 497b bcbb f0d4 843e f6c8 debc
000001b0: 6336 9eba eebd fcbb 8164 06bd 33f2 d4bc
000001c0: 3e9b 9dbd 9f6c e93d ef5f f8bd 8be0 3c3e
000001d0: a9db 33be bb25 c03d 0fb1 34bd e8ca e23c
000001e0: ec72 ddbb a8d2 063c 7f95 fdbc 8d24 8a3d
000001f0: 8719 05be 7add 333d 980c 5a3d cfef 7fbc
00000200: aa27 733d fd5b 65bd c83b 503c 5f21 2bbc
00000210: 44a9 263d 0cef 22be 11f1 0e3b 22ea 283d
00000220: cde5 78bc d4bf 273d a257 6abc 7200 9b3d
00000230: 3059 613d 8e36 cb3d 35d0 cc3d 3713 09bc
00000240: 1b98 09bd 2191 bdbd 00ee 7d3d d555 b3bc
00000250: 104c 6bbd fa5e c93c 2a3b 763c d9cc 18bc
00000260: e897 1fbd e267 133d 7584 aa3c 537c a43c
00000270: 9439 31ba 4dde d73d 45f6 c33d 97f3 6f3d
00000280: 1afc 833c 5e3e 243e 721a 2abd a52a 20bd
00000290: bb5e 22be bfb7 2a3c 97db 94bd 61ac eebb
000002a0: 38ff 723d ba1c 463c ce6a e63d 7a21 3abd
000002b0: 0623 b13d ef2b 49bc b65d ed3b d8a7 ba3c
000002c0: 15da 2f3d 217c 0ebe 5d5b 2fbd 2e23 123d
000002d0: 533c c1bb a595 55bc 03ee 2fbb 091a 833d
000002e0: 2233 3e3c bd85 053d f024 7d3d bb8c 7e3c
000002f0: 49a3 263e 88d7 2dbe 7c12 1bbd 6995 d7ba
00000300: 8b12 5d3c 068f f13b 6f8a 63bd ae7c 71bd
00000310: 02db 983d 1a2e 353a 8964 323d 2829 573c
00000320: c73b bdbb 9cc4 f4bc 6493 52bc de3b 20bd
00000330: b8b8 53bc 4e7c 963d a9d8 fa3d 7fa1 9b3d
00000340: 4401 bf3d 8c3f e63b faab 65bc cc84 54bc
00000350: 85e8 fcbd eef0 113d 2367 853d b75e 30be
00000360: 6fba c5bb 28ca c03c 2685 48bd 9a46 0bbd
00000370: f81a 71be 495d 833d c20f d2bd fec8 6f3b
00000380: 345a 8abc f574 34bd d3ff f63c 9656 1abe
00000390: 1487 5bbd faab 55bb 78bb 5c3c b40b 0e3d
000003a0: 47bf 53bc 2011 0e3c b9b8 12be 36ef 32ba
000003b0: 837d 813c 24fd 7e3d 81bd 24bc 1cca 9b3b
000003c0: 538f c63c 7333 5a3d 4c5d c6bc 92c7 ea3d
000003d0: 338a a3bd 09e8 8a3d 9618 7e3c e7bc e8bc
000003e0: a827 a23c 43ee cdbb 8303 c4bc e73f 7ebc
000003f0: a089 d1be 8fcb c2bd a8ee a0bc 827c a1bc
-0.09033584 -0.09302333 0.0051473426 -0.045014665 -0.040541984 -0.3111637 -0.012412805 -0.0572863
-0.054039788 0.12619713 -0.055399235 -0.008708335 -0.014453717 -0.011608928 0.020087408 -0.0071241506
0.006010747 -0.13620067 -0.019628873 -0.105040856 0.017985702 -0.06797624 -0.16083913 0.00048044763
-0.058778927 0.013418635 -0.0023265823 0.014971966 -0.13960172 0.050112102 -0.011774057 0.0043154797
-0.023316046 0.12816302 -0.10746556 0.10385628 -0.092155606 0.014719787 -0.022391066 -0.043592963
-0.0677792 -0.09877527 -0.060137633 0.061585348 0.25060746 0.045142815 0.016900742 -0.07701639
0.074250564 -0.123343416 0.064159065 -0.029383194 -0.0843383 0.033667587 0.0050311405 -0.051319856
0.0033285557 0.11613334 0.007230699 -0.14129455 -0.10137532 0.17505541 -0.034119226 -0.0036437518
-0.0493384 0.008314051 0.06566057 0.1370061 0.21148825 0.0073269643 0.025933096 0.08065914
-0.031961437 -0.033375673 0.04848702 0.0058693555 -0.0032235032 -0.02142102 -0.043281183 0.11067309
0.073554926 0.025597094 0.0103178285 -0.33125052 0.043844633 -0.06997312 0.06250359 -0.4074478
0.04647461 0.25842395 -0.024055682 0.15352227 -0.122840405 0.33930376 0.08839112 -0.051733907
0.03723423 0.04066327 -0.06458939 -0.006371621 0.081513375 -0.027062595 -0.025024509 -0.052701246
-0.08643191 -0.0057520014 0.25943708 -0.027195435 -0.0012070652 -0.007713071 -0.03281069 -0.025994396
-0.07695626 0.11397671 -0.12127673 0.18445031 -0.17564262 0.093821965 -0.04411417 0.027684644
-0.0067580845 0.008228935 -0.030955074 0.06745253 -0.12998019 0.04391239 0.053234667 -0.01562114
0.059364 -0.05599593 0.012709565 -0.010444968 0.040688768 -0.15911502 0.0021811167 0.04123891
-0.0151915075 0.040954426 -0.01430312 0.07568444 0.055016696 0.09922515 0.1000065 -0.008366398
-0.033592325 -0.09256197 0.061994553 -0.021891514 -0.057445586 0.024581421 0.015028754 -0.009326183
-0.03896323 0.035987742 0.020815114 0.020078814 -0.0006760594 0.105404474 0.095684566 0.058581915
0.016111422 0.16039416 -0.041529126 -0.03910317 -0.1585645 0.010419785 -0.07268446 -0.0072837328
0.059325427 0.01209181 0.1125084 -0.045442082 0.08649258 -0.012278541 0.007243837 0.022785112
0.04293259 -0.13914539 -0.04281174 0.03567808 -0.005897084 -0.013036166 -0.0026844747 0.0640145
0.011608871 0.032598246 0.061802804 0.015536482 0.16273226 -0.1697675 -0.037859425 -0.0016447726
0.0134931905 0.007371786 -0.055551942 -0.058956794 0.074636474 0.0006911472 0.04355291 0.013132371
-0.0057749483 -0.029878907 -0.0128525235 -0.039119594 -0.012922458 0.07347928 0.12248356 0.07599162
0.09326413 0.0070266183 -0.014018053 -0.012971114 -0.12349037 0.03563016 0.065138124 -0.17223631
-0.0060341875 0.023533896 -0.048955105 -0.034002878 -0.23545444 0.06414277 -0.10256912 0.0036588307
-0.016888715 -0.04405685 0.030151283 -0.15072092 -0.053595617 -0.0032603727 0.01347243 0.03467913
-0.012924022 0.008671075 -0.14328279 -0.00068258063 0.015806919 0.062253132 -0.010054947 0.004754318
0.024238264 0.053271722 -0.02421441 0.11463846 -0.07985344 0.067825384 0.015508791 -0.028410388
0.0197943 -0.0062845065 -0.023927456 -0.015518165 -0.40925312 -0.09511482 -0.01964505 -0.01971269

base.policy_head.bias f4 [128]
00000000: b4ab e3bd 02a8 d3bc ffcb b03c 174b df3a
00000010: 0b4a b8bc c694 bd3c f2b9 02bc be8b 0ebd
00000020: bda3 2dbd bb52 5ebd 5024 debb f055 043d
00000030: b309 8c3c e1e8 acbd d9ff 783d f760 853d
00000040: 9400 ecbd 7572 4ebc e406 c1bc 91af eb3d
00000050: b48c d43d 8023 e3b7 7c31 81bd 3284 a6bd
00000060: e54e b93b 6c68 b13c 1490 8abc 0e2b 26bd
00000070: 2af4 96bd 09be d4bc 48eb 77bc d5ea 1f3d
00000080: 3cdd 09bd 9c36 533d 474b febc 7aa0 4dbd
00000090: fd39 3abd c8c7 d4bd 976a 813c 3927 05be
000000a0: b104 9fbc 587d 0c3c 27db dcbd 9659 8eb8
000000b0: f740 a43b 1341 50bd 84ef a03c d68c 7f3b
000000c0: f137 033e 3474 22bd e1a1 ce3d f44d f23c
000000d0: a2f7 3e3d d6cf 483d 353c c73d d743 cd3c
000000e0: adc3 0c3e 71f3 01be 0686 c23c cd26 beba
000000f0: 27ca 333d 4f71 cdbd 1261 0cbd 6de0 6abc
00000100: 6825 313a ddae 25bd 2e72 a8bc 7676 183d
00000110: 0500 853d 5033 9abd 53aa f73d 6e08 ae3d
00000120: b94a acbb 4d4a e8bb 2adc 5bbd 5337 f4bc
00000130: 3028 29bc da9e 99bd 5230 013e 7784 d53c
00000140: 323e c43c b7ea febc f141 0a3c 6d19 14bb
00000150: 594c 413b 1a6b 683d 1c91 07bd c2a8 85bd
00000160: ba73 67bd a3d8 dc3d 8e05 833b 0fb0 a4bd
00000170: f894 89bd e4fe 2fbd 1e79 b83d 20e8 883b
00000180: fcae 08be 854f 74bd d5ec 7a3d 42ea da3d
00000190: 2c1e 2fbd ba8b f5bd a48c b93d 13bc 9838
000001a0: 29cb 1abc 93b7 4cbd 0f3c d9bd e45d 153d
000001b0: 3c81 7a3c 39e7 5abc 82b4 923d 9467 c53d
000001c0: 40a6 39bd eb5d 5cbd 2a54 dfbd b455 d5bd
000001d0: fc48 87bd 864f 78bd 581e cdbd 9707 70bd
000001e0: 8c66 ad3d 6efb b03c 9a0a 10bd 6429 0c3e
000001f0: 48e6 9cbc 7762 a9bd cd6d b9bc d721 a03b
-0.11116734 -0.025836948 0.021581648 0.0017035928 -0.022496244 0.02314223 -0.007978903 -0.034801237
-0.04239248 -0.054278117 -0.006779231 0.03230852 0.017094469 -0.084428556 0.06079087 0.06512635
-0.11523548 -0.012600531 -0.023562856 0.11508096 0.103783995 -2.707704e-05 -0.063082665 -0.08130683
0.005655157 0.021656238 -0.016914405 -0.040568404 -0.07370789 -0.025969522 -0.015131779 0.039042313
-0.03365825 0.05156575 -0.031041754 -0.05020187 -0.04546546 -0.10389668 0.015797896 -0.13003244
-0.019411417 0.008574806 -0.107839875 -6.787774e-05 0.005012627 -0.05084331 0.01964546 0.0038993857
0.12814309 -0.0396616 0.1008947 0.029578187 0.04662288 0.049026333 0.097282805 0.025056763
0.1374652 -0.12690522 0.023745548 -0.0014507413 0.04389396 -0.100313775 -0.03427226 -0.014335734
0.0006757588 -0.040449966 -0.020562258 0.03722235 0.06494144 -0.07529318 0.12093034 0.084977016
-0.005257931 -0.0070889355 -0.05367676 -0.029811537 -0.010324523 -0.07501002 0.12616089 0.02606414
0.023955438 -0.03111778 0.008438573 -0.0022598163 0.002949497 0.056742765 -0.03309737 -0.065263286
-0.05650685 0.10783508 0.003998465 -0.08041393 -0.06717867 -0.042967692 0.09007476 0.004178062
-0.13348001 -0.05964615 0.061261017 0.106892124 -0.042753384 -0.11989541 0.09060028 7.282956e-05
-0.009447851 -0.049979758 -0.106071584 0.036466494 0.015289601 -0.013360792 0.071633354 0.096388966
-0.045324564 -0.053800505 -0.10904725 -0.10416737 -0.066057175 -0.060622714 -0.10015553 -0.05860099
0.08466825 0.021604266 -0.03516636 0.13687664 -0.019152775 -0.08270734 -0.022635365 0.0048868465

dist.linear.weight f4 [4, 128]
00000000: 3d6b 0bbc 8688 5e3c 9c74 0abc de2a c739
00000010: aa1c 913a 22e0 e73d 5302 0f3c 6fba 98bb
00000020: 0f38 453c e474 e23a 1b6a 293b bdf1 9cbc
00000030: 1856 acbd 0429 07bc bc19 bebb bcd4 c13b
00000040: ecdf 9fbd 1350 3f3c 81c9 03bc ad17 00bb
00000050: 941b 053d 051a 8dbb 82fb 5bbb 79b7 8d3b
00000060: ffeb 0dbc 3658 243c c19b e33a 9c41 1aba
00000070: f1f6 4abb 4713 b43b 09be a8ba 7e49 d0bb
00000080: fd24 a93b 9d67 003c df94 3e3c eb7b 66bb
00000090: 4d8d 06bd e113 44bb abe8 bd3a ab8b 38ba
000000a0: 0d21 463b d96c 3bba c932 74bb b372 323b
000000b0: f30a acba 1a9a 063e bce4 403a c1f9 55bc
000000c0: f7ee febc 8358 9f3a 5a98 00bd c797 c73a
000000d0: 0a9f 5bba 29ec 833b f4e5 30bd 7f2d 523a
000000e0: 90bb e03b b31f cc3c 324d e0ba 3f47 713b
000000f0: 18d5 ba3b 2ae1 063b a843 11bc 4be5 1abc
00000100: 0ee9 a13c 3353 643b 35ed d43b 8add 443b
00000110: 9ce5 bb3a 9308 3e3b 81f1 12bc a8b7 1a3d
00000120: 8c8a fd3b f847 833c 1dce 113b b59c 003c
00000130: 2e4b 79b8 d2b2 7ebb df93 6d3b cfc0 233c
00000140: 5d1c 433b d42d a03c 61e0 d4ba 9703 123b
00000150: 9a36 853b a5e6 58bd 7bd2 2e3d df57 b8bc
00000160: f41c 32bb 794f 3fbd f30a bc3c 6a07 dd3d
00000170: 8b3b fbbb aeae 753b fcea 8039 9b9b dfbb
00000180: 0fdc 62bb 57df 0c3a 1b14 d23b 64d3 66bc
00000190: afd2 813c 9fb2 193c 878b b1ba 234f 5dbb
000001a0: 23c2 a43c d395 823b 348e 05bb 515f 273c
000001b0: a420 493b 270a c1b9 943b e3bb 088a e1bb
000001c0: b387 15bc fccf ef3c 60e6 bf3b 744b 0bbd
000001d0: fd07 88bb 55ff aebb bb2e 183c e4fb cf3b
000001e0: 68c6 0cbd 4c83 dabc 547d 403d 726c 44bc
000001f0: 83d3 cebb 1a60 d03a 8106 22bb afa9 9bbb
00000200: e230 01bc 636f a8bb 7bfa 3fbc 321b 1abc
00000210: 4965 41bb 5b24 e7ba 312e f43b 681c e539
00000220: 08e1 e1bb 2a05 4f38 8f2a a53b 2573 173c
00000230: 35e1 bb3b f0df 5d3b d64c 2bbc 5a54 19b8
00000240: be87 2bbd 88d8 b13b b1e0 ceba 6bcb 25bc
00000250: f5d3 173c 4038 2cbb 8d17 733a d7e0 0f3c
00000260: 9f8a ca39 10bf c83b b2ab 32bb 0541 dcbb
00000270: 5739 823b f27e 4b3b c874 993a fa25 bbbb
00000280: 3753 103c befb 1b3b 81f3 babb e0de 6abb
00000290: cad7 ec3d 2af7 7bbb 6c5b 233c 5193 633b
000002a0: b1d2 873b 7875 41ba c105 01bb 6355 b93a
000002b0: eeb2 06bb c2da 14be 67fd 91ba a21e 3ebb
000002c0: c8a0 ce3a 1ee4 3f3c f774 6a3d 8299 6b3c
000002d0: 5460 033b fa7e 423c 7bf2 983d bb8d a1bb
000002e0: ab8f c5bb 884e 53bc 947b 8bbb 2ad3 88bc
000002f0: 769b 36bc d342 953a 4eb4 063c 6afa 3a3c
00000300: be41 00b9 4935 293b e1d1 5cbb fda8 4dba
00000310: 2afd 3f3a a1df 06bc e7cb 06bb 6dcf fb3b
00000320: b616 2f3c 1af0 cb3b 3943 8db9 c0bd f6ba
00000330: 77de aabb 4f15 24bc b216 35bb ee2b a1bb
00000340: 0036 20bb 2d0c e93b 5e09 34bb 2d06 473b
00000350: b0a0 1e3b 3182 883d 0dc6 d63b ec7a 7b3c
00000360: 446d 5e3b 26f1 be3c 6a3d b73c c2e1 e43c
00000370: feb1 af39 4ac0 033b d264 633b ced4 4cbb
00000380: dd8f ee3b dc8d 993a 7fc6 023c 2389 b63b
00000390: f92f 703b 7de5 89b9 8ddb abba 7223 23bc
000003a0: 8534 16be 5c6b 1c3b c39b 42bc 31b3 1abc
000003b0: 3d6a 3dbc 8af4 2a3b a9b5 30bc eab1 daba
000003c0: 110c 2d39 13c4 f93b ecdc 79bb 30a6 943c
000003d0: 4e38 6a3a a0d9 e0ba 0dcf c23a 4297 d73b
000003e0: 7cdf 8abc 848b c93a 8f4d cabd a583 173c
000003f0: c4cc 88bb 41e4 82b9 29d5 0a3b 4039 b13a
-0.008509454 0.013582354 -0.008450653 0.00037988176 0.0011071165 0.11322047 0.0087285815 -0.0046608965
0.012037291 0.0017277268 0.0025850597 -0.019158239 -0.084148586 -0.008249525 -0.0058014076 0.0059152525
-0.078063816 0.011676806 -0.008043648 -0.0019545362 0.032497004 -0.0043060803 -0.0033566658 0.00432485
-0.008662223 0.010030797 0.0017365144 -0.00058844103 -0.0030969942 0.005495462 -0.0012874018 -0.006356417
0.00516188 0.007837203 0.011632173 -0.0035169076 -0.0328496 -0.0029919075 0.0014488896 -0.0007039855
0.0030232102 -0.00071497035 -0.0037261716 0.002722901 -0.0013125822 0.13144723 0.0007358303 -0.013060034
-0.031119807 0.0012157116 -0.031395294 0.0015227728 -0.00083778857 0.004025955 -0.04318805 0.00080176437
0.0068582967 0.02491746 -0.001711285 0.0036816148 0.0057016723 0.0020580986 -0.008866228 -0.009454082
0.01976445 0.003483963 0.006498004 0.0030039274 0.0014335397 0.002899681 -0.008968712 0.037772804
0.0077374633 0.016025528 0.0022248097 0.007849862 -5.9436243e-05 -0.003886391 0.0036251468 0.0099947
0.0029771545 0.019553103 -0.0016241187 0.0022279972 0.004065347 -0.052954335 0.0426812 -0.022502838
-0.0027177902 -0.04670665 0.02295444 0.1079243 -0.00766701 0.003748815 0.0002458914 -0.0068239695
-0.0034616028 0.00053738564 0.006411088 -0.014088485 0.015847532 0.0093809655 -0.0013545611 -0.0033769093
0.020112103 0.0039851456 -0.002037895 0.010215596 0.0030689621 -0.00036819393 -0.0069345925 -0.0068829097
-0.0091265915 0.02927398 0.0058563203 -0.034007505 -0.004151343 -0.0053404965 0.009288485 0.0063471664
-0.034368902 -0.026673935 0.046994522 -0.011988746 -0.0063118353 0.0015897781 -0.0024723115 -0.0047504525
-0.00788519 -0.0051402315 -0.011717434 -0.009405898 -0.0029509834 -0.0017634736 0.0074517955 0.00043699448
-0.006893281 4.9357455e-05 0.005040474 0.009243761 0.005733634 0.00338554 -0.010455331 -3.65566e-05
-0.0418775 0.005427424 -0.0015783516 -0.010119299 0.009266843 -0.0026278645 0.00092732237 0.008781633
0.00038631723 0.006126292 -0.0027262983 -0.006721618 0.0039741206 0.0031051007 0.0011707777 -0.0057113143
0.008808902 0.0023801173 -0.0057052975 -0.003583841 0.11564596 -0.0038446882 0.009970527 0.0034725259
0.0041449894 -0.000737987 -0.0019687267 0.0014139827 -0.0020553428 -0.14536574 -0.0011138142 -0.0029009958
0.0015764469 0.011712102 0.057240453 0.014379861 0.002004643 0.011871094 0.074681245 -0.0049302257
-0.0060290894 -0.012897141 -0.004256675 -0.016702253 -0.011145463 0.0011387713 0.008221699 0.011412242
-0.00012231522 0.0025819114 -0.0033694434 -0.00078453106 0.0007323796 -0.008232028 -0.0020568313 0.007684639
0.010686567 0.0062236907 -0.000269437 -0.001882486 -0.005214508 -0.010014846 -0.0027631936 -0.004918567
-0.002444625 0.007112047 -0.0027471404 0.0030368671 0.0024204664 0.06665457 0.006554371 0.015349131
0.003393964 0.023308348 0.022368152 0.027939681 0.00033511216 0.0020103627 0.0034697545 -0.0031254771
0.0072803334 0.0011715251 0.0079818955 0.005570547 0.0036649688 -0.00026301658 -0.0013111696 -0.009957181
-0.14668472 0.0023867702 -0.011877957 -0.009442137 -0.011560974 0.0026085698 -0.010785499 -0.0016685103
0.00016503061 0.007622251 -0.0038126064 0.01814565 0.00089347817 -0.0017154701 0.0014862731 0.0065793106
-0.016952269 0.0015376662 -0.098780744 0.009247695 -0.0041748006 -0.00024965595 0.0021184182 0.001352109

dist.linear.bias f4 [4]
00000000: d5b0 e0bc a4a6 203d 3e8b c2bd 5f29 ab3d
-0.02742807 0.03922142 -0.094992146 0.083575
