model/models/rl_policy.pth (torch, 234203 bytes, 13 tensors)

base.base.0.weight f4 [32, 18, 3, 3]
0	0xbce1db37	-0.02757035
1	0xbce24ff5	-0.027626017
2	0x3d150e26	0.036390446
3	0xbd5e966b	-0.05434267
4	0xbd15bc10	-0.036556304
5	0xbd0fa0bd	-0.0350654
6	0xbc8cf8fd	-0.01720857
7	0xbc5630a1	-0.0130731175
8	0xbd251f0e	-0.04031282
9	0xbdf86e47	-0.12130409
10	0xbaff23a2	-0.0019465575
11	0x3c5a807d	0.013336298
12	0xbc8e3f46	-0.017364156
13	0x3d9e46e8	0.07728368
14	0xbe17a90e	-0.14810583
15	0xbe5ab041	-0.21356298
16	0xbbaa5d6d	-0.0051991255
17	0xbe637efc	-0.2221641
18	0x3d615967	0.0550169
19	0xbc3ecea4	-0.011645947
20	0xbe52eb32	-0.20597532
21	0xbe0a4624	-0.13503319
22	0xbd67a7cd	-0.05655651
23	0xbd5d3244	-0.054003015
24	0xbdefd4e8	-0.117105305
25	0x3d75d015	0.060012896
26	0xbe9ec889	-0.3101237
27	0xbd84221e	-0.0645182
28	0xbdc4c8f2	-0.0960864
29	0xbd8cb275	-0.068699755
30	0xbd808f45	-0.062773265
31	0xbd97f5a5	-0.074199
32	0x3e27c9cc	0.16385573
33	0x3e05ba44	0.13059336
34	0xbc06368d	-0.008191717
35	0x3e11d29c	0.14240497
36	0x3cf955da	0.030436445
37	0xbe219046	-0.15777692
38	0x3ead3f5e	0.33837408
39	0xbd601525	-0.054707665
40	0x3d08c966	0.033395194
41	0xbe4bc10a	-0.19897857
42	0x3e05c6b1	0.13064076
43	0xbcd71c8f	-0.026258735
44	0xbe28d3f3	-0.16487102
45	0xbe30296e	-0.17203304
46	0xbe97876f	-0.29595515
47	0xbe6e4dc9	-0.2327186
48	0xbe014ec8	-0.12627709
49	0x3deafa12	0.114734784
50	0xbde736c2	-0.11289741
51	0xbe758877	-0.23977838
52	0xbe7029a0	-0.23453379
53	0xbe3f3138	-0.18671119
54	0xbdeefa9b	-0.11668893
55	0x3dd10c27	0.10207396
56	0xbdde9ede	-0.10870145
57	0x3c52ddff	0.012870311
58	0x3dde6260	0.10858607
59	0xbdb09a15	-0.08623139
60	0xbc4111c4	-0.011784021
61	0xba7bc681	-0.00096044695
62	0xbdce4efd	-0.100736596
63	0xbd96c23e	-0.073612675
64	0x3e457099	0.19281234
65	0xbe5b1ac8	-0.21396935
66	0x3e1fd6a7	0.15609227
67	0x3d07579e	0.033042543
68	0xbc2ddb3d	-0.0106113525
69	0x3d326d4e	0.043561272
70	0xbdddb0d6	-0.108247444
71	0xbeb11dc2	-0.34593016
72	0xbe15e999	-0.14639892
73	0xbdc2d1b6	-0.095126554
74	0xbe1eb111	-0.15497233
75	0xbc3efd67	-0.0116570955
76	0xbd326de4	-0.04356183
77	0x3d01097e	0.031503193
78	0x3cdb500f	0.026771573
79	0xbe4402fd	-0.19141765
80	0x3d7a57dc	0.061118945
81	0x3dcd8423	0.10034969
82	0xbd1532f3	-0.036425542
83	0x3e219507	0.15779506
84	0x3e575f54	0.21032459
85	0xbdc03754	-0.09385553
86	0xbce29503	-0.027658945
87	0xbe3a17bd	-0.18173118
88	0xbd9d0008	-0.076660216
89	0xbc58e788	-0.013238795
90	0x3dae3e9d	0.08508036
91	0xbd009949	-0.031396184
92	0xbd8a42c0	-0.06751013
93	0xbd303a45	-0.04302432
94	0xbe943615	-0.2894751
95	0xbd78c09a	-0.060730554
96	0xbe554a91	-0.20829226
97	0xbe74903b	-0.23883145
98	0xbd0d3220	-0.03447163
99	0xbe4755c5	-0.19466312
100	0x3dbec257	0.09314411
101	0xbe09f98b	-0.134741
102	0xbd0129c1	-0.03153396
103	0x3dbe807a	0.09301849
104	0xbe37f042	-0.17962745
105	0xbde11878	-0.10990995
106	0xbe1bc0ea	-0.1521031
107	0xbe8716c4	-0.26384556
108	0xbea2a1e8	-0.3176415
109	0xbdef4c65	-0.11684493
110	0xbe77e7bf	-0.24209498
111	0xbe830a5b	-0.25593838
112	0xbdaca21c	-0.084293574
113	0xbcc5e01e	-0.024154719
114	0xbdfd3d70	-0.12365234
115	0xbdc420e3	-0.09576585
116	0xbd70c402	-0.058780678
117	0x3c9ee60c	0.019396804
118	0x3b997d85	0.0046841525
119	0x3d320791	0.043464247
120	0xbe14ccfd	-0.14531322
121	0x3dcf2007	0.101135306
122	0x3d449b87	0.047999885
123	0x3e03bdf9	0.12865438
124	0xbdf8f2ad	-0.12155662
125	0x3ddbb45e	0.10727762
126	0xbdc293db	-0.095008574
127	0x3c84e7cb	0.016223809
128	0x3dda17d2	0.106490746
129	0xbd9406f3	-0.07227888
130	0xbdfc5ab4	-0.12321988
131	0xbda88f91	-0.08230508
132	0x3d4014ca	0.046894826
133	0xbccb2df7	-0.024802191
134	0xbe012a5e	-0.12613818
135	0x3d1051ce	0.035234265
136	0x3ddf80b6	0.109132215
137	0xbc8de2dc	-0.017320089
138	0xbc93a586	-0.018023264
139	0x3e2adae2	0.1668506
140	0x3dfe89a2	0.12428595
141	0x3cce8408	0.025209442
142	0x3c1969f7	0.009363643
143	0x3db9969d	0.0906193
144	0xbd8cc475	-0.06873409
145	0xbdc1f63c	-0.094707936
146	0x3e47e653	0.19521455
147	0x3d1d7a4d	0.038446713
148	0x3d9d0419	0.07666797
149	0x3e1f9bed	0.15586825
150	0x3d7f54fe	0.062336914
151	0x3d4f3239	0.050585005
152	0xbd4bbd85	-0.049741287
153	0x3cecba0c	0.028897308
154	0xbdae6d40	-0.085169315
155	0x3c54fcdf	0.012999742
156	0xbdc2f53e	-0.095194325
157	0xbd9d0351	-0.07666648
158	0x3dbbefe8	0.09176618
159	0x3d02e74d	0.031958867
160	0x3d061a70	0.032740057
161	0xbd8d108a	-0.0688792
162	0xbc00d90e	-0.00786425
163	0x3e0d00fc	0.13769907
164	0xba9cb24c	-0.0011954992
165	0xbd3274d4	-0.043568447
166	0xbcee8499	-0.029115962
167	0x3d31a2c4	0.043368116
168	0xbd8ae13c	-0.06781241
169	0xbe0151c2	-0.12628844
170	0xbd34542f	-0.044025596
171	0xbcc213bc	-0.02369105
172	0xbeb14a79	-0.3462713
173	0xbea6824e	-0.3252129
174	0xbe2a272a	-0.16616502
175	0x3e68192e	0.22665855
176	0xbea637e8	-0.32464528
177	0xbdb67ac1	-0.08910132
178	0xbe43599b	-0.1907715
179	0x3c22c0b6	0.009933641
180	0xbe92c17d	-0.28663245
181	0xbc4f9f2e	-0.012672229
182	0xbe53250b	-0.206196
183	0xbe7cc8b3	-0.24685936
184	0x3de86650	0.113476396
185	0xbe29f1f7	-0.16596209
186	0x3cab89b3	0.020939684
187	0xbd2df90d	-0.04247384
188	0xbe0f0f10	-0.1397059
189	0xbe184f48	-0.14873993
190	0x3d436854	0.047706917
191	0xbdec4ffc	-0.11538693
192	0xbe193a45	-0.14963634
193	0xbe16b535	-0.14717562
194	0x3c5af453	0.0133639155
195	0xbe0aecc5	-0.13566883
196	0x3b41d552	0.0029576612
197	0x3d90535c	0.070471495
198	0x3d8ec6e3	0.069715284
199	0x3d42704a	0.04747037
200	0xbd805828	-0.062668145
201	0xbd344650	-0.044012368
202	0xbe9213f6	-0.28530854
203	0xbc5eb203	-0.013592246
204	0xbd89cffa	-0.067291215
205	0xbe293d48	-0.16527283
206	0xbbdf158b	-0.006807988
207	0xbee652e5	-0.44985119
208	0xbe9dc57c	-0.3081473
209	0xbe598ec0	-0.21245861
210	0xbe54cf9b	-0.2078232
211	0xbeea003a	-0.45703298
212	0xbd94c1dd	-0.07263539
213	0x3adde630	0.0016929563
214	0xbe65c2f1	-0.22437645
215	0xbe4f3ada	-0.20237294
216	0xbe842b5f	-0.2581434
217	0x3e28988c	0.16464442
218	0x3df87cbc	0.12133166
219	0x3e15e47d	0.14637943
220	0x3ddf3fdd	0.10900853
221	0xbe12fa1c	-0.14353222
222	0x3d75d560	0.060017943
223	0x3e111c67	0.14170991
224	0x3d7b6cc7	0.061383035
225	0xbe137e21	-0.14403583
226	0xbd9d6e8a	-0.07687099
227	0xbdd1f6de	-0.10252164
228	0xbe6ad598	-0.22933042
229	0x3e243ea9	0.16039528
230	0xbd207675	-0.03917547
231	0x3e15d41c	0.14631695
232	0xbde69410	-0.112587094
233	0xbc9027a2	-0.017597023
234	0xbea39025	-0.3194591
235	0xbe21f0c1	-0.15814497
236	0xbe8b63ca	-0.2722457
237	0xbe5e5672	-0.21712664
238	0xbe60cd83	-0.21953396
239	0xbe91c4d6	-0.28470486
240	0xbd999d97	-0.07500761
241	0x3c534eb2	0.01289718
242	0x3d35b6df	0.044363853
243	0xbc8f3f3b	-0.017486205
244	0xbdf74165	-0.1207302
245	0xbe6acf4e	-0.22930643
246	0xbd8f5593	-0.06998744
247	0xbbbd1067	-0.0057697776
248	0x3d7380ba	0.059448935
249	0x3d419b6d	0.047267366
250	0xbbbf82eb	-0.005844464
251	0x3c937383	0.017999416
252	0xbe20dbed	-0.15708895
253	0xbeb6596d	-0.356151
254	0xbe8f6753	-0.28008518
255	0xbf02b697	-0.5105986

base.base.0.bias f4 [32]
0	0xbe453858	-0.19259775
1	0xbe7f402f	-0.24926828
2	0x3ea07bc5	0.3134443
3	0x3e6f299a	0.23355713
4	0xbe02be93	-0.12768011
5	0xbd06e62d	-0.032934356
6	0xbc42d0f1	-0.011890636
7	0xbe631325	-0.22175272
8	0xbeb49a43	-0.35273942
9	0xbd085514	-0.03328426
10	0xbe68167f	-0.22664832
11	0xbd437e7f	-0.047728058
12	0xbe6cb58a	-0.23116127
13	0xbe47edd8	-0.19524324
14	0xbeb02ad2	-0.3440767
15	0xbe80ddbc	-0.2516917
16	0xbe2a6018	-0.1663822
17	0xbeab6225	-0.33473316
18	0x3a2ba9fc	0.0006548462
19	0xbeacf90a	-0.33783752
20	0xbdc26623	-0.09492137
21	0x3e953299	0.29140165
22	0xbb92d80e	-0.004481322
23	0x3e941c97	0.28928062
24	0x3ee4dda0	0.44700336
25	0xbe8eb272	-0.27870518
26	0xbe54d5e4	-0.20784718
27	0xbd98a524	-0.07453373
28	0xbe19284e	-0.14956781
29	0xbe360938	-0.17776954
30	0xbd382c2f	-0.04496401
31	0xbe25fc4c	-0.16209525

base.base.2.weight f4 [32, 32, 3, 3]
0	0x3e1dfd3a	0.1542863
1	0xbd289205	-0.04115488
2	0x3da5226b	0.08063205
3	0xbe4ec3cd	-0.2019188
4	0x3dd4cd1d	0.10390685
5	0x3da11182	0.078646675
6	0xbd462b9a	-0.048381425
7	0x3cab67bb	0.020923486
8	0x3e37e07a	0.17956725
9	0x3d810ac9	0.06300885
10	0xbe15126e	-0.14557812
11	0xbdab00f0	-0.08349788
12	0xbdfa9480	-0.122353554
13	0x3da32854	0.07966676
14	0xbe595669	-0.21224369
15	0x3d988a29	0.07448227
16	0xbdd4c66a	-0.10389407
17	0xbe355b71	-0.17710663
18	0xbe4dbc5d	-0.20091386
19	0xbe1e72fa	-0.15473548
20	0xbc5eb214	-0.013592262
21	0xbdf4b3f0	-0.11948383
22	0xbe2530b3	-0.16131859
23	0xbe438010	-0.1909182
24	0xbd99ecde	-0.07515882
25	0xbe81374c	-0.252375
26	0xbd967d3b	-0.073481046
27	0xbe942080	-0.28931046
28	0xbdb2ad42	-0.087244526
29	0xbe890214	-0.26759398
30	0xbe8dd978	-0.27704978
31	0xbe3fa3a5	-0.18714769
32	0x3e04af48	0.1295749
33	0xbd42ed4c	-0.047589585
34	0xbe39118e	-0.18073103
35	0xbd7c2049	-0.061554227
36	0xbda0630c	-0.07831392
37	0x3d261011	0.040542666
38	0xbd4c87b2	-0.049934097
39	0x3d72dae2	0.059290774
40	0x3cd05d9c	0.025435261
41	0xbea0ced1	-0.31407788
42	0xbe2f1bcf	-0.17100452
43	0xbe1d9b89	-0.15391363
44	0xbc22cb62	-0.009936186
45	0xbe32e2f7	-0.17469393
46	0x3c3e3bc5	0.01161093
47	0x3c09d9eb	0.008413772
48	0xbdb9f4d1	-0.09079898
49	0x3cc4a5e3	0.024004882
50	0xbe1bee66	-0.1522766
51	0x3dad4935	0.08461229
52	0xbe303fbf	-0.17211817
53	0xbd5f5cb5	-0.05453177
54	0xbb85eb2a	-0.0040868716
55	0xbcb4423d	-0.022004241
56	0xbd3dc2b5	-0.046328265
57	0x3e244cb0	0.16044879
58	0xbda1e641	-0.079052456
59	0xbd666691	-0.05625016
60	0x3d2bf8cd	0.04198532
61	0xbd83b5b6	-0.06431143
62	0xbddab9b5	-0.10679952
63	0x3d77774d	0.06041651
64	0xbe183cb5	-0.14866908
65	0xbc9f1d0f	-0.019423036
66	0xbda27aab	-0.07933553
67	0x3d028f7d	0.031875122
68	0x3d63b318	0.05559072
69	0x3d86ac6e	0.06575857
70	0x3dffa7da	0.12483187
71	0x3d29adf8	0.041425675
72	0xbe5a59a0	-0.21323252
73	0xbe0a5284	-0.1350804
74	0xbd192a85	-0.037394065
75	0xbe023c82	-0.12718394
76	0xbcd5a475	-0.026079396
77	0xbe0656cc	-0.13119048
78	0x3cac8197	0.021057887
79	0x3dc0a6f6	0.09406845
80	0xbd386b53	-0.045024227
81	0x3cd30d22	0.025763098
82	0xbdcb011a	-0.099123195
83	0xbc534158	-0.012893997
84	0x3d671481	0.05641604
85	0x3e3f98d0	0.18710637
86	0x3e1326ad	0.14370222
87	0x3e62f3b3	0.22163276
88	0x3dce3b01	0.10069848
89	0x3e1f686c	0.15567178
90	0x3d199b5b	0.037501674
91	0x3ce16dd7	0.027518196
92	0x3e104d98	0.140921
93	0x3daa1176	0.08304112
94	0x3cf4479d	0.029819304
95	0xbc0258a5	-0.007955705
96	0xbdcb6060	-0.099304914
97	0xbd830de8	-0.06399137
98	0xbd169ffb	-0.036773663
99	0xbd942acf	-0.072347276
100	0x3d8c76b2	0.06858577
101	0xbe44d05e	-0.19220111
102	0x3d2c97cc	0.042136952
103	0x3d907cb0	0.07055032
104	0xbdc3a255	-0.09552447
105	0xbc8be592	-0.017077241
106	0xbe035b3d	-0.12827773
107	0xbd8dd8c4	-0.069261104
108	0x3e14840d	0.14503498
109	0xbae65170	-0.0017571878
110	0xbe21bde8	-0.157951
111	0x3e39aa19	0.18131293
112	0x3d140227	0.036134865
113	0xbd8b7a60	-0.068104506
114	0x3cd3533d	0.025796527
115	0xbbba7ce4	-0.0056911577
116	0x3dd5689f	0.104203455
117	0xbc0df494	-0.008664269
118	0xbd010938	-0.031502932
119	0xbcb9bf85	-0.022674331
120	0x3d46d696	0.04854449
121	0x3dffb7e0	0.12486243
122	0x3e0cfeba	0.13769045
123	0xbde7f4a5	-0.11325959
124	0xbdfb641d	-0.122749545
125	0x3e283978	0.16428173
126	0xbe09dfbd	-0.13464256
127	0xbbe6301f	-0.0070247795
128	0x3dff0d02	0.12453653
129	0xbd80bc27	-0.06285887
130	0xbe0f1609	-0.1397325
131	0xbca31a1e	-0.019909915
132	0xbe0451fe	-0.12921903
133	0xbae611ab	-0.0017552873
134	0xbd037900	-0.032097816
135	0x3c3051df	0.010761707
136	0xbd738038	-0.05944845
137	0x3dd7380d	0.10508738
138	0x3d1b937e	0.037982456
139	0x3e079511	0.13240458
140	0x3ddbb308	0.10727507
141	0x3d15d3cb	0.036578935
142	0x3dbd1b58	0.09233731
143	0x3e301182	0.17194179
144	0xbe00a7a0	-0.12563944
145	0xbdb2b3f8	-0.087257326
146	0xbcbae335	-0.022813419
147	0x3debe979	0.11519141
148	0xbc230f48	-0.009952374
149	0xbda38594	-0.079844624
150	0xbe063f51	-0.13110091
151	0xbe5826e3	-0.21108584
152	0x3d2aa02f	0.04165667
153	0xbe4bca32	-0.1990135
154	0xbd3ae583	-0.045629036
155	0xbe2b05f4	-0.1670149
156	0xbdbba6e9	-0.09162695
157	0x3cb15e6e	0.021651473
158	0xbdcee53e	-0.10102318
159	0x3c512b68	0.0127666965
160	0xbdbaac97	-0.0911495
161	0xbe2a76d0	-0.16646886
162	0xbe07d999	-0.132666
163	0xbe2c5767	-0.16830216
164	0xbd23b584	-0.03996803
165	0x3d58448e	0.052799754
166	0xbe79f63a	-0.24410334
167	0x3e2bd18d	0.16779156
168	0xbe675813	-0.22592191
169	0xbe140971	-0.14456727
170	0xbecd45c2	-0.40092283
171	0xbd8a699f	-0.06758427
172	0x3d194e48	0.03742817
173	0xbd2db562	-0.04240931
174	0x3cdccc67	0.026952935
175	0xbc747902	-0.014921429
176	0x3d0d0d9a	0.0344368
177	0xbddf77ca	-0.1091152
178	0xbda61ee7	-0.08111363
179	0xbcceaeef	-0.0252299
180	0xbdf14bc5	-0.1178203
181	0xbd1369b0	-0.035989463
182	0x3cf1793b	0.029476753
183	0xbe56e855	-0.20987065
184	0x3dd17363	0.102270864
185	0xbde59991	-0.11210931
186	0x3c43d3b3	0.0119523285
187	0xbd6b9305	-0.057513256
188	0x3d8653b3	0.06558933
189	0xbd990820	-0.07472253
190	0xbdef301b	-0.11679097
191	0xbd186230	-0.037203014
192	0x3dbf7bea	0.093498066
193	0xbe2b2469	-0.16713108
194	0xbd8042ee	-0.06262766
195	0x3e04c646	0.1296626
196	0x3d1ac935	0.037789542
197	0x3da10374	0.07861987
198	0x3d762237	0.060091224
199	0xbdd0b0b3	-0.10189953
200	0xbe05779c	-0.13033909
201	0xbdc8c42a	-0.0980304
202	0x3dc0d4c8	0.09415585
203	0x3d8a1cf4	0.067438036
204	0xbce7cd8c	-0.028296255
205	0xbd65dc9e	-0.0561186
206	0x3d99ae88	0.07503992
207	0xbdb0ad8e	-0.08626853
208	0xbd3160e8	-0.043305308
209	0xbda7889f	-0.08180355
210	0xbdf10c2a	-0.11769898
211	0xbdce3e90	-0.100705266
212	0x3d7ae0e4	0.06124963
213	0xbde99ec0	-0.11407232
214	0xbcec068c	-0.028811716
215	0xbdc74a9f	-0.0973103
216	0xbcd3f40f	-0.025873212
217	0xbd20e144	-0.03927733
218	0x3d80ec2c	0.06295046
219	0xbe141a45	-0.14463146
220	0xbd67f817	-0.05663308
221	0xbe49387a	-0.1965045
222	0xbc64d7a8	-0.013967432
223	0xbe41fc9b	-0.18944018
224	0xbe0c6439	-0.13710107
225	0x3ded3d09	0.11583907
226	0xbdf6239e	-0.12018512
227	0xbe1a73b0	-0.15083194
228	0x3dd2bd6b	0.10290035
229	0xbdda7a39	-0.10667843
230	0xbe0a8bc2	-0.13529876
231	0x3c909753	0.017650282
232	0xbd9bb180	-0.07602215
233	0x3c2c1456	0.010502895
234	0xbbe875b6	-0.0070941104
235	0x3ded3f6d	0.11584363
236	0x3d068395	0.03284033
237	0xbd660e39	-0.056165908
238	0x3d805207	0.062656455
239	0xbc4fc321	-0.0126808
240	0xbd7bc313	-0.061465334
241	0xbc646c9b	-0.013941909
242	0xbb8b121c	-0.004244102
243	0xbdf2b3f9	-0.11850733
244	0x3da9e349	0.08295304
245	0x3aea56f1	0.0017878694
246	0xbe0be8ff	-0.136631
247	0xbb7d1311	-0.00386161
248	0xbe84c6c3	-0.25932893
249	0xbe254cb1	-0.16142537
250	0xbdb55424	-0.08853939
251	0xbddf79fa	-0.10911937
252	0xbe1fd8b2	-0.15610006
253	0xbd6f5dba	-0.058438994
254	0x3d154129	0.036439095
255	0xbc61392a	-0.013746539

base.base.2.bias f4 [32]
0	0xbe272d84	-0.16325957
1	0xbe29847f	-0.1655445
2	0xbe78695f	-0.24258946
3	0xbea0dfb3	-0.3142067
4	0xbd9b76e3	-0.07591035
5	0x3b5a25aa	0.003328661
6	0x3e1a8297	0.15088879
7	0xbe666b53	-0.22501878
8	0xbe407ca1	-0.18797542
9	0xbcb13de7	-0.021635963
10	0xbdc3c893	-0.09559741
11	0xbe9d38d4	-0.3070742
12	0xbe7d21db	-0.24719946
13	0xbd8571a8	-0.06515819
14	0xbe20c91f	-0.15701722
15	0xbe1e29b5	-0.15445597
16	0xbe9052a4	-0.2818805
17	0xbe200010	-0.15625024
18	0xbe0c9417	-0.13728367
19	0xbea212db	-0.3165501
20	0x3b54536b	0.0032398354
21	0xbe5f8eed	-0.21831866
22	0xbe76c0ca	-0.2409698
23	0xbe4f50c2	-0.2024565
24	0xbec6c9b9	-0.38825777
25	0xbeb937fd	-0.36175528
26	0xbe7bb4d0	-0.24580693
27	0xbe10e94f	-0.141515
28	0xbda66b17	-0.081258945
29	0xbe08ce6d	-0.13359995
30	0xbdee9bce	-0.11650811
31	0xbe26abe4	-0.16276509

base.base.4.weight f4 [32, 32, 3, 3]
0	0x3e35f43a	0.17768946
1	0x3cc7dbb4	0.024396755
2	0x3e4c07fc	0.19924921
3	0xbdc4de6f	-0.09612738
4	0x3de3a9d9	0.1111638
5	0x3e785b8d	0.24253674
6	0x3bf59d3c	0.0074955504
7	0xbe521036	-0.20513996
8	0x3d0295c3	0.031881105
9	0xbda6f28f	-0.08151733
10	0xbe047b52	-0.12937668
11	0xbe39aefc	-0.18133157
12	0x3d253d05	0.040341396
13	0x3d66b506	0.05632498
14	0x3dde8ab5	0.108663
15	0x3dcbdcd4	0.09954229
16	0xbdc4e3da	-0.09613772
17	0x3e28a16a	0.16467825
18	0x3cbe0ff4	0.023200966
19	0xbdf4bb31	-0.119497664
20	0xbcc7b8e3	-0.024380153
21	0xbcf1e77e	-0.02952933
22	0xbd06194c	-0.03273897
23	0xbde1523e	-0.110020146
24	0xbd9aaf35	-0.07552949
25	0xbd296783	-0.041358482
26	0x3d6e7203	0.0582142
27	0xbd981b54	-0.074270874
28	0xbd9997ee	-0.074996814
29	0xbd1f7fd0	-0.03894025
30	0x3dc07a3a	0.09398313
31	0xbd9408db	-0.072282515
32	0xbd90bcdf	-0.07067274
33	0xbd2c34bc	-0.04204248
34	0x3d2a0b3d	0.041514624
35	0x3d395015	0.045242388
36	0x3c74bf55	0.014938195
37	0xbd1d377c	-0.038382992
38	0xbe8e6600	-0.27812195
39	0x3d409fe6	0.04702749
40	0x3df14533	0.11780777
41	0xbe0a8c54	-0.13530093
42	0x3e043bdc	0.1291346
43	0xbdcee77f	-0.10102748
44	0xbd9d0411	-0.07666791
45	0x3d66c3b0	0.056338966
46	0x3c7cb48a	0.015423903
47	0xbcb19dd2	-0.0216817
48	0x3cf39bbe	0.02973735
49	0x3d304549	0.043034825
50	0xbe253d1a	-0.1613659
51	0xbe4125b9	-0.18862046
52	0x3a3d1924	0.0007213524
53	0xbdc04032	-0.09387244
54	0xbc932f06	-0.017966758
55	0xbeb549bd	-0.3540782
56	0xbdb0bbf8	-0.08629602
57	0xbe7b1920	-0.24521303
58	0xbddbf234	-0.10739556
59	0xbc6b2c57	-0.014353833
60	0xbd7757c0	-0.06038642
61	0x3d4fe6ba	0.050757147
62	0xbe0152ef	-0.12629293
63	0x3d326d0e	0.043561034
64	0x3e1024fc	0.14076608
65	0x3e348453	0.17628603
66	0xbd490061	-0.049072627
67	0xbbff422e	-0.0077898717
68	0x3de2aa39	0.11067624
69	0x3e74e239	0.23914422
70	0xbc312001	-0.010810853
71	0x3d996b75	0.07491199
72	0xbe34caa1	-0.17655422
73	0x3c8cdbd1	0.01719466
74	0x3c7b48b8	0.015337162
75	0xbe0d9cd2	-0.13829353
76	0x39e89876	0.0004436408
77	0xbdf50655	-0.11964098
78	0x3da48e22	0.08034922
79	0xbcf859c9	-0.03031625
80	0xbe2a1355	-0.16608937
81	0xbe52534f	-0.20539592
82	0x3e4657ec	0.19369477
83	0xbd1f08d4	-0.03882678
84	0x3caeac83	0.021322494
85	0x3d9c328f	0.07626831
86	0x3df35c40	0.1188283
87	0x3db23855	0.08702151
88	0x3ea4c4e8	0.32181478
89	0x3d492fe3	0.049117934
90	0x3cdcce28	0.026953772
91	0xbde83b9d	-0.11339495
92	0xbe2a4f5c	-0.16631836
93	0xbe1eb8b3	-0.15500145
94	0xbe8c7935	-0.27436224
95	0x3ca746f0	0.020419568
96	0xbe849838	-0.25897384
97	0xbdced6f4	-0.10099593
98	0xbceff94e	-0.029293682
99	0xbcef7d6d	-0.029234612
100	0x3d9605dd	0.07325337
101	0x3d1837d6	0.037162624
102	0x3daf42c9	0.0855766
103	0xbde353b0	-0.110999465
104	0xbdc994a6	-0.098428056
105	0xbd84cc4e	-0.064842805
106	0x3de864ea	0.11347373
107	0x3a30e70d	0.00067482964
108	0x3c3deb7f	0.011591791
109	0x3b3c68bc	0.002874895
110	0x3d8e39c3	0.06944611
111	0xbe2f1a3f	-0.17099856
112	0xbb4b9dfc	-0.0031069508
113	0xbd67c4f0	-0.0565843
114	0x3e26d2d9	0.1629137
115	0xbda4f8b2	-0.08055247
116	0xbec2d13b	-0.38050255
117	0xbe0c4360	-0.13697577
118	0x3e4dbc33	0.20091324
119	0xbd365f6f	-0.044524606
120	0xbdd64951	-0.10463203
121	0xbe05ccb9	-0.13066377
122	0xbd213b5c	-0.03936325
123	0x3dc1bad3	0.09459462
124	0xbdd77d73	-0.105219744
125	0xbd7a3098	-0.0610815
126	0x3dcf7bf2	0.101310626
127	0x3e1f410a	0.15552154
128	0xbe02d04c	-0.12774771
129	0x3d9edf09	0.07757384
130	0xbe014fb7	-0.12628065
131	0xbd521c47	-0.0512965
132	0xbdabdbd3	-0.083915375
133	0xbe1d8e19	-0.15386237
134	0x3d930148	0.07177979
135	0xbe40bd19	-0.18822135
136	0x3ce97b10	0.028501064
137	0x3d200449	0.039066587
138	0xbde8221c	-0.11334631
139	0xbdc330b8	-0.09530777
140	0x3e823da5	0.25437656
141	0xba919bed	-0.0011109092
142	0x3cba992b	0.022778114
143	0xbdc458b0	-0.09587228
144	0xbd6acfb0	-0.057326972
145	0x3c9e2bb5	0.01930795
146	0x3dcdfbd1	0.10057796
147	0x3dd21d88	0.10259539
148	0x3d7bc6e2	0.061468966
149	0x3d2c518c	0.042069957
150	0x3d1426ee	0.03616994
151	0xbda29797	-0.0793907
152	0x3cd16aef	0.025563685
153	0xbd5ede24	-0.05441107
154	0x3e5b655b	0.21425383
155	0x3d1e297e	0.03861379
156	0x3e1b663b	0.15175717
157	0xbcf3b5d5	-0.02974979
158	0xbd884ae8	-0.06654912
159	0x3e30dffb	0.17272942
160	0x3c2547e1	0.010087938
161	0x3db42fb4	0.08798161
162	0xbbfda0f1	-0.007740133
163	0x3df96e97	0.121792965
164	0xbda0e26d	-0.07855687
165	0xbe000754	-0.12502795
166	0x3e0c2d04	0.13689047
167	0xbe700ff0	-0.2344358
168	0xbe085ccc	-0.13316649
169	0x3d16aba9	0.0367848
170	0x3d656374	0.05600305
171	0x3d3cd559	0.0461019
172	0xbcd9fbe1	-0.026609363
173	0xbc9cd3d5	-0.019143978
174	0x3de2f5e9	0.1108206
175	0x3bd357b6	0.006449665
176	0x3de868b6	0.11348097
177	0xbdd7e267	-0.1054123
178	0xbcd03208	-0.025414482
179	0x3dc39872	0.09550561
180	0xbe16c4f9	-0.14723577
181	0xbe085e80	-0.13317299
182	0xbe8d444a	-0.27591163
183	0xbdde7279	-0.10861678
184	0xbe24cb45	-0.16093166
185	0xbe12008f	-0.14258026
186	0xbe15d19d	-0.14630742
187	0x3e3291f0	0.17438483
188	0x3ddeae29	0.10873062
189	0xbd8e3c17	-0.06945055
190	0xbdafddd0	-0.08587229
191	0xbd851134	-0.06497422
192	0xbe47b869	-0.1950394
193	0xbdcbe851	-0.0995642
194	0x3c91c175	0.017792443
195	0xbb966c62	-0.004590557
196	0xbe35142a	-0.17683473
197	0xbc83e796	-0.01610164
198	0x3d66bd78	0.056333035
199	0x3c84c1c5	0.016205678
200	0x3dfd3308	0.12363249
201	0x3cfc462b	0.030795177
202	0x3cdb7789	0.026790397
203	0x3e0a3de7	0.13500176
204	0x3e5c0d5b	0.2148947
205	0x3d1d10a3	0.038345944
206	0xbb97f158	-0.0046369247
207	0xbd7a7d1e	-0.061154477
208	0x3c8ac639	0.016940223
209	0xbdb46eb3	-0.08810177
210	0xbe2c82e5	-0.16846807
211	0xbe16f8d1	-0.14743353
212	0x3c97e664	0.018542476
213	0xbcfbe499	-0.030748652
214	0xbe686d4a	-0.2269794
215	0xbcb4768e	-0.022029188
216	0xbd815887	-0.063157134
217	0x3d151246	0.03639438
218	0x3d9c14ce	0.07621156
219	0x3c976a2f	0.01848325
220	0xbcebf5bb	-0.028803697
221	0x3c4fb3ad	0.012677115
222	0x3e12cf9e	0.14337012
223	0x3caff152	0.021477375
224	0xbceef631	-0.029170128
225	0xbde4ec69	-0.11177904
226	0xbccb02a3	-0.02478153
227	0x3d963c18	0.07335681
228	0x3d44824c	0.047975823
229	0x3c98ad75	0.018637398
230	0xbcb05f97	-0.021529956
231	0x3e209673	0.15682392
232	0x3d55e940	0.052224398
233	0xbe0f9a31	-0.14023663
234	0x3e152a3b	0.14566891
235	0x3d8a1dc4	0.067439586
236	0x3c8f8fdb	0.01752465
237	0xbd87a690	-0.06623566
238	0x3d9636f8	0.07334703
239	0x3c5a689c	0.013330605
240	0x3e4e2674	0.20131856
241	0xbdba09bb	-0.09083887
242	0x3c8ff9a2	0.017575089
243	0xbd645f8c	-0.055755183
244	0x3b24ef87	0.0025167183
245	0xbce89dea	-0.028395612
246	0xbd904f61	-0.0704639
247	0x3e465ca6	0.1937128
248	0xbccab18b	-0.024742862
249	0xbd9f154d	-0.07767735
250	0xbe1907ee	-0.14944431
251	0xbaee02e0	-0.0018158816
252	0xbe55053a	-0.20802775
253	0x3d9a9aac	0.075490326
254	0x3d4665f3	0.04843707
255	0x3e1e58df	0.15463589

base.base.4.bias f4 [32]
0	0xbd82f506	-0.06394391
1	0xbe13a484	-0.14418226
2	0xbe0da017	-0.138306
3	0xbe31a835	-0.17349322
4	0xbe38118f	-0.17975448
5	0xbdb4be87	-0.08825403
6	0xbe74a772	-0.23892
7	0xbc3120a1	-0.010811002
8	0xbdd05069	-0.10171587
9	0xbe78ae6d	-0.24285288
10	0xbdbb7b2b	-0.09154352
11	0xbe54ba02	-0.20774081
12	0x3c5a5180	0.013325095
13	0xbd2d6f65	-0.042342562
14	0xbe725c98	-0.23668134
15	0xbe10a69f	-0.14126061
16	0xbe229015	-0.15875275
17	0xbe54ccba	-0.20781222
18	0xbca684b3	-0.020326948
19	0xbe10b171	-0.14130189
20	0xbdda62d0	-0.10663378
21	0xbd88adb9	-0.0667376
22	0xbe147c39	-0.14500512
23	0xbde7ebec	-0.113242954
24	0xbb47acad	-0.0030467913
25	0xbd8f356e	-0.06992613
26	0xbeb5b159	-0.35486868
27	0xbe065104	-0.13116843
28	0xbe1c7d47	-0.15282165
29	0xbe2ecc82	-0.17070201
30	0xbc6b7b1e	-0.014372615
31	0xbe647419	-0.22309913

base.fc1.weight f4 [128, 128]
0	0xbe7881c0	-0.24268246
1	0xbe01e02a	-0.12683168
2	0xbda24de6	-0.07925014
3	0xbe65c614	-0.22438842
4	0xbc8511e2	-0.016243879
5	0x3d2cd636	0.042196475
6	0xbe25d81f	-0.16195725
7	0xbdb42850	-0.087967515
8	0xbeb4930e	-0.35268444
9	0x3c0c5e83	0.008567455
10	0xbe1efb6c	-0.15525597
11	0x3e10e4af	0.14149736
12	0x3d707a0c	0.058710143
13	0xbc9fd64f	-0.01951137
14	0xbe51ec4f	-0.20500301
15	0xbd8c0529	-0.06836922
16	0x3c6b1562	0.01434836
17	0xbe163f04	-0.14672476
18	0xbced465c	-0.028964214
19	0xbd9e45d4	-0.077281624
20	0xbdff2c0d	-0.12459574
21	0x3d8fba91	0.070180066
22	0x3debc092	0.11511339
23	0x3e627242	0.22113898
24	0xbddf66eb	-0.10908302
25	0xbe033d2b	-0.12816302
26	0xbc82f58b	-0.015986225
27	0xbde7ec52	-0.113243714
28	0xbe8f6f02	-0.2801438
29	0xbe80d140	-0.25159645
30	0xbe894a25	-0.2681438
31	0xbd451a2d	-0.048120666
32	0x3da5395c	0.08067581
33	0xbcb40c9e	-0.021978673
34	0x3d524cb0	0.051342666
35	0x3b96609b	0.004589153
36	0xbdbb1a71	-0.09135903
37	0x3cbd0a99	0.023076342
38	0x3ea62dcc	0.32456815
39	0x3d9e711c	0.07736418
40	0x3e53e183	0.20691495
41	0x3d643e48	0.05572346
42	0x3bf3543c	0.007425813
43	0x3c3c1b03	0.0114810495
44	0xbda08587	-0.07837968
45	0x3e7ace1b	0.24492685
46	0x3c809386	0.015695345
47	0x3e84f963	0.25971517
48	0x3cdb2bbb	0.02675425
49	0xbe31d6cf	-0.17367099
50	0xbe113120	-0.14178896
51	0xbdac479b	-0.08412095
52	0xbcb381d5	-0.021912495
53	0x3d6842db	0.056704383
54	0x3e30c0fd	0.17261119
55	0x3d94844d	0.07251797
56	0x3df83347	0.121191554
57	0x3e04e3ee	0.12977573
58	0x3e6bc307	0.23023616
59	0xbd38d1ec	-0.045122072
60	0xbda3b4a6	-0.0799344
61	0xbd264798	-0.04059562
62	0x3d95528f	0.072911374
63	0xbe3b01ef	-0.18262456
64	0xbd804543	-0.062632106
65	0x399628f5	0.00028640745
66	0x3d82db31	0.06389464
67	0x3e18113a	0.14850321
68	0xbd5617f0	-0.052268922
69	0xbd993898	-0.074814975
70	0xbe25ae50	-0.16179776
71	0x3cef9b3c	0.029248826
72	0xbe63cb8c	-0.22245616
73	0xbe5a2073	-0.21301441
74	0xbd5405a9	-0.05176321
75	0xbe4bfdc2	-0.1992102
76	0xbe253ceb	-0.1613652
77	0x3de6915c	0.11258194
78	0xbde5e79a	-0.11225815
79	0x3d7aee53	0.06126244
80	0xbd3dba66	-0.04632034
81	0xbde86502	-0.11347391
82	0x3e14a636	0.1451653
83	0xbd0c2655	-0.034216244
84	0xbdb796f2	-0.089643374
85	0x3e10b6e3	0.14132266
86	0xbc6fb73d	-0.01463109
87	0xbe4a6f3a	-0.19768992
88	0xbe1e1f2b	-0.15441577
89	0xbe2e3ead	-0.17016096
90	0xbe5dbe3f	-0.21654604
91	0xbe13a178	-0.14417064
92	0x3db3a217	0.087711506
93	0x3e34d6c4	0.17660052
94	0x3e6cf16e	0.23138973
95	0x3c45c7b8	0.012071542
96	0xbdefe669	-0.11713869
97	0xbde984ab	-0.114022575
98	0xbdc04f27	-0.09390097
99	0xbe115e21	-0.14196064
100	0x3e1e0793	0.15432577
101	0xbe053993	-0.13010244
102	0xbdced5c5	-0.10099367
103	0xbd45e2e7	-0.048312094
104	0xbd7e7587	-0.0621238
105	0xbd672061	-0.056427363
106	0xbe2af981	-0.1669674
107	0x3e57f1df	0.2108836
108	0xbd494a0c	-0.049142882
109	0x3db95347	0.09049087
110	0xbd9a4459	-0.075325675
111	0xbd871641	-0.065960415
112	0xbe1a1633	-0.15047531
113	0xbcda3a32	-0.026639078
114	0xbd529f48	-0.051421434
115	0xbe4dde34	-0.20104295
116	0xbe564863	-0.20926051
117	0xbe168d4f	-0.14702342
118	0xbd92ec0d	-0.07173929
119	0x3e04d3e8	0.12971461
120	0xbe0a48ac	-0.13504285
121	0x3e30d629	0.17269196
122	0xbddd7870	-0.10813987
123	0x3c802e21	0.015646996
124	0xbe0b9bb7	-0.13633619
125	0xbd8dde1e	-0.06927131
126	0xbd9a46ab	-0.0753301
127	0xbd768ddc	-0.06019388
128	0xbe98aaf3	-0.29817924
129	0xbeddd3e9	-0.43325737
130	0xbd9caa75	-0.076496996
131	0xbf163bde	-0.586851
132	0xbe1d624a	-0.15369526
133	0xbea3f97d	-0.32026282
134	0xbd871905	-0.06596569
135	0x3d790cea	0.06080333
136	0xbeb9779f	-0.36224076
137	0x3dc9632e	0.0983337
138	0xbdd2a094	-0.10284534
139	0xbd862273	-0.065495394
140	0x3dbd46f2	0.09242047
141	0xbca5fe7b	-0.020262947
142	0xbd94e3c2	-0.07270004
143	0x3ddfd8db	0.10930034
144	0x3dc231f6	0.094821855
145	0x3dc29162	0.09500386
146	0x3e35b877	0.17746149
147	0x3df9d4c7	0.12198787
148	0x3d40f12f	0.04710501
149	0xbde23c30	-0.11046636
150	0xbd9b4d5e	-0.07583116
151	0xbdf898bf	-0.12138509
152	0xbea7d77f	-0.32781598
153	0x3ddb2321	0.1070006
154	0x3e17c216	0.14820132
155	0xbd14069f	-0.036139127
156	0x3daaab2c	0.0833343
157	0xbe7c64da	-0.24647847
158	0x3d1e9bd1	0.038722817
159	0x3d191dfc	0.03738211
160	0x3ddac63c	0.106823415
161	0x3e380a25	0.1797262
162	0xbc14453c	-0.00904971
163	0xbe174487	-0.14772235
164	0xbdbc05b7	-0.091807775
165	0x3c1e7c54	0.009673197
166	0x3d32df5c	0.043670043
167	0xbc8cf437	-0.017206294
168	0xbe3a1b51	-0.18174483
169	0xbf02da34	-0.511142
170	0xbe209495	-0.1568168
171	0xbebbd91b	-0.36689076
172	0xbd31c369	-0.04339925
173	0xbe6cdc2f	-0.23130868
174	0xbb599155	-0.0033198197
175	0xbdcac114	-0.09900108
176	0x3e371e87	0.17882739
177	0x3db0e9a5	0.08638314
178	0xbd851024	-0.06497219
179	0x3e816105	0.25269333
180	0xbdd70b0e	-0.105001554
181	0x3d190974	0.03736253
182	0x3d825028	0.06362945
183	0x3dfbb78a	0.12290867
184	0x3d8850e8	0.06656057
185	0xbdde5187	-0.10855394
186	0xbd8dffd8	-0.06933564
187	0xbe73b702	-0.2380028
188	0xbe15234d	-0.14564247
189	0x3dfd0179	0.123537965
190	0xbe26707a	-0.16253844
191	0xbd40acb5	-0.047039706
192	0xbc5f8740	-0.013643086
193	0x3d2fe46b	0.042942446
194	0x3e88d8b9	0.26727846
195	0xbd9342b4	-0.07190457
196	0xbd1d0cfc	-0.03834246
197	0xbd37bb1a	-0.04485617
198	0xbe4e2c9a	-0.20134202
199	0xbe9776cf	-0.2958283
200	0xbdec2af9	-0.11531634
201	0xbe2617f4	-0.16220075
202	0xbe793c5c	-0.24339432
203	0xbd84042a	-0.06446107
204	0x3d8824a4	0.06647614
205	0xbea1e0cd	-0.31616822
206	0xbbe50135	-0.0069886693
207	0xbd0a7ede	-0.033812396
208	0xbdfa7757	-0.122297935
209	0xbdff10de	-0.12454389
210	0xbe9f7b00	-0.3114853
211	0xbec1cee7	-0.37853166
212	0xbd4e121b	-0.050310235
213	0xbe296bac	-0.1654498
214	0xbdf6a0b5	-0.12042371
215	0xbed1fd09	-0.41013363
216	0xbe7b0048	-0.24511826
217	0xbd3ffc98	-0.04687175
218	0xbe38207d	-0.17981143
219	0xbe220d56	-0.158254
220	0xbc9b6c90	-0.018972665
221	0xbd74687d	-0.05966996
222	0x3cee410e	0.029083755
223	0xbdcd0de5	-0.10012416
224	0xbe238f63	-0.15972666
225	0xbe4ad430	-0.19807506
226	0x3bf09d5c	0.0073429774
227	0xbd43803b	-0.047729712
228	0xbd5b6c6e	-0.053570203
229	0xbea1a4ac	-0.31570947
230	0xbe0ddb34	-0.1385315
231	0xbe464e91	-0.19365908
232	0xbe4d2c89	-0.2003652
233	0x3e11abec	0.14225739
234	0xbce6b2f2	-0.0281615
235	0xbb70be0b	-0.0036734368
236	0xbe2fcf2c	-0.17168874
237	0xbdccaced	-0.099939205
238	0xbe4ece2a	-0.20195833
239	0xbe432478	-0.1905688
240	0xbd5ee4c1	-0.054417375
241	0xbdad4b36	-0.08461611
242	0xbe5f65bb	-0.21816151
243	0xbcab9e78	-0.020949587
244	0xbda79551	-0.08182777
245	0x3e09fcc1	0.13475324
246	0x3c44445c	0.011979189
247	0xbe035ef4	-0.1282919
248	0x3e40b6ef	0.18819784
249	0xbe226914	-0.15860397
250	0x3d6cdc63	0.057827365
251	0xbd4c694a	-0.0499051
252	0x3dd9f664	0.106426984
253	0xbe49b7fc	-0.1969909
254	0xbe119cb0	-0.14219928
255	0x3cc95210	0.024575263

base.fc1.bias f4 [128]
0	0xbe882191	-0.2658811
1	0xbe4fcc1d	-0.20292707
2	0x3cc6e11b	0.02427726
3	0xbde68af5	-0.11256973
4	0xbd99d5db	-0.07511493
5	0xbe0a4b28	-0.13505232
6	0xbe8c3aab	-0.2738851
7	0xbe0c7ff3	-0.13720684
8	0xbd50e653	-0.051000904
9	0xbe1a60fa	-0.15076056
10	0xbdef4d66	-0.116846845
11	0xbdd12727	-0.10212546
12	0xbd2cff1a	-0.04223547
13	0xbe3e8914	-0.18606979
14	0xbd89d97f	-0.06730937
15	0xbdcbcfae	-0.09951721
16	0xbe1bdea0	-0.15221643
17	0xbe05f8f3	-0.13083248
18	0xbe3db4b3	-0.18525963
19	0xbd8e22ab	-0.06940206
20	0xbdcefa47	-0.1010633
21	0xbe3d00fa	-0.18457404
22	0xbd80c6b2	-0.06287898
23	0xbe9aaed4	-0.30211508
24	0xbe2e237a	-0.1700572
25	0xbe6b8244	-0.22998911
26	0xbdd10bbf	-0.102073185
27	0xbe5ef5d5	-0.21773465
28	0xbe886463	-0.2663909
29	0xbe2d7376	-0.16938576
30	0xbe1bbf80	-0.1520977
31	0xbd9849c1	-0.074359424
32	0xbe4bb66c	-0.19893807
33	0xbe41e10e	-0.18933508
34	0xbe063b32	-0.13108519
35	0xbe0b5f52	-0.1361058
36	0xbe5a98c4	-0.21347338
37	0xbe6940f9	-0.22778691
38	0xbe73d512	-0.23811749
39	0xbe844b47	-0.25838682
40	0xbe0cb0cd	-0.13739319
41	0xbe468ed0	-0.19390416
42	0xbe348dd6	-0.17632231
43	0xbe71038e	-0.23536512
44	0xbe4e7667	-0.20162354
45	0xbeac6134	-0.3366791
46	0xbe719b2a	-0.23594347
47	0xbdbfd7da	-0.09367342
48	0x3d664330	0.05621642
49	0xbdf5f81c	-0.12010214
50	0xbe605574	-0.21907598
51	0xbdb5e9fb	-0.08882519
52	0xbd6eec7b	-0.058330994
53	0xbe71dd6d	-0.23619623
54	0xbdd01264	-0.10159758
55	0xbe206fb7	-0.15667616
56	0xbe460d9e	-0.19341132
57	0xbe998a4d	-0.29988328
58	0xbe232cce	-0.1593506
59	0x3d33bcca	0.043881215
60	0xbe6a0287	-0.22852527
61	0xbd4705c6	-0.04858949
62	0xbe83f320	-0.25771427
63	0xbda7b310	-0.0818845
64	0xbd9c7f35	-0.0764145
65	0xbe78b2cc	-0.24286956
66	0xbe42b93a	-0.19015971
67	0xbe34d26b	-0.17658393
68	0xbe4a9c1b	-0.19786112
69	0xbe5af46f	-0.21382307
70	0xbe9a1644	-0.30095112
71	0xbe1c3db7	-0.15257917
72	0xbe2ce4e5	-0.16884191
73	0xbde3d592	-0.1112472
74	0xbe38a932	-0.18033293
75	0xbe435282	-0.19074443
76	0xbd1f30d0	-0.03886491
77	0xbdc35e25	-0.09539441
78	0xbe24f6ab	-0.16109721
79	0xbd51cec9	-0.051222596
80	0xbeaca1cd	-0.33717194
81	0xbe1ac6a8	-0.15114844
82	0xbe831727	-0.256036
83	0xbdca728d	-0.0988513
84	0xbdcbcb3e	-0.09950875
85	0xbdf777f7	-0.12083428
86	0xbd1ae32b	-0.0378143
87	0xbceb0bae	-0.028692093
88	0xbd4ad943	-0.049523603
89	0xbe02e8d8	-0.12784135
90	0xbc691ae7	-0.014227605
91	0xbd5159c7	-0.05111101
92	0xbe8d20c9	-0.27564076
93	0xbe52c0cd	-0.2058136
94	0xbd818747	-0.0632463
95	0xbdd76eb0	-0.10519159
96	0xbe5b44d8	-0.2141298
97	0xbc525cf9	-0.012839549
98	0xbcbd51b5	-0.02311025
99	0xbdafe837	-0.08589213
100	0xbe5985c0	-0.21242428
101	0xbe1815cb	-0.14852063
102	0xbe60aa14	-0.2193988
103	0xbe65b298	-0.2243141
104	0xbe5fa47a	-0.21840087
105	0xbd5211a1	-0.051286343
106	0xbd4347fb	-0.047676068
107	0xbd84310f	-0.0645467
108	0xbe402564	-0.18764263
109	0xbdf8c3dc	-0.12146732
110	0xbdc6ed50	-0.097132325
111	0xbe02863b	-0.12746517
112	0xbe2d7bb6	-0.16941723
113	0xbdb6f964	-0.08934286
114	0xbe2e2800	-0.17007446
115	0xbdf93087	-0.12167459
116	0xbdccc09a	-0.09997673
117	0xbd4b2078	-0.04959151
118	0xbe1757fe	-0.1477966
119	0xbddffb60	-0.10936618
120	0xbdd616c7	-0.10453563
121	0xbe53a498	-0.20668256
122	0xbd9aeed2	-0.075650826
123	0xbe366757	-0.17812859
124	0xbd3f8311	-0.046755854
125	0xbc99e0ff	-0.018784044
126	0xbd233329	-0.039843712
127	0xbe45d557	-0.19319664

base.value_head.weight f4 [1, 128]
0	0x3df1a454	0.11798921
1	0x3da5d1a2	0.08096625
2	0xbe0cfdf5	-0.13768752
3	0xbd59a0a2	-0.053131707
4	0xbb577f0d	-0.0032882125
5	0x3e33a9ed	0.1754529
6	0x3d205c1e	0.03915035
7	0x3c8bf756	0.017085712
8	0x3cfa354b	0.03054299
9	0x3d738a38	0.059457988
10	0xbe2dd753	-0.16976671
11	0xbda8feff	-0.08251762
12	0x3d55255b	0.052037578
13	0x3cd264e2	0.02568287
14	0xbd90875c	-0.07057068
15	0x3cc42c96	0.023947041
16	0x3dcd0303	0.1001034
17	0x3a912652	0.0011074042
18	0xbd0becc4	-0.034161344
19	0xbe9f50ba	-0.31116277
20	0xbcf84d1b	-0.030310204
21	0x3e11ef7f	0.14251517
22	0x3d14cc5f	0.036327716
23	0x3d7c059e	0.061528794
24	0xbce2b66f	-0.027674882
25	0xbd32bd66	-0.043637656
26	0xbe02da95	-0.12778695
27	0x3d84515d	0.06460831
28	0xbd1f6891	-0.03891808
29	0xbdedc6b6	-0.11610167
30	0x3cb93c80	0.022611856
31	0xbc7a12ea	-0.0152632985
32	0xbdb995c8	-0.09061772
33	0x3e7c64d5	0.2464784
34	0x3e080f1f	0.13287018
35	0xbdac1553	-0.08402505
36	0xbb9178cf	-0.0044394503
37	0x3c995454	0.018716969
38	0x3d0d55c9	0.03450564
39	0xbcf36cab	-0.029714903
40	0x3da79eac	0.08184561
41	0x3d63d531	0.055623237
42	0xbdd685fe	-0.10474776
43	0xbb06c748	-0.0020565558
44	0xbd4e76d6	-0.0504063
45	0x3d9f614a	0.07782228
46	0x3e4ac51f	0.19801758
47	0xbda300ff	-0.07959174
48	0xbead8f88	-0.33898568
49	0x3dc119c9	0.09428746
50	0xbe61f7a7	-0.22067128
51	0x3d6a7dbd	0.05724882
52	0xbe350d78	-0.17680919
53	0xbc57b5d6	-0.013165912
54	0x3e0c29f6	0.13687882
55	0x3d5c5bb2	0.053798385
56	0x3caf9613	0.021433866
57	0x3da9b29a	0.08286019
58	0xbe0ae8ba	-0.1356534
59	0xbebd2a00	-0.36946106
60	0x3e33c2a0	0.17554712
61	0xbd98f0ac	-0.074677795
62	0x3c7849b7	0.015154294
63	0x3e7d8865	0.24759062
64	0xbe02b7b9	-0.12765397
65	0xbb978dca	-0.004625057
66	0xbdc4de90	-0.09612763
67	0x3d2e8b7b	0.042613488
68	0x3dc48f8a	0.095976904
69	0x3e633c6f	0.22191022
70	0xbd562dcb	-0.052289765
71	0xbde81cf3	-0.113336466
72	0x3e08de29	0.13365997
73	0xbe23fa69	-0.16013493
74	0xbc307b20	-0.010771543
75	0xbddb8223	-0.10718181
76	0x3de3945b	0.11112281
77	0x3e65eaad	0.22452803
78	0xbd408596	-0.047002397
79	0x3bb866c2	0.005627484
80	0x3e053840	0.13009739
81	0xbe1403e5	-0.1445461
82	0x3db8ce78	0.09023756
83	0xbd570fba	-0.052505232
84	0x3d2351fd	0.039873112
85	0xbde33520	-0.11094117
86	0xbe0735a0	-0.1320405
87	0x3e1177b8	0.14205825
88	0xbc413fac	-0.011794966
89	0xbc06cf39	-0.008228117
90	0xbe1ec5e8	-0.15505183
91	0x3dad6df9	0.08468241
92	0xbc910fce	-0.017707732
93	0xbe691bef	-0.22764562
94	0x3e1e3319	0.1544918
95	0xbdd7b501	-0.10532571
96	0x3ad1ac30	0.001599675
97	0x3ebff64a	0.3749259
98	0xbdc579bc	-0.096423596
99	0xbccda106	-0.025101196
100	0x3d017e29	0.031614456
101	0xbdaf8b84	-0.08571532
102	0xbd91110d	-0.0708333
103	0x3d841a91	0.0645038
104	0xbe28ac28	-0.16471922
105	0xbe601c56	-0.2188581
106	0x3dc21ee8	0.09478551
107	0x3eb1040e	0.34573406
108	0x3de89d69	0.113581486
109	0x3d81e0f1	0.06341732
110	0x3ddfcb17	0.10927408
111	0x3a04aaaf	0.0005060834
112	0xbd28eee7	-0.04124346
113	0x3db38f45	0.08767561
114	0xbd01a9cd	-0.031656075
115	0x3d5bf8cf	0.05370408
116	0xbe417447	-0.18892013
117	0x3e5c4312	0.2150996
118	0x3d07fa31	0.033197585
119	0xbe96921e	-0.29408354
120	0xbabaeca9	-0.0014261204
121	0xbe0dbd42	-0.13841727
122	0xbd0dfc73	-0.034664582
123	0xbc0628dc	-0.008188453
124	0xbd020aec	-0.031748697
125	0xbc1d5cbb	-0.009604628
126	0x3dbd5794	0.0924522
127	0xbde207df	-0.110366575

base.policy_head.weight f4 [128, 128]
0	0xbe46cf3c	-0.19414991
1	0x3b8951cc	0.004190659
2	0xbe152fce	-0.14569017
3	0x3dfa3c7a	0.12218566
4	0x3d7340c0	0.059387922
5	0x3cd95ebe	0.026534434
6	0x3da224a0	0.07917142
7	0x3e40d169	0.18829884
8	0xbd9fc4dc	-0.0780122
9	0x3c495e08	0.012290485
10	0xbc385901	-0.011251689
11	0xbd79137f	-0.06080961
12	0xbe0bdb1a	-0.136578
13	0xbe086cb3	-0.13322715
14	0xbda89684	-0.082318336
15	0xbd6735f4	-0.056447938
16	0xbd8e04df	-0.06934523
17	0x3e3b9dc3	0.183219
18	0xbe18cdd5	-0.14922269
19	0xbcffc8ae	-0.031223621
20	0x3ca94047	0.020660533
21	0x3e0d654f	0.13808177
22	0xbe47017a	-0.19434157
23	0xbe27aec3	-0.1637526
24	0xbc9edcfc	-0.019392483
25	0x3dd06516	0.101755306
26	0x3e8c3dd5	0.27390924
27	0x3d33e098	0.04391536
28	0x3b82c36e	0.003990582
29	0xbae5547a	-0.001749649
30	0xbda21d49	-0.07915742
31	0xbd10487d	-0.03522538
32	0xbdcf4ad6	-0.10121696
33	0x3e090cda	0.13383809
34	0x3d996b18	0.0749113
35	0x3e66ebdd	0.22550912
36	0xbe12eeca	-0.14348903
37	0xbe78d9e1	-0.24301864
38	0xbe08d2f0	-0.13361716
39	0xbe51232c	-0.20423573
40	0xbdbd6f74	-0.092497736
41	0x3dc95f74	0.09832659
42	0x3c94af04	0.01814986
43	0x3dc007c9	0.09376485
44	0xbce13a5f	-0.027493654
45	0xbcf816cc	-0.030284308
46	0x3d8c835b	0.068609916
47	0xbd678ee4	-0.056532755
48	0x3dbe55f1	0.09293736
49	0xbdd68ba7	-0.10475855
50	0xbc04aad4	-0.008097369
51	0x3dde1ed8	0.10845727
52	0xbde9930c	-0.11405
53	0x3e505d39	0.20348062
54	0x3da85645	0.082195796
55	0xbdb7acb7	-0.089684896
56	0xbd09ed72	-0.03367371
57	0x3d9db722	0.077009454
58	0x39cfc807	0.0003963115
59	0xbca83729	-0.020534115
60	0x3e218c6f	0.15776227
61	0x3df25a54	0.11833635
62	0x393dad2e	0.00018088959
63	0x3cad17b7	0.021129472
64	0x3e1ee2e8	0.15516245
65	0x3db66add	0.08907101
66	0x3d32d7e2	0.043662913
67	0xbcaad320	-0.020852625
68	0x3cdf5425	0.027261803
69	0xbe150978	-0.14554393
70	0xbe18aa7d	-0.14908786
71	0xbd56793c	-0.05236171
72	0x3d3e8e5b	0.04652248
73	0x3e30359e	0.17207953
74	0xbe7b4ca3	-0.24540953
75	0xbed8c7a5	-0.42339817
76	0xbdfadd90	-0.12249291
77	0xbbc7a684	-0.0060928483
78	0xbe42d161	-0.19025184
79	0x3c90a56c	0.017657004
80	0xbd4762a8	-0.04867807
81	0xbdd1d6ec	-0.10246071
82	0xbc90ff85	-0.017699966
83	0x3bb8637b	0.0056270934
84	0xbb029a58	-0.0019928422
85	0xbd99f3ee	-0.07517229
86	0x3d9ef2a2	0.07761122
87	0x3c8454cc	0.016153716
88	0xbdcdac46	-0.10042624
89	0x3c8b2e01	0.01698971
90	0x3ddd534a	0.10806902
91	0xbdbb394b	-0.09141787
92	0xbd492c27	-0.049114373
93	0x3dac893b	0.08424612
94	0x3dbdd09c	0.09268305
95	0xbd7a2f47	-0.061080243
96	0xbd8ebcea	-0.06969626
97	0x3cbe1cdb	0.023207119
98	0x3df6c6ca	0.12049635
99	0x3d0d568e	0.034506373
100	0xbd18fdd4	-0.037351444
101	0x3d1ad7cd	0.03780346
102	0xbe209bc7	-0.15684424
103	0xbb9f6c47	-0.0048652026
104	0xbcc68f1d	-0.024238164
105	0x3e05590e	0.13022253
106	0xbdf75dd3	-0.120784424
107	0xbd0634ba	-0.032765128
108	0x3e15d54c	0.14632148
109	0xbd546e69	-0.051863108
110	0xbe26af0b	-0.16277711
111	0xbd8700ee	-0.06591974
112	0x3cfa1a13	0.030530011
113	0x3d84fd12	0.06493582
114	0xbda66c63	-0.08126142
115	0x3ea43982	0.32075125
116	0xbdd30988	-0.10304552
117	0xbd27f71f	-0.041007157
118	0xbe3435b0	-0.17598605
119	0xbbf2a9a2	-0.0074054757
120	0x3de098bc	0.10966632
121	0x3d5823e9	0.05276862
122	0xbc7b592b	-0.0153410835
123	0xbdec3b0c	-0.115347
124	0x3de98a78	0.11403364
125	0x3df8c7c8	0.1214748
126	0xbdd7e543	-0.10541775
127	0xbdb81929	-0.08989174
128	0x3e897d0d	0.2685322
129	0x3df62eae	0.12020622
130	0x3e27afd2	0.16375664
131	0x3e0cdc6f	0.13755964
132	0xbc109042	-0.008823456
133	0xbcf2e3b0	-0.029649585
134	0xbbe6eef5	-0.007047529
135	0xbc87ce71	-0.016577931
136	0x3d19c52b	0.03754155
137	0xbd7b2ce0	-0.061322093
138	0xbcb6955a	-0.022288013
139	0xbc8c9ed2	-0.017165575
140	0xbd5cb759	-0.05388579
141	0x3c0b690b	0.008508931
142	0x3e8ba40d	0.27273598
143	0x3ded5fcf	0.1159054
144	0xbe2b41ea	-0.16724363
145	0xbe5aefeb	-0.21380584
146	0xbd365c2b	-0.044521492
147	0xbdb82a30	-0.089924216
148	0xbe5ec6eb	-0.21755569
149	0xbddc06a3	-0.10743453
150	0xbe75f460	-0.24019003
151	0xbd693687	-0.056936767
152	0x3d18281a	0.03714762
153	0xbc15e03b	-0.009147699
154	0x3e46e3b6	0.19422802
155	0xbd3cc0fd	-0.046082485
156	0x3d750bc6	0.05982568
157	0x3d7c7867	0.061638262
158	0x3e8be4a4	0.27322876
159	0x3df1ca72	0.118061915
160	0xbdabe8f3	-0.08394041
161	0xbdb33536	-0.087503836
162	0x3d48906a	0.04896585
163	0x3da5c263	0.08093717
164	0xbd1e99c0	-0.038720846
165	0xbd36e2e4	-0.044649974
166	0x3e4ae696	0.19814524
167	0xbd87e778	-0.06635946
168	0xbd2409e6	-0.040048502
169	0xbe4236d3	-0.18966226
170	0x3e086c44	0.1332255
171	0xbbcbeadf	-0.006223067
172	0x3c868767	0.016421987
173	0x3e5869cc	0.21134108
174	0x3cb4d1d5	0.022072712
175	0xbe4d3186	-0.20038423
176	0xbdaac68b	-0.0833865
177	0xbd96d0a6	-0.07364015
178	0xbd39b962	-0.04534281
179	0xbdf84797	-0.1212303
180	0xbdeafbe1	-0.11473823
181	0x3e6cc7fc	0.23123163
182	0xbe915365	-0.28383937
183	0x3d83bb01	0.064321525
184	0xbe960fa1	-0.293088
185	0x3dd56030	0.10418737
186	0x3ca62ca3	0.020284956
187	0xbe4efdc1	-0.20213987
188	0xbe2d239a	-0.16908112
189	0x3e7e99e4	0.24863392
190	0xbd1ae0cd	-0.037812043
191	0xbe82f8a0	-0.2558031
192	0xbd9880f4	-0.07446471
193	0xbdebf2be	-0.11520909
194	0xbe388bb5	-0.18022044
195	0x3e37bfea	0.17944303
196	0x3e545fc5	0.20739658
197	0x3e8bdb66	0.27315825
198	0x3e3de698	0.18544996
199	0xbe014ca4	-0.12626892
200	0xbc0f6acd	-0.008753491
201	0xbd8d2131	-0.068910964
202	0x3d847b49	0.06468827
203	0xbd8dddd7	-0.06927078
204	0x3cd00922	0.02539498
205	0x3e26b04e	0.16278192
206	0x3e01875e	0.12649295
207	0xbe005580	-0.12532616
208	0x3e5c3503	0.21504597
209	0x3e47f239	0.19525994
210	0x3e226c0e	0.15861532
211	0x3e78ef81	0.24310113
212	0x3e2667ae	0.16250488
213	0xbde00880	-0.10939121
214	0xbe47cc05	-0.19511421
215	0x3d89b5cf	0.0672413
216	0xbc72dbc2	-0.014822902
217	0xbcfafedc	-0.030639105
218	0x3e0a3fdf	0.13500927
219	0x3d492044	0.049103037
220	0xbcb37499	-0.021906184
221	0xbd2df9a8	-0.04247442
222	0xbe24553c	-0.1604814
223	0x3d718774	0.05896707
224	0xbd893a09	-0.067005225
225	0xbd2a28b7	-0.041542735
226	0xbb0fe681	-0.002195746
227	0x3e0d9731	0.13827206
228	0x3d6880d9	0.056763504
229	0xbe5e04ab	-0.21681468
230	0xbd86f2fe	-0.06589316
231	0xbe10733e	-0.14106461
232	0xbd00729c	-0.0313593
233	0xbd977313	-0.073949955
234	0x3d690d86	0.056897663
235	0xbd6fd665	-0.058554072
236	0x3d5511f4	0.052019075
237	0x3e2d59ec	0.16928834
238	0xbc16db00	-0.009207487
239	0xbcb96a7a	-0.02263378
240	0x3ebf8c0a	0.3741153
241	0xbd6eebeb	-0.058330458
242	0x3d4cd6d8	0.05000958
243	0xbe849c6a	-0.25900584
244	0xbda6ff01	-0.08154107
245	0x3d081f55	0.033233006
246	0x3cd227ae	0.025653686
247	0xbe3a8a45	-0.18216808
248	0xbde2e118	-0.110780895
249	0x3e279f1f	0.16369294
250	0xbaec7d1f	-0.001804266
251	0xbad8bda0	-0.0016536005
252	0xbbc17447	-0.005903754
253	0x3d914491	0.07093156
254	0x3d997291	0.07492555
255	0x3e21ad34	0.15788728

base.policy_head.bias f4 [128]
0	0xbb6f064e	-0.0036472264
1	0x3d07941a	0.033100225
2	0xbc3fef42	-0.011714758
3	0x3bf04b26	0.007333177
4	0xbc22bbf7	-0.00993251
5	0xbb811c8f	-0.003940172
6	0xbc4b3994	-0.012403864
7	0xbabf0b08	-0.0014575431
8	0xbb60fce4	-0.0034330422
9	0x3bef8364	0.007309364
10	0x3d434e4a	0.047682084
11	0xbb098482	-0.0020983522
12	0xbabd11e0	-0.0014424883
13	0xbd6a22e0	-0.057162166
14	0x3c390dc1	0.011294783
15	0x3c3e6cc3	0.0116226105
16	0x3b83a1a6	0.0040170727
17	0xbc23ea9b	-0.010004665
18	0x3c260e2e	0.010135217
19	0xbd778e22	-0.060438283
20	0xbc07cc9a	-0.008288527
21	0xbb96a402	-0.004597188
22	0x39eeb347	0.0004552847
23	0xbadc7e50	-0.0016822312
24	0x3d150ced	0.03638928
25	0xbbfcad68	-0.0077111013
26	0xbb68fb4f	-0.0035550182
27	0xbc1b5f2c	-0.00948314
28	0x3bea5a02	0.007151843
29	0xbb785303	-0.0037891276
30	0xbd3f6940	-0.046731234
31	0x3accbc30	0.0015620049
32	0xbafb8e96	-0.0019192274
33	0x3b8be5a6	0.0042693196
34	0xbb245a56	-0.0025078258
35	0x3bb1974e	0.0054196483
36	0xbc5560dc	-0.013023581
37	0xbc245f57	-0.010032496
38	0x3ca41cb8	0.020033225
39	0x3c14d951	0.009085015
40	0xbc89e716	-0.016833823
41	0x3c1d3bd5	0.009596785
42	0x3c03f822	0.008054765
43	0xbb935a43	-0.004496844
44	0xba3338a0	-0.0006836746
45	0x3bdcae31	0.0067346324
46	0x3dbba31b	0.09161969
47	0x3c527c85	0.012847071
48	0x3c92425c	0.017853908
49	0xbac37e84	-0.0014915024
50	0x3b80347a	0.0039125057
51	0xbd5e2215	-0.054231722
52	0xbb2e139a	-0.0026561976
53	0x3b7cd406	0.0038578524
54	0x3d486e7d	0.048933495
55	0x3c3538e9	0.011060932
56	0x3c69e9e0	0.014276952
57	0xbc266101	-0.0101549635
58	0x3c2016f1	0.009771095
59	0xba23a162	-0.00062420045
60	0xbb099a62	-0.002099656
61	0xbae0c7b3	-0.0017149359
62	0x3c217daf	0.009856625
63	0xbaf2c4c4	-0.0018521775
64	0x3cc15df6	0.023604374
65	0xbcc2543d	-0.023721809
66	0x3c985465	0.01859493
67	0xbdca4eaa	-0.09878285
68	0x3bb74707	0.005593184
69	0xbad5160c	-0.0016257181
70	0xbb6d00d0	-0.0036163814
71	0x3c1d35af	0.009595319
72	0xbbcbd345	-0.0062202537
73	0x3c3f9e52	0.011695461
74	0x3c613f13	0.013747948
75	0x3b4f8024	0.003166207
76	0x3d0a211b	0.033722978
77	0xbcaa41cd	-0.02078333
78	0x3cc4e83d	0.024036521
79	0x3ad1ff2e	0.0016021484
80	0x3776b69d	1.4705261e-05
81	0x3cca6c6b	0.0247099
82	0xbbf5b374	-0.007498199
83	0x3b1f1f58	0.0024280157
84	0xbc753ad2	-0.014967637
85	0x3d415079	0.047195885
86	0x3c2320fc	0.009956595
87	0x3d1e4a88	0.038645297
88	0x3cc46763	0.02397508
89	0x3c581207	0.013187892
90	0x3c5d06b0	0.013490364
91	0x3d16874d	0.036750127
92	0x3c5292f3	0.012852418
93	0xbc16991d	-0.0091917785
94	0xbc5ac76c	-0.01335321
95	0x3b09ea7f	0.0021044312
96	0x3cb56bc7	0.022146119
97	0x3b120864	0.0022282833
98	0xbc994b9d	-0.018712813
99	0xbc0bda77	-0.008535973
100	0x3d4a70d8	0.049424022
101	0xbb70fd53	-0.0036772087
102	0x3c2cf796	0.010557076
103	0x3d130581	0.03589392
104	0x3c712887	0.014719135
105	0xbd1f83d6	-0.038944088
106	0x3d35eb35	0.044413764
107	0xbc01f474	-0.007931817
108	0x3c96a555	0.018389383
109	0xbac8f5e4	-0.001533207
110	0x3d7ce8af	0.061745342
111	0xbb3236f8	-0.0027193408
112	0xbb2711e8	-0.002549285
113	0x3c82fa0e	0.015988376
114	0x3d5773e8	0.05260077
115	0x3aeb87ac	0.001796951
116	0xbcd83fa6	-0.026397537
117	0xbb970189	-0.0046083373
118	0xbbf12b22	-0.007359878
119	0xbcd8ee8c	-0.026480936
120	0xbb155017	-0.0022783333
121	0x3b5816c1	0.0032972547
122	0xbc3e3b65	-0.01161084
123	0xbca3815e	-0.019959148
124	0xbc9bfe35	-0.019042114
125	0x3d4d1a9a	0.050074197
126	0xbbb87ecb	-0.0056303493
127	0xbdb950e0	-0.09048629
